…
I1212 19:34:45.720504 14809 net.cpp:294] The NetState phase (0) differed from the phase (1) specified by a rule in layer accuracy
I1212 19:34:45.720732 14809 net.cpp:51] Initializing net from parameters: 
name: "CaffeNet"
state {
  phase: TRAIN
  level: 0
  stage: ""
}
layer {
  name: "data"
  type: "Data"
  top: "data"
  top: "label"
  include {
    phase: TRAIN
  }
  transform_param {
    scale: 0.0078125
    mirror: true
    mean_value: 127
  }
  data_param {
    source: "/home/lc/gender/dushanzi/data/train.lmdb"
    batch_size: 128
    backend: LMDB
  }
}
layer {
  name: "conv1"
  type: "Convolution"
  bottom: "data"
  top: "conv1"
  param {
    lr_mult: 1
  }
  param {
    lr_mult: 2
  }
  convolution_param {
    num_output: 96
    kernel_size: 11
    stride: 4
    weight_filler {
      type: "xavier"
    }
    bias_filler {
      type: "constant"
    }
  }
}
layer {
  name: "relu1"
  type: "ReLU"
  bottom: "conv1"
  top: "conv1"
}
layer {
  name: "pool1"
  type: "Pooling"
  bottom: "conv1"
  top: "pool1"
  pooling_param {
    pool: MAX
    kernel_size: 3
    stride: 2
  }
}
layer {
  name: "norm1"
  type: "LRN"
  bottom: "pool1"
  top: "norm1"
  lrn_param {
    local_size: 5
    alpha: 0.0001
    beta: 0.75
  }
}
layer {
  name: "conv2"
  type: "Convolution"
  bottom: "norm1"
  top: "conv2"
  param {
    lr_mult: 1
  }
  param {
    lr_mult: 2
  }
  convolution_param {
    num_output: 256
    pad: 2
    kernel_size: 5
    group: 2
    weight_filler {
      type: "xavier"
    }
    bias_filler {
      type: "constant"
    }
  }
}
layer {
  name: "relu2"
  type: "ReLU"
  bottom: "conv2"
  top: "conv2"
}
layer {
  name: "pool2"
  type: "Pooling"
  bottom: "conv2"
  top: "pool2"
  pooling_param {
    pool: MAX
    kernel_size: 3
    stride: 2
  }
}
layer {
  name: "norm2"
  type: "LRN"
  bottom: "pool2"
  top: "norm2"
  lrn_param {
    local_size: 5
    alpha: 0.0001
    beta: 0.75
  }
}
layer {
  name: "conv3"
  type: "Convolution"
  bottom: "norm2"
  top: "conv3"
  param {
    lr_mult: 1
  }
  param {
    lr_mult: 2
  }
  convolution_param {
    num_output: 384
    pad: 1
    kernel_size: 3
    weight_filler {
      type: "xavier"
    }
    bias_filler {
      type: "constant"
    }
  }
}
layer {
  name: "relu3"
  type: "ReLU"
  bottom: "conv3"
  top: "conv3"
}
layer {
  name: "conv4"
  type: "Convolution"
  bottom: "conv3"
  top: "conv4"
  param {
    lr_mult: 1
  }
  param {
    lr_mult: 2
  }
  convolution_param {
    num_output: 384
    pad: 1
    kernel_size: 3
    group: 2
    weight_filler {
      type: "xavier"
    }
    bias_filler {
      type: "constant"
    }
  }
}
layer {
  name: "relu4"
  type: "ReLU"
  bottom: "conv4"
  top: "conv4"
}
layer {
  name: "conv5"
  type: "Convolution"
  bottom: "conv4"
  top: "conv5"
  param {
    lr_mult: 1
  }
  param {
    lr_mult: 2
  }
  convolution_param {
    num_output: 256
    pad: 1
    kernel_size: 3
    group: 2
    weight_filler {
      type: "xavier"
    }
    bias_filler {
      type: "constant"
    }
  }
}
layer {
  name: "relu5"
  type: "ReLU"
  bottom: "conv5"
  top: "conv5"
}
layer {
  name: "pool5"
  type: "Pooling"
  bottom: "conv5"
  top: "pool5"
  pooling_param {
    pool: MAX
    kernel_size: 3
    stride: 2
  }
}
layer {
  name: "fc6"
  type: "InnerProduct"
  bottom: "pool5"
  top: "fc6"
  param {
    lr_mult: 1
  }
  param {
    lr_mult: 2
  }
  inner_product_param {
    num_output: 256
    weight_filler {
      type: "xavier"
    }
    bias_filler {
      type: "constant"
    }
  }
}
layer {
  name: "relu6"
  type: "ReLU"
  bottom: "fc6"
  top: "fc6"
}
layer {
  name: "drop6"
  type: "Dropout"
  bottom: "fc6"
  top: "fc6"
  dropout_param {
    dropout_ratio: 0.5
  }
}
layer {
  name: "fc7"
  type: "InnerProduct"
  bottom: "fc6"
  top: "fc7"
  param {
    lr_mult: 1
  }
  param {
    lr_mult: 2
  }
  inner_product_param {
    num_output: 256
    weight_filler {
      type: "xavier"
    }
    bias_filler {
      type: "constant"
    }
  }
}
layer {
  name: "relu7"
  type: "ReLU"
  bottom: "fc7"
  top: "fc7"
}
layer {
  name: "drop7"
  type: "Dropout"
  bottom: "fc7"
  top: "fc7"
  dropout_param {
    dropout_ratio: 0.5
  }
}
layer {
  name: "fc8"
  type: "InnerProduct"
  bottom: "fc7"
  top: "fc8"
  param {
    lr_mult: 1
  }
  param {
    lr_mult: 2
  }
  inner_product_param {
    num_output: 2
    weight_filler {
      type: "xavier"
    }
    bias_filler {
      type: "constant"
    }
  }
}
layer {
  name: "loss"
  type: "WeightedSoftmaxWithLoss"
  bottom: "fc8"
  bottom: "label"
  top: "loss"
  softmax_param {
    pos_mult: 5
    pos_cid: 1
  }
}
I1212 19:34:45.720872 14809 layer_factory.hpp:77] Creating layer data
I1212 19:34:45.721060 14809 db_lmdb.cpp:35] Opened lmdb /home/lc/gender/dushanzi/data/train.lmdb
I1212 19:34:45.721108 14809 net.cpp:84] Creating Layer data
I1212 19:34:45.721125 14809 net.cpp:380] data -> data
I1212 19:34:45.721168 14809 net.cpp:380] data -> label
I1212 19:34:45.723160 14809 data_layer.cpp:45] output data size: 128,3,200,200
I1212 19:34:46.261790 14809 net.cpp:122] Setting up data
I1212 19:34:46.261857 14809 net.cpp:129] Top shape: 128 3 200 200 (15360000)
I1212 19:34:46.261868 14809 net.cpp:129] Top shape: 128 (128)
I1212 19:34:46.261874 14809 net.cpp:137] Memory required for data: 61440512
I1212 19:34:46.261893 14809 layer_factory.hpp:77] Creating layer conv1
I1212 19:34:46.261932 14809 net.cpp:84] Creating Layer conv1
I1212 19:34:46.261945 14809 net.cpp:406] conv1 <- data
I1212 19:34:46.261970 14809 net.cpp:380] conv1 -> conv1
I1212 19:34:47.960121 14809 net.cpp:122] Setting up conv1
I1212 19:34:47.960211 14809 net.cpp:129] Top shape: 128 96 48 48 (28311552)
I1212 19:34:47.960220 14809 net.cpp:137] Memory required for data: 174686720
I1212 19:34:47.960300 14809 layer_factory.hpp:77] Creating layer relu1
I1212 19:34:47.960355 14809 net.cpp:84] Creating Layer relu1
I1212 19:34:47.960366 14809 net.cpp:406] relu1 <- conv1
I1212 19:34:47.960381 14809 net.cpp:367] relu1 -> conv1 (in-place)
I1212 19:34:47.960858 14809 net.cpp:122] Setting up relu1
I1212 19:34:47.960882 14809 net.cpp:129] Top shape: 128 96 48 48 (28311552)
I1212 19:34:47.960891 14809 net.cpp:137] Memory required for data: 287932928
I1212 19:34:47.960901 14809 layer_factory.hpp:77] Creating layer pool1
I1212 19:34:47.960917 14809 net.cpp:84] Creating Layer pool1
I1212 19:34:47.960927 14809 net.cpp:406] pool1 <- conv1
I1212 19:34:47.960939 14809 net.cpp:380] pool1 -> pool1
I1212 19:34:47.961043 14809 net.cpp:122] Setting up pool1
I1212 19:34:47.961060 14809 net.cpp:129] Top shape: 128 96 24 24 (7077888)
I1212 19:34:47.961067 14809 net.cpp:137] Memory required for data: 316244480
I1212 19:34:47.961076 14809 layer_factory.hpp:77] Creating layer norm1
I1212 19:34:47.961109 14809 net.cpp:84] Creating Layer norm1
I1212 19:34:47.961119 14809 net.cpp:406] norm1 <- pool1
I1212 19:34:47.961133 14809 net.cpp:380] norm1 -> norm1
I1212 19:34:47.961320 14809 net.cpp:122] Setting up norm1
I1212 19:34:47.961338 14809 net.cpp:129] Top shape: 128 96 24 24 (7077888)
I1212 19:34:47.961347 14809 net.cpp:137] Memory required for data: 344556032
I1212 19:34:47.961356 14809 layer_factory.hpp:77] Creating layer conv2
I1212 19:34:47.961383 14809 net.cpp:84] Creating Layer conv2
I1212 19:34:47.961393 14809 net.cpp:406] conv2 <- norm1
I1212 19:34:47.961406 14809 net.cpp:380] conv2 -> conv2
I1212 19:34:47.980720 14809 net.cpp:122] Setting up conv2
I1212 19:34:47.980818 14809 net.cpp:129] Top shape: 128 256 24 24 (18874368)
I1212 19:34:47.980919 14809 net.cpp:137] Memory required for data: 420053504
I1212 19:34:47.980976 14809 layer_factory.hpp:77] Creating layer relu2
I1212 19:34:47.981001 14809 net.cpp:84] Creating Layer relu2
I1212 19:34:47.981012 14809 net.cpp:406] relu2 <- conv2
I1212 19:34:47.981026 14809 net.cpp:367] relu2 -> conv2 (in-place)
I1212 19:34:47.981508 14809 net.cpp:122] Setting up relu2
I1212 19:34:47.981534 14809 net.cpp:129] Top shape: 128 256 24 24 (18874368)
I1212 19:34:47.981545 14809 net.cpp:137] Memory required for data: 495550976
I1212 19:34:47.981555 14809 layer_factory.hpp:77] Creating layer pool2
I1212 19:34:47.981578 14809 net.cpp:84] Creating Layer pool2
I1212 19:34:47.981591 14809 net.cpp:406] pool2 <- conv2
I1212 19:34:47.981604 14809 net.cpp:380] pool2 -> pool2
I1212 19:34:47.981688 14809 net.cpp:122] Setting up pool2
I1212 19:34:47.981703 14809 net.cpp:129] Top shape: 128 256 12 12 (4718592)
I1212 19:34:47.981710 14809 net.cpp:137] Memory required for data: 514425344
I1212 19:34:47.981719 14809 layer_factory.hpp:77] Creating layer norm2
I1212 19:34:47.981737 14809 net.cpp:84] Creating Layer norm2
I1212 19:34:47.981746 14809 net.cpp:406] norm2 <- pool2
I1212 19:34:47.981758 14809 net.cpp:380] norm2 -> norm2
I1212 19:34:47.981930 14809 net.cpp:122] Setting up norm2
I1212 19:34:47.981947 14809 net.cpp:129] Top shape: 128 256 12 12 (4718592)
I1212 19:34:47.981956 14809 net.cpp:137] Memory required for data: 533299712
I1212 19:34:47.981963 14809 layer_factory.hpp:77] Creating layer conv3
I1212 19:34:47.981997 14809 net.cpp:84] Creating Layer conv3
I1212 19:34:47.982007 14809 net.cpp:406] conv3 <- norm2
I1212 19:34:47.982023 14809 net.cpp:380] conv3 -> conv3
I1212 19:34:48.077888 14809 net.cpp:122] Setting up conv3
I1212 19:34:48.077961 14809 net.cpp:129] Top shape: 128 384 12 12 (7077888)
I1212 19:34:48.077970 14809 net.cpp:137] Memory required for data: 561611264
I1212 19:34:48.078001 14809 layer_factory.hpp:77] Creating layer relu3
I1212 19:34:48.078020 14809 net.cpp:84] Creating Layer relu3
I1212 19:34:48.078030 14809 net.cpp:406] relu3 <- conv3
I1212 19:34:48.078047 14809 net.cpp:367] relu3 -> conv3 (in-place)
I1212 19:34:48.078449 14809 net.cpp:122] Setting up relu3
I1212 19:34:48.078470 14809 net.cpp:129] Top shape: 128 384 12 12 (7077888)
I1212 19:34:48.078478 14809 net.cpp:137] Memory required for data: 589922816
I1212 19:34:48.078486 14809 layer_factory.hpp:77] Creating layer conv4
I1212 19:34:48.078510 14809 net.cpp:84] Creating Layer conv4
I1212 19:34:48.078519 14809 net.cpp:406] conv4 <- conv3
I1212 19:34:48.078533 14809 net.cpp:380] conv4 -> conv4
I1212 19:34:48.106766 14809 net.cpp:122] Setting up conv4
I1212 19:34:48.106820 14809 net.cpp:129] Top shape: 128 384 12 12 (7077888)
I1212 19:34:48.106828 14809 net.cpp:137] Memory required for data: 618234368
I1212 19:34:48.106851 14809 layer_factory.hpp:77] Creating layer relu4
I1212 19:34:48.106871 14809 net.cpp:84] Creating Layer relu4
I1212 19:34:48.106881 14809 net.cpp:406] relu4 <- conv4
I1212 19:34:48.106896 14809 net.cpp:367] relu4 -> conv4 (in-place)
I1212 19:34:48.107302 14809 net.cpp:122] Setting up relu4
I1212 19:34:48.107322 14809 net.cpp:129] Top shape: 128 384 12 12 (7077888)
I1212 19:34:48.107329 14809 net.cpp:137] Memory required for data: 646545920
I1212 19:34:48.107340 14809 layer_factory.hpp:77] Creating layer conv5
I1212 19:34:48.107362 14809 net.cpp:84] Creating Layer conv5
I1212 19:34:48.107370 14809 net.cpp:406] conv5 <- conv4
I1212 19:34:48.107385 14809 net.cpp:380] conv5 -> conv5
I1212 19:34:48.122943 14809 net.cpp:122] Setting up conv5
I1212 19:34:48.123011 14809 net.cpp:129] Top shape: 128 256 12 12 (4718592)
I1212 19:34:48.123019 14809 net.cpp:137] Memory required for data: 665420288
I1212 19:34:48.123052 14809 layer_factory.hpp:77] Creating layer relu5
I1212 19:34:48.123072 14809 net.cpp:84] Creating Layer relu5
I1212 19:34:48.123082 14809 net.cpp:406] relu5 <- conv5
I1212 19:34:48.123101 14809 net.cpp:367] relu5 -> conv5 (in-place)
I1212 19:34:48.123271 14809 net.cpp:122] Setting up relu5
I1212 19:34:48.123288 14809 net.cpp:129] Top shape: 128 256 12 12 (4718592)
I1212 19:34:48.123296 14809 net.cpp:137] Memory required for data: 684294656
I1212 19:34:48.123302 14809 layer_factory.hpp:77] Creating layer pool5
I1212 19:34:48.123315 14809 net.cpp:84] Creating Layer pool5
I1212 19:34:48.123323 14809 net.cpp:406] pool5 <- conv5
I1212 19:34:48.123333 14809 net.cpp:380] pool5 -> pool5
I1212 19:34:48.123407 14809 net.cpp:122] Setting up pool5
I1212 19:34:48.123420 14809 net.cpp:129] Top shape: 128 256 6 6 (1179648)
I1212 19:34:48.123426 14809 net.cpp:137] Memory required for data: 689013248
I1212 19:34:48.123433 14809 layer_factory.hpp:77] Creating layer fc6
I1212 19:34:48.123456 14809 net.cpp:84] Creating Layer fc6
I1212 19:34:48.123463 14809 net.cpp:406] fc6 <- pool5
I1212 19:34:48.123476 14809 net.cpp:380] fc6 -> fc6
I1212 19:34:48.171617 14809 net.cpp:122] Setting up fc6
I1212 19:34:48.171667 14809 net.cpp:129] Top shape: 128 256 (32768)
I1212 19:34:48.171674 14809 net.cpp:137] Memory required for data: 689144320
I1212 19:34:48.171697 14809 layer_factory.hpp:77] Creating layer relu6
I1212 19:34:48.171716 14809 net.cpp:84] Creating Layer relu6
I1212 19:34:48.171725 14809 net.cpp:406] relu6 <- fc6
I1212 19:34:48.171741 14809 net.cpp:367] relu6 -> fc6 (in-place)
I1212 19:34:48.172343 14809 net.cpp:122] Setting up relu6
I1212 19:34:48.172363 14809 net.cpp:129] Top shape: 128 256 (32768)
I1212 19:34:48.172369 14809 net.cpp:137] Memory required for data: 689275392
I1212 19:34:48.172376 14809 layer_factory.hpp:77] Creating layer drop6
I1212 19:34:48.172391 14809 net.cpp:84] Creating Layer drop6
I1212 19:34:48.172399 14809 net.cpp:406] drop6 <- fc6
I1212 19:34:48.172411 14809 net.cpp:367] drop6 -> fc6 (in-place)
I1212 19:34:48.172448 14809 net.cpp:122] Setting up drop6
I1212 19:34:48.172459 14809 net.cpp:129] Top shape: 128 256 (32768)
I1212 19:34:48.172466 14809 net.cpp:137] Memory required for data: 689406464
I1212 19:34:48.172472 14809 layer_factory.hpp:77] Creating layer fc7
I1212 19:34:48.172488 14809 net.cpp:84] Creating Layer fc7
I1212 19:34:48.172497 14809 net.cpp:406] fc7 <- fc6
I1212 19:34:48.172508 14809 net.cpp:380] fc7 -> fc7
I1212 19:34:48.173446 14809 net.cpp:122] Setting up fc7
I1212 19:34:48.173460 14809 net.cpp:129] Top shape: 128 256 (32768)
I1212 19:34:48.173466 14809 net.cpp:137] Memory required for data: 689537536
I1212 19:34:48.173480 14809 layer_factory.hpp:77] Creating layer relu7
I1212 19:34:48.173491 14809 net.cpp:84] Creating Layer relu7
I1212 19:34:48.173498 14809 net.cpp:406] relu7 <- fc7
I1212 19:34:48.173508 14809 net.cpp:367] relu7 -> fc7 (in-place)
I1212 19:34:48.173630 14809 net.cpp:122] Setting up relu7
I1212 19:34:48.173643 14809 net.cpp:129] Top shape: 128 256 (32768)
I1212 19:34:48.173650 14809 net.cpp:137] Memory required for data: 689668608
I1212 19:34:48.173658 14809 layer_factory.hpp:77] Creating layer drop7
I1212 19:34:48.173671 14809 net.cpp:84] Creating Layer drop7
I1212 19:34:48.173679 14809 net.cpp:406] drop7 <- fc7
I1212 19:34:48.173688 14809 net.cpp:367] drop7 -> fc7 (in-place)
I1212 19:34:48.173715 14809 net.cpp:122] Setting up drop7
I1212 19:34:48.173725 14809 net.cpp:129] Top shape: 128 256 (32768)
I1212 19:34:48.173732 14809 net.cpp:137] Memory required for data: 689799680
I1212 19:34:48.173739 14809 layer_factory.hpp:77] Creating layer fc8
I1212 19:34:48.173751 14809 net.cpp:84] Creating Layer fc8
I1212 19:34:48.173758 14809 net.cpp:406] fc8 <- fc7
I1212 19:34:48.173770 14809 net.cpp:380] fc8 -> fc8
I1212 19:34:48.173907 14809 net.cpp:122] Setting up fc8
I1212 19:34:48.173918 14809 net.cpp:129] Top shape: 128 2 (256)
I1212 19:34:48.173924 14809 net.cpp:137] Memory required for data: 689800704
I1212 19:34:48.173936 14809 layer_factory.hpp:77] Creating layer loss
I1212 19:34:48.173954 14809 net.cpp:84] Creating Layer loss
I1212 19:34:48.173961 14809 net.cpp:406] loss <- fc8
I1212 19:34:48.173969 14809 net.cpp:406] loss <- label
I1212 19:34:48.173981 14809 net.cpp:380] loss -> loss
I1212 19:34:48.174007 14809 layer_factory.hpp:77] Creating layer loss
…
I1212 19:34:48.187566 14809 solver.cpp:172] Creating test net (#0) specified by net file: weighted_train_val.prototxt
I1212 19:34:48.187642 14809 net.cpp:294] The NetState phase (1) differed from the phase (0) specified by a rule in layer data
I1212 19:34:48.187968 14809 net.cpp:51] Initializing net from parameters: 
name: "CaffeNet"
state {
  phase: TEST
}
layer {
  name: "data"
  type: "Data"
  top: "data"
  top: "label"
  include {
    phase: TEST
  }
  transform_param {
    scale: 0.0078125
    mirror: true
    mean_value: 127
  }
  data_param {
    source: "/home/lc/gender/dushanzi/data/val.lmdb"
    batch_size: 128
    backend: LMDB
  }
}
layer {
  name: "conv1"
  type: "Convolution"
  bottom: "data"
  top: "conv1"
  param {
    lr_mult: 1
  }
  param {
    lr_mult: 2
  }
  convolution_param {
    num_output: 96
    kernel_size: 11
    stride: 4
    weight_filler {
      type: "xavier"
    }
    bias_filler {
      type: "constant"
    }
  }
}
layer {
  name: "relu1"
  type: "ReLU"
  bottom: "conv1"
  top: "conv1"
}
layer {
  name: "pool1"
  type: "Pooling"
  bottom: "conv1"
  top: "pool1"
  pooling_param {
    pool: MAX
    kernel_size: 3
    stride: 2
  }
}
layer {
  name: "norm1"
  type: "LRN"
  bottom: "pool1"
  top: "norm1"
  lrn_param {
    local_size: 5
    alpha: 0.0001
    beta: 0.75
  }
}
layer {
  name: "conv2"
  type: "Convolution"
  bottom: "norm1"
  top: "conv2"
  param {
    lr_mult: 1
  }
  param {
    lr_mult: 2
  }
  convolution_param {
    num_output: 256
    pad: 2
    kernel_size: 5
    group: 2
    weight_filler {
      type: "xavier"
    }
    bias_filler {
      type: "constant"
    }
  }
}
layer {
  name: "relu2"
  type: "ReLU"
  bottom: "conv2"
  top: "conv2"
}
layer {
  name: "pool2"
  type: "Pooling"
  bottom: "conv2"
  top: "pool2"
  pooling_param {
    pool: MAX
    kernel_size: 3
    stride: 2
  }
}
layer {
  name: "norm2"
  type: "LRN"
  bottom: "pool2"
  top: "norm2"
  lrn_param {
    local_size: 5
    alpha: 0.0001
    beta: 0.75
  }
}
layer {
  name: "conv3"
  type: "Convolution"
  bottom: "norm2"
  top: "conv3"
  param {
    lr_mult: 1
  }
  param {
    lr_mult: 2
  }
  convolution_param {
    num_output: 384
    pad: 1
    kernel_size: 3
    weight_filler {
      type: "xavier"
    }
    bias_filler {
      type: "constant"
    }
  }
}
layer {
  name: "relu3"
  type: "ReLU"
  bottom: "conv3"
  top: "conv3"
}
layer {
  name: "conv4"
  type: "Convolution"
  bottom: "conv3"
  top: "conv4"
  param {
    lr_mult: 1
  }
  param {
    lr_mult: 2
  }
  convolution_param {
    num_output: 384
    pad: 1
    kernel_size: 3
    group: 2
    weight_filler {
      type: "xavier"
    }
    bias_filler {
      type: "constant"
    }
  }
}
layer {
  name: "relu4"
  type: "ReLU"
  bottom: "conv4"
  top: "conv4"
}
layer {
  name: "conv5"
  type: "Convolution"
  bottom: "conv4"
  top: "conv5"
  param {
    lr_mult: 1
  }
  param {
    lr_mult: 2
  }
  convolution_param {
    num_output: 256
    pad: 1
    kernel_size: 3
    group: 2
    weight_filler {
      type: "xavier"
    }
    bias_filler {
      type: "constant"
    }
  }
}
layer {
  name: "relu5"
  type: "ReLU"
  bottom: "conv5"
  top: "conv5"
}
layer {
  name: "pool5"
  type: "Pooling"
  bottom: "conv5"
  top: "pool5"
  pooling_param {
    pool: MAX
    kernel_size: 3
    stride: 2
  }
}
layer {
  name: "fc6"
  type: "InnerProduct"
  bottom: "pool5"
  top: "fc6"
  param {
    lr_mult: 1
  }
  param {
    lr_mult: 2
  }
  inner_product_param {
    num_output: 256
    weight_filler {
      type: "xavier"
    }
    bias_filler {
      type: "constant"
    }
  }
}
layer {
  name: "relu6"
  type: "ReLU"
  bottom: "fc6"
  top: "fc6"
}
layer {
  name: "drop6"
  type: "Dropout"
  bottom: "fc6"
  top: "fc6"
  dropout_param {
    dropout_ratio: 0.5
  }
}
layer {
  name: "fc7"
  type: "InnerProduct"
  bottom: "fc6"
  top: "fc7"
  param {
    lr_mult: 1
  }
  param {
    lr_mult: 2
  }
  inner_product_param {
    num_output: 256
    weight_filler {
      type: "xavier"
    }
    bias_filler {
      type: "constant"
    }
  }
}
layer {
  name: "relu7"
  type: "ReLU"
  bottom: "fc7"
  top: "fc7"
}
layer {
  name: "drop7"
  type: "Dropout"
  bottom: "fc7"
  top: "fc7"
  dropout_param {
    dropout_ratio: 0.5
  }
}
layer {
  name: "fc8"
  type: "InnerProduct"
  bottom: "fc7"
  top: "fc8"
  param {
    lr_mult: 1
  }
  param {
    lr_mult: 2
  }
  inner_product_param {
    num_output: 2
    weight_filler {
      type: "xavier"
    }
    bias_filler {
      type: "constant"
    }
  }
}
layer {
  name: "accuracy"
  type: "Accuracy"
  bottom: "fc8"
  bottom: "label"
  top: "accuracy"
  include {
    phase: TEST
  }
}
layer {
  name: "loss"
  type: "WeightedSoftmaxWithLoss"
  bottom: "fc8"
  bottom: "label"
  top: "loss"
  softmax_param {
    pos_mult: 5
    pos_cid: 1
  }
}
I1212 19:34:48.188169 14809 layer_factory.hpp:77] Creating layer data
I1212 19:34:48.188288 14809 db_lmdb.cpp:35] Opened lmdb /home/lc/gender/dushanzi/data/val.lmdb
I1212 19:34:48.188325 14809 net.cpp:84] Creating Layer data
I1212 19:34:48.188344 14809 net.cpp:380] data -> data
I1212 19:34:48.188361 14809 net.cpp:380] data -> label
I1212 19:34:48.188736 14809 data_layer.cpp:45] output data size: 128,3,200,200
I1212 19:34:48.801342 14809 net.cpp:122] Setting up data
I1212 19:34:48.801406 14809 net.cpp:129] Top shape: 128 3 200 200 (15360000)
I1212 19:34:48.801419 14809 net.cpp:129] Top shape: 128 (128)
I1212 19:34:48.801425 14809 net.cpp:137] Memory required for data: 61440512
I1212 19:34:48.801441 14809 layer_factory.hpp:77] Creating layer label_data_1_split
I1212 19:34:48.801463 14809 net.cpp:84] Creating Layer label_data_1_split
I1212 19:34:48.801473 14809 net.cpp:406] label_data_1_split <- label
I1212 19:34:48.801492 14809 net.cpp:380] label_data_1_split -> label_data_1_split_0
I1212 19:34:48.801515 14809 net.cpp:380] label_data_1_split -> label_data_1_split_1
I1212 19:34:48.801617 14809 net.cpp:122] Setting up label_data_1_split
I1212 19:34:48.801631 14809 net.cpp:129] Top shape: 128 (128)
I1212 19:34:48.801640 14809 net.cpp:129] Top shape: 128 (128)
I1212 19:34:48.801648 14809 net.cpp:137] Memory required for data: 61441536
I1212 19:34:48.801657 14809 layer_factory.hpp:77] Creating layer conv1
I1212 19:34:48.801682 14809 net.cpp:84] Creating Layer conv1
I1212 19:34:48.801692 14809 net.cpp:406] conv1 <- data
I1212 19:34:48.801707 14809 net.cpp:380] conv1 -> conv1
I1212 19:34:48.843078 14809 net.cpp:122] Setting up conv1
I1212 19:34:48.843148 14809 net.cpp:129] Top shape: 128 96 48 48 (28311552)
I1212 19:34:48.843158 14809 net.cpp:137] Memory required for data: 174687744
I1212 19:34:48.843191 14809 layer_factory.hpp:77] Creating layer relu1
I1212 19:34:48.843211 14809 net.cpp:84] Creating Layer relu1
I1212 19:34:48.843220 14809 net.cpp:406] relu1 <- conv1
I1212 19:34:48.843233 14809 net.cpp:367] relu1 -> conv1 (in-place)
I1212 19:34:48.843380 14809 net.cpp:122] Setting up relu1
I1212 19:34:48.843395 14809 net.cpp:129] Top shape: 128 96 48 48 (28311552)
I1212 19:34:48.843401 14809 net.cpp:137] Memory required for data: 287933952
I1212 19:34:48.843410 14809 layer_factory.hpp:77] Creating layer pool1
I1212 19:34:48.843427 14809 net.cpp:84] Creating Layer pool1
I1212 19:34:48.843434 14809 net.cpp:406] pool1 <- conv1
I1212 19:34:48.843446 14809 net.cpp:380] pool1 -> pool1
I1212 19:34:48.843499 14809 net.cpp:122] Setting up pool1
I1212 19:34:48.843510 14809 net.cpp:129] Top shape: 128 96 24 24 (7077888)
I1212 19:34:48.843516 14809 net.cpp:137] Memory required for data: 316245504
I1212 19:34:48.843523 14809 layer_factory.hpp:77] Creating layer norm1
I1212 19:34:48.843535 14809 net.cpp:84] Creating Layer norm1
I1212 19:34:48.843542 14809 net.cpp:406] norm1 <- pool1
I1212 19:34:48.843551 14809 net.cpp:380] norm1 -> norm1
I1212 19:34:48.844149 14809 net.cpp:122] Setting up norm1
I1212 19:34:48.844169 14809 net.cpp:129] Top shape: 128 96 24 24 (7077888)
I1212 19:34:48.844177 14809 net.cpp:137] Memory required for data: 344557056
I1212 19:34:48.844185 14809 layer_factory.hpp:77] Creating layer conv2
I1212 19:34:48.844208 14809 net.cpp:84] Creating Layer conv2
I1212 19:34:48.844216 14809 net.cpp:406] conv2 <- norm1
I1212 19:34:48.844228 14809 net.cpp:380] conv2 -> conv2
I1212 19:34:48.854019 14809 net.cpp:122] Setting up conv2
I1212 19:34:48.854077 14809 net.cpp:129] Top shape: 128 256 24 24 (18874368)
I1212 19:34:48.854087 14809 net.cpp:137] Memory required for data: 420054528
I1212 19:34:48.854117 14809 layer_factory.hpp:77] Creating layer relu2
I1212 19:34:48.854135 14809 net.cpp:84] Creating Layer relu2
I1212 19:34:48.854143 14809 net.cpp:406] relu2 <- conv2
I1212 19:34:48.854159 14809 net.cpp:367] relu2 -> conv2 (in-place)
I1212 19:34:48.854557 14809 net.cpp:122] Setting up relu2
I1212 19:34:48.854575 14809 net.cpp:129] Top shape: 128 256 24 24 (18874368)
I1212 19:34:48.854583 14809 net.cpp:137] Memory required for data: 495552000
I1212 19:34:48.854591 14809 layer_factory.hpp:77] Creating layer pool2
I1212 19:34:48.854609 14809 net.cpp:84] Creating Layer pool2
I1212 19:34:48.854615 14809 net.cpp:406] pool2 <- conv2
I1212 19:34:48.854625 14809 net.cpp:380] pool2 -> pool2
I1212 19:34:48.878720 14809 net.cpp:122] Setting up pool2
I1212 19:34:48.878779 14809 net.cpp:129] Top shape: 128 256 12 12 (4718592)
I1212 19:34:48.878787 14809 net.cpp:137] Memory required for data: 514426368
I1212 19:34:48.878798 14809 layer_factory.hpp:77] Creating layer norm2
I1212 19:34:48.878819 14809 net.cpp:84] Creating Layer norm2
I1212 19:34:48.878829 14809 net.cpp:406] norm2 <- pool2
I1212 19:34:48.878844 14809 net.cpp:380] norm2 -> norm2
I1212 19:34:48.879096 14809 net.cpp:122] Setting up norm2
I1212 19:34:48.879112 14809 net.cpp:129] Top shape: 128 256 12 12 (4718592)
I1212 19:34:48.879119 14809 net.cpp:137] Memory required for data: 533300736
I1212 19:34:48.879127 14809 layer_factory.hpp:77] Creating layer conv3
I1212 19:34:48.879149 14809 net.cpp:84] Creating Layer conv3
I1212 19:34:48.879170 14809 net.cpp:406] conv3 <- norm2
I1212 19:34:48.879184 14809 net.cpp:380] conv3 -> conv3
I1212 19:34:49.071992 14809 net.cpp:122] Setting up conv3
I1212 19:34:49.072060 14809 net.cpp:129] Top shape: 128 384 12 12 (7077888)
I1212 19:34:49.072070 14809 net.cpp:137] Memory required for data: 561612288
I1212 19:34:49.072100 14809 layer_factory.hpp:77] Creating layer relu3
I1212 19:34:49.072118 14809 net.cpp:84] Creating Layer relu3
I1212 19:34:49.072127 14809 net.cpp:406] relu3 <- conv3
I1212 19:34:49.072142 14809 net.cpp:367] relu3 -> conv3 (in-place)
I1212 19:34:49.072289 14809 net.cpp:122] Setting up relu3
I1212 19:34:49.072305 14809 net.cpp:129] Top shape: 128 384 12 12 (7077888)
I1212 19:34:49.072312 14809 net.cpp:137] Memory required for data: 589923840
I1212 19:34:49.072320 14809 layer_factory.hpp:77] Creating layer conv4
I1212 19:34:49.072345 14809 net.cpp:84] Creating Layer conv4
I1212 19:34:49.072352 14809 net.cpp:406] conv4 <- conv3
I1212 19:34:49.072365 14809 net.cpp:380] conv4 -> conv4
I1212 19:34:49.095546 14809 net.cpp:122] Setting up conv4
I1212 19:34:49.095621 14809 net.cpp:129] Top shape: 128 384 12 12 (7077888)
I1212 19:34:49.095636 14809 net.cpp:137] Memory required for data: 618235392
I1212 19:34:49.095681 14809 layer_factory.hpp:77] Creating layer relu4
I1212 19:34:49.095723 14809 net.cpp:84] Creating Layer relu4
I1212 19:34:49.095741 14809 net.cpp:406] relu4 <- conv4
I1212 19:34:49.095767 14809 net.cpp:367] relu4 -> conv4 (in-place)
I1212 19:34:49.095930 14809 net.cpp:122] Setting up relu4
I1212 19:34:49.095954 14809 net.cpp:129] Top shape: 128 384 12 12 (7077888)
I1212 19:34:49.095964 14809 net.cpp:137] Memory required for data: 646546944
I1212 19:34:49.095974 14809 layer_factory.hpp:77] Creating layer conv5
I1212 19:34:49.095997 14809 net.cpp:84] Creating Layer conv5
I1212 19:34:49.096004 14809 net.cpp:406] conv5 <- conv4
I1212 19:34:49.096019 14809 net.cpp:380] conv5 -> conv5
I1212 19:34:49.120534 14809 net.cpp:122] Setting up conv5
I1212 19:34:49.120594 14809 net.cpp:129] Top shape: 128 256 12 12 (4718592)
I1212 19:34:49.120601 14809 net.cpp:137] Memory required for data: 665421312
I1212 19:34:49.120637 14809 layer_factory.hpp:77] Creating layer relu5
I1212 19:34:49.120672 14809 net.cpp:84] Creating Layer relu5
I1212 19:34:49.120688 14809 net.cpp:406] relu5 <- conv5
I1212 19:34:49.120712 14809 net.cpp:367] relu5 -> conv5 (in-place)
I1212 19:34:49.121212 14809 net.cpp:122] Setting up relu5
I1212 19:34:49.121233 14809 net.cpp:129] Top shape: 128 256 12 12 (4718592)
I1212 19:34:49.121240 14809 net.cpp:137] Memory required for data: 684295680
I1212 19:34:49.121253 14809 layer_factory.hpp:77] Creating layer pool5
I1212 19:34:49.121278 14809 net.cpp:84] Creating Layer pool5
I1212 19:34:49.121289 14809 net.cpp:406] pool5 <- conv5
I1212 19:34:49.121299 14809 net.cpp:380] pool5 -> pool5
I1212 19:34:49.121402 14809 net.cpp:122] Setting up pool5
I1212 19:34:49.121426 14809 net.cpp:129] Top shape: 128 256 6 6 (1179648)
I1212 19:34:49.121439 14809 net.cpp:137] Memory required for data: 689014272
I1212 19:34:49.121453 14809 layer_factory.hpp:77] Creating layer fc6
I1212 19:34:49.121482 14809 net.cpp:84] Creating Layer fc6
I1212 19:34:49.121496 14809 net.cpp:406] fc6 <- pool5
I1212 19:34:49.121520 14809 net.cpp:380] fc6 -> fc6
I1212 19:34:49.173146 14809 net.cpp:122] Setting up fc6
I1212 19:34:49.173245 14809 net.cpp:129] Top shape: 128 256 (32768)
I1212 19:34:49.173260 14809 net.cpp:137] Memory required for data: 689145344
I1212 19:34:49.173298 14809 layer_factory.hpp:77] Creating layer relu6
I1212 19:34:49.173326 14809 net.cpp:84] Creating Layer relu6
I1212 19:34:49.173341 14809 net.cpp:406] relu6 <- fc6
I1212 19:34:49.173369 14809 net.cpp:367] relu6 -> fc6 (in-place)
I1212 19:34:49.173638 14809 net.cpp:122] Setting up relu6
I1212 19:34:49.173657 14809 net.cpp:129] Top shape: 128 256 (32768)
I1212 19:34:49.173666 14809 net.cpp:137] Memory required for data: 689276416
I1212 19:34:49.173676 14809 layer_factory.hpp:77] Creating layer drop6
I1212 19:34:49.173691 14809 net.cpp:84] Creating Layer drop6
I1212 19:34:49.173713 14809 net.cpp:406] drop6 <- fc6
I1212 19:34:49.173725 14809 net.cpp:367] drop6 -> fc6 (in-place)
I1212 19:34:49.173759 14809 net.cpp:122] Setting up drop6
I1212 19:34:49.173770 14809 net.cpp:129] Top shape: 128 256 (32768)
I1212 19:34:49.173777 14809 net.cpp:137] Memory required for data: 689407488
I1212 19:34:49.173785 14809 layer_factory.hpp:77] Creating layer fc7
I1212 19:34:49.173800 14809 net.cpp:84] Creating Layer fc7
I1212 19:34:49.173807 14809 net.cpp:406] fc7 <- fc6
I1212 19:34:49.173820 14809 net.cpp:380] fc7 -> fc7
I1212 19:34:49.175186 14809 net.cpp:122] Setting up fc7
I1212 19:34:49.175204 14809 net.cpp:129] Top shape: 128 256 (32768)
I1212 19:34:49.175210 14809 net.cpp:137] Memory required for data: 689538560
I1212 19:34:49.175225 14809 layer_factory.hpp:77] Creating layer relu7
I1212 19:34:49.175235 14809 net.cpp:84] Creating Layer relu7
I1212 19:34:49.175243 14809 net.cpp:406] relu7 <- fc7
I1212 19:34:49.175256 14809 net.cpp:367] relu7 -> fc7 (in-place)
I1212 19:34:49.197576 14809 net.cpp:122] Setting up relu7
I1212 19:34:49.197659 14809 net.cpp:129] Top shape: 128 256 (32768)
I1212 19:34:49.197672 14809 net.cpp:137] Memory required for data: 689669632
I1212 19:34:49.197695 14809 layer_factory.hpp:77] Creating layer drop7
I1212 19:34:49.197717 14809 net.cpp:84] Creating Layer drop7
I1212 19:34:49.197726 14809 net.cpp:406] drop7 <- fc7
I1212 19:34:49.197742 14809 net.cpp:367] drop7 -> fc7 (in-place)
I1212 19:34:49.197813 14809 net.cpp:122] Setting up drop7
I1212 19:34:49.197824 14809 net.cpp:129] Top shape: 128 256 (32768)
I1212 19:34:49.197830 14809 net.cpp:137] Memory required for data: 689800704
I1212 19:34:49.197839 14809 layer_factory.hpp:77] Creating layer fc8
I1212 19:34:49.197856 14809 net.cpp:84] Creating Layer fc8
I1212 19:34:49.197863 14809 net.cpp:406] fc8 <- fc7
I1212 19:34:49.197875 14809 net.cpp:380] fc8 -> fc8
I1212 19:34:49.198083 14809 net.cpp:122] Setting up fc8
I1212 19:34:49.198102 14809 net.cpp:129] Top shape: 128 2 (256)
I1212 19:34:49.198112 14809 net.cpp:137] Memory required for data: 689801728
I1212 19:34:49.198134 14809 layer_factory.hpp:77] Creating layer fc8_fc8_0_split
I1212 19:34:49.198148 14809 net.cpp:84] Creating Layer fc8_fc8_0_split
I1212 19:34:49.198155 14809 net.cpp:406] fc8_fc8_0_split <- fc8
I1212 19:34:49.198173 14809 net.cpp:380] fc8_fc8_0_split -> fc8_fc8_0_split_0
I1212 19:34:49.198191 14809 net.cpp:380] fc8_fc8_0_split -> fc8_fc8_0_split_1
I1212 19:34:49.198271 14809 net.cpp:122] Setting up fc8_fc8_0_split
I1212 19:34:49.198288 14809 net.cpp:129] Top shape: 128 2 (256)
I1212 19:34:49.198304 14809 net.cpp:129] Top shape: 128 2 (256)
I1212 19:34:49.198315 14809 net.cpp:137] Memory required for data: 689803776
I1212 19:34:49.198328 14809 layer_factory.hpp:77] Creating layer accuracy
I1212 19:34:49.198352 14809 net.cpp:84] Creating Layer accuracy
I1212 19:34:49.198366 14809 net.cpp:406] accuracy <- fc8_fc8_0_split_0
I1212 19:34:49.198380 14809 net.cpp:406] accuracy <- label_data_1_split_0
I1212 19:34:49.198392 14809 net.cpp:380] accuracy -> accuracy
…
