…
I1213 09:50:27.483258 17259 net.cpp:294] The NetState phase (0) differed from the phase (1) specified by a rule in layer accuracy
I1213 09:50:27.483580 17259 net.cpp:51] Initializing net from parameters: 
name: "CaffeNet"
state {
  phase: TRAIN
  level: 0
  stage: ""
}
layer {
  name: "data"
  type: "Data"
  top: "data"
  top: "label"
  include {
    phase: TRAIN
  }
  transform_param {
    scale: 0.0078125
    mirror: true
    mean_value: 127
  }
  data_param {
    source: "/home/lc/gender/dushanzi/data/train.lmdb"
    batch_size: 128
    backend: LMDB
  }
}
layer {
  name: "conv1"
  type: "Convolution"
  bottom: "data"
  top: "conv1"
  param {
    lr_mult: 1
  }
  param {
    lr_mult: 2
  }
  convolution_param {
    num_output: 96
    kernel_size: 11
    stride: 4
    weight_filler {
      type: "xavier"
    }
    bias_filler {
      type: "constant"
    }
  }
}
layer {
  name: "relu1"
  type: "ReLU"
  bottom: "conv1"
  top: "conv1"
}
layer {
  name: "pool1"
  type: "Pooling"
  bottom: "conv1"
  top: "pool1"
  pooling_param {
    pool: MAX
    kernel_size: 3
    stride: 2
  }
}
layer {
  name: "norm1"
  type: "LRN"
  bottom: "pool1"
  top: "norm1"
  lrn_param {
    local_size: 5
    alpha: 0.0001
    beta: 0.75
  }
}
layer {
  name: "conv2"
  type: "Convolution"
  bottom: "norm1"
  top: "conv2"
  param {
    lr_mult: 1
  }
  param {
    lr_mult: 2
  }
  convolution_param {
    num_output: 256
    pad: 2
    kernel_size: 5
    group: 2
    weight_filler {
      type: "xavier"
    }
    bias_filler {
      type: "constant"
    }
  }
}
layer {
  name: "relu2"
  type: "ReLU"
  bottom: "conv2"
  top: "conv2"
}
layer {
  name: "pool2"
  type: "Pooling"
  bottom: "conv2"
  top: "pool2"
  pooling_param {
    pool: MAX
    kernel_size: 3
    stride: 2
  }
}
layer {
  name: "norm2"
  type: "LRN"
  bottom: "pool2"
  top: "norm2"
  lrn_param {
    local_size: 5
    alpha: 0.0001
    beta: 0.75
  }
}
layer {
  name: "conv3"
  type: "Convolution"
  bottom: "norm2"
  top: "conv3"
  param {
    lr_mult: 1
  }
  param {
    lr_mult: 2
  }
  convolution_param {
    num_output: 384
    pad: 1
    kernel_size: 3
    weight_filler {
      type: "xavier"
    }
    bias_filler {
      type: "constant"
    }
  }
}
layer {
  name: "relu3"
  type: "ReLU"
  bottom: "conv3"
  top: "conv3"
}
layer {
  name: "conv4"
  type: "Convolution"
  bottom: "conv3"
  top: "conv4"
  param {
    lr_mult: 1
  }
  param {
    lr_mult: 2
  }
  convolution_param {
    num_output: 384
    pad: 1
    kernel_size: 3
    group: 2
    weight_filler {
      type: "xavier"
    }
    bias_filler {
      type: "constant"
    }
  }
}
layer {
  name: "relu4"
  type: "ReLU"
  bottom: "conv4"
  top: "conv4"
}
layer {
  name: "conv5"
  type: "Convolution"
  bottom: "conv4"
  top: "conv5"
  param {
    lr_mult: 1
  }
  param {
    lr_mult: 2
  }
  convolution_param {
    num_output: 256
    pad: 1
    kernel_size: 3
    group: 2
    weight_filler {
      type: "xavier"
    }
    bias_filler {
      type: "constant"
    }
  }
}
layer {
  name: "relu5"
  type: "ReLU"
  bottom: "conv5"
  top: "conv5"
}
layer {
  name: "pool5"
  type: "Pooling"
  bottom: "conv5"
  top: "pool5"
  pooling_param {
    pool: MAX
    kernel_size: 3
    stride: 2
  }
}
layer {
  name: "fc6"
  type: "InnerProduct"
  bottom: "pool5"
  top: "fc6"
  param {
    lr_mult: 1
  }
  param {
    lr_mult: 2
  }
  inner_product_param {
    num_output: 256
    weight_filler {
      type: "xavier"
    }
    bias_filler {
      type: "constant"
    }
  }
}
layer {
  name: "relu6"
  type: "ReLU"
  bottom: "fc6"
  top: "fc6"
}
layer {
  name: "drop6"
  type: "Dropout"
  bottom: "fc6"
  top: "fc6"
  dropout_param {
    dropout_ratio: 0.5
  }
}
layer {
  name: "fc7"
  type: "InnerProduct"
  bottom: "fc6"
  top: "fc7"
  param {
    lr_mult: 1
  }
  param {
    lr_mult: 2
  }
  inner_product_param {
    num_output: 256
    weight_filler {
      type: "xavier"
    }
    bias_filler {
      type: "constant"
    }
  }
}
layer {
  name: "relu7"
  type: "ReLU"
  bottom: "fc7"
  top: "fc7"
}
layer {
  name: "drop7"
  type: "Dropout"
  bottom: "fc7"
  top: "fc7"
  dropout_param {
    dropout_ratio: 0.5
  }
}
layer {
  name: "fc8"
  type: "InnerProduct"
  bottom: "fc7"
  top: "fc8"
  param {
    lr_mult: 1
  }
  param {
    lr_mult: 2
  }
  inner_product_param {
    num_output: 2
    weight_filler {
      type: "xavier"
    }
    bias_filler {
      type: "constant"
    }
  }
}
layer {
  name: "loss"
  type: "WeightedSoftmaxWithLoss"
  bottom: "fc8"
  bottom: "label"
  top: "loss"
  softmax_param {
    pos_mult: 7
    pos_cid: 1
  }
}
I1213 09:50:27.483738 17259 layer_factory.hpp:77] Creating layer data
I1213 09:50:27.524215 17259 db_lmdb.cpp:35] Opened lmdb /home/lc/gender/dushanzi/data/train.lmdb
I1213 09:50:27.525830 17259 net.cpp:84] Creating Layer data
I1213 09:50:27.525851 17259 net.cpp:380] data -> data
I1213 09:50:27.525900 17259 net.cpp:380] data -> label
I1213 09:50:27.531428 17259 data_layer.cpp:45] output data size: 128,3,200,200
I1213 09:50:27.819895 17259 net.cpp:122] Setting up data
I1213 09:50:27.819957 17259 net.cpp:129] Top shape: 128 3 200 200 (15360000)
I1213 09:50:27.819968 17259 net.cpp:129] Top shape: 128 (128)
I1213 09:50:27.819974 17259 net.cpp:137] Memory required for data: 61440512
I1213 09:50:27.819990 17259 layer_factory.hpp:77] Creating layer conv1
I1213 09:50:27.820025 17259 net.cpp:84] Creating Layer conv1
I1213 09:50:27.820036 17259 net.cpp:406] conv1 <- data
I1213 09:50:27.820055 17259 net.cpp:380] conv1 -> conv1
I1213 09:52:43.997334 17259 net.cpp:122] Setting up conv1
I1213 09:52:45.814585 17259 net.cpp:129] Top shape: 128 96 48 48 (28311552)
I1213 09:52:45.885818 17259 net.cpp:137] Memory required for data: 174686720
I1213 09:52:48.857208 17259 layer_factory.hpp:77] Creating layer relu1
I1213 09:52:48.858064 17259 net.cpp:84] Creating Layer relu1
I1213 09:52:48.858088 17259 net.cpp:406] relu1 <- conv1
I1213 09:52:48.858108 17259 net.cpp:367] relu1 -> conv1 (in-place)
I1213 09:52:48.916343 17259 net.cpp:122] Setting up relu1
I1213 09:52:48.916391 17259 net.cpp:129] Top shape: 128 96 48 48 (28311552)
I1213 09:52:48.916404 17259 net.cpp:137] Memory required for data: 287932928
I1213 09:52:48.916415 17259 layer_factory.hpp:77] Creating layer pool1
I1213 09:52:48.916443 17259 net.cpp:84] Creating Layer pool1
I1213 09:52:48.916455 17259 net.cpp:406] pool1 <- conv1
I1213 09:52:48.916471 17259 net.cpp:380] pool1 -> pool1
I1213 09:52:49.788357 17259 net.cpp:122] Setting up pool1
I1213 09:52:49.788403 17259 net.cpp:129] Top shape: 128 96 24 24 (7077888)
I1213 09:52:49.788415 17259 net.cpp:137] Memory required for data: 316244480
I1213 09:52:49.788439 17259 layer_factory.hpp:77] Creating layer norm1
I1213 09:52:49.788483 17259 net.cpp:84] Creating Layer norm1
I1213 09:52:49.788496 17259 net.cpp:406] norm1 <- pool1
I1213 09:52:49.788516 17259 net.cpp:380] norm1 -> norm1
I1213 09:52:49.789357 17259 net.cpp:122] Setting up norm1
I1213 09:52:49.789392 17259 net.cpp:129] Top shape: 128 96 24 24 (7077888)
I1213 09:52:49.789403 17259 net.cpp:137] Memory required for data: 344556032
I1213 09:52:49.789414 17259 layer_factory.hpp:77] Creating layer conv2
I1213 09:52:49.789443 17259 net.cpp:84] Creating Layer conv2
I1213 09:52:49.789453 17259 net.cpp:406] conv2 <- norm1
I1213 09:52:49.789469 17259 net.cpp:380] conv2 -> conv2
I1213 09:53:07.820847 17259 net.cpp:122] Setting up conv2
I1213 09:53:07.820930 17259 net.cpp:129] Top shape: 128 256 24 24 (18874368)
I1213 09:53:07.820941 17259 net.cpp:137] Memory required for data: 420053504
I1213 09:53:07.820973 17259 layer_factory.hpp:77] Creating layer relu2
I1213 09:53:07.820998 17259 net.cpp:84] Creating Layer relu2
I1213 09:53:07.821007 17259 net.cpp:406] relu2 <- conv2
I1213 09:53:07.821020 17259 net.cpp:367] relu2 -> conv2 (in-place)
I1213 09:53:07.821686 17259 net.cpp:122] Setting up relu2
I1213 09:53:07.821715 17259 net.cpp:129] Top shape: 128 256 24 24 (18874368)
I1213 09:53:07.821723 17259 net.cpp:137] Memory required for data: 495550976
I1213 09:53:07.821732 17259 layer_factory.hpp:77] Creating layer pool2
I1213 09:53:07.821756 17259 net.cpp:84] Creating Layer pool2
I1213 09:53:07.821771 17259 net.cpp:406] pool2 <- conv2
I1213 09:53:07.821784 17259 net.cpp:380] pool2 -> pool2
I1213 09:53:07.821911 17259 net.cpp:122] Setting up pool2
I1213 09:53:07.821933 17259 net.cpp:129] Top shape: 128 256 12 12 (4718592)
I1213 09:53:07.821941 17259 net.cpp:137] Memory required for data: 514425344
I1213 09:53:07.821949 17259 layer_factory.hpp:77] Creating layer norm2
I1213 09:53:07.821969 17259 net.cpp:84] Creating Layer norm2
I1213 09:53:07.821977 17259 net.cpp:406] norm2 <- pool2
I1213 09:53:07.821988 17259 net.cpp:380] norm2 -> norm2
I1213 09:53:07.822196 17259 net.cpp:122] Setting up norm2
I1213 09:53:07.822216 17259 net.cpp:129] Top shape: 128 256 12 12 (4718592)
I1213 09:53:07.822224 17259 net.cpp:137] Memory required for data: 533299712
I1213 09:53:07.822232 17259 layer_factory.hpp:77] Creating layer conv3
I1213 09:53:07.822255 17259 net.cpp:84] Creating Layer conv3
I1213 09:53:07.822299 17259 net.cpp:406] conv3 <- norm2
I1213 09:53:07.822312 17259 net.cpp:380] conv3 -> conv3
I1213 09:53:07.838196 17259 net.cpp:122] Setting up conv3
I1213 09:53:07.838233 17259 net.cpp:129] Top shape: 128 384 12 12 (7077888)
I1213 09:53:07.838241 17259 net.cpp:137] Memory required for data: 561611264
I1213 09:53:07.838259 17259 layer_factory.hpp:77] Creating layer relu3
I1213 09:53:07.838271 17259 net.cpp:84] Creating Layer relu3
I1213 09:53:07.838279 17259 net.cpp:406] relu3 <- conv3
I1213 09:53:07.838291 17259 net.cpp:367] relu3 -> conv3 (in-place)
I1213 09:53:07.838740 17259 net.cpp:122] Setting up relu3
I1213 09:53:07.838768 17259 net.cpp:129] Top shape: 128 384 12 12 (7077888)
I1213 09:53:07.838774 17259 net.cpp:137] Memory required for data: 589922816
I1213 09:53:07.838793 17259 layer_factory.hpp:77] Creating layer conv4
I1213 09:53:07.838817 17259 net.cpp:84] Creating Layer conv4
I1213 09:53:07.838826 17259 net.cpp:406] conv4 <- conv3
I1213 09:53:07.838838 17259 net.cpp:380] conv4 -> conv4
I1213 09:53:07.849128 17259 net.cpp:122] Setting up conv4
I1213 09:53:07.849156 17259 net.cpp:129] Top shape: 128 384 12 12 (7077888)
I1213 09:53:07.849164 17259 net.cpp:137] Memory required for data: 618234368
I1213 09:53:07.849177 17259 layer_factory.hpp:77] Creating layer relu4
I1213 09:53:07.849191 17259 net.cpp:84] Creating Layer relu4
I1213 09:53:07.849198 17259 net.cpp:406] relu4 <- conv4
I1213 09:53:07.849208 17259 net.cpp:367] relu4 -> conv4 (in-place)
I1213 09:53:07.849584 17259 net.cpp:122] Setting up relu4
I1213 09:53:07.849606 17259 net.cpp:129] Top shape: 128 384 12 12 (7077888)
I1213 09:53:07.849612 17259 net.cpp:137] Memory required for data: 646545920
I1213 09:53:07.849620 17259 layer_factory.hpp:77] Creating layer conv5
I1213 09:53:07.849638 17259 net.cpp:84] Creating Layer conv5
I1213 09:53:07.849645 17259 net.cpp:406] conv5 <- conv4
I1213 09:53:07.849661 17259 net.cpp:380] conv5 -> conv5
I1213 09:53:07.859292 17259 net.cpp:122] Setting up conv5
I1213 09:53:07.859319 17259 net.cpp:129] Top shape: 128 256 12 12 (4718592)
I1213 09:53:07.859326 17259 net.cpp:137] Memory required for data: 665420288
I1213 09:53:07.859354 17259 layer_factory.hpp:77] Creating layer relu5
I1213 09:53:07.859374 17259 net.cpp:84] Creating Layer relu5
I1213 09:53:07.859380 17259 net.cpp:406] relu5 <- conv5
I1213 09:53:07.859388 17259 net.cpp:367] relu5 -> conv5 (in-place)
I1213 09:53:07.859519 17259 net.cpp:122] Setting up relu5
I1213 09:53:07.859534 17259 net.cpp:129] Top shape: 128 256 12 12 (4718592)
I1213 09:53:07.859540 17259 net.cpp:137] Memory required for data: 684294656
I1213 09:53:07.859546 17259 layer_factory.hpp:77] Creating layer pool5
I1213 09:53:07.859568 17259 net.cpp:84] Creating Layer pool5
I1213 09:53:07.859576 17259 net.cpp:406] pool5 <- conv5
I1213 09:53:07.859585 17259 net.cpp:380] pool5 -> pool5
I1213 09:53:07.859644 17259 net.cpp:122] Setting up pool5
I1213 09:53:07.859655 17259 net.cpp:129] Top shape: 128 256 6 6 (1179648)
I1213 09:53:07.859661 17259 net.cpp:137] Memory required for data: 689013248
I1213 09:53:07.859668 17259 layer_factory.hpp:77] Creating layer fc6
I1213 09:53:07.859680 17259 net.cpp:84] Creating Layer fc6
I1213 09:53:07.859686 17259 net.cpp:406] fc6 <- pool5
I1213 09:53:07.859701 17259 net.cpp:380] fc6 -> fc6
I1213 09:53:07.885215 17259 net.cpp:122] Setting up fc6
I1213 09:53:07.885241 17259 net.cpp:129] Top shape: 128 256 (32768)
I1213 09:53:07.885246 17259 net.cpp:137] Memory required for data: 689144320
I1213 09:53:07.885258 17259 layer_factory.hpp:77] Creating layer relu6
I1213 09:53:07.885268 17259 net.cpp:84] Creating Layer relu6
I1213 09:53:07.885274 17259 net.cpp:406] relu6 <- fc6
I1213 09:53:07.885282 17259 net.cpp:367] relu6 -> fc6 (in-place)
I1213 09:53:07.885633 17259 net.cpp:122] Setting up relu6
I1213 09:53:07.885650 17259 net.cpp:129] Top shape: 128 256 (32768)
I1213 09:53:07.885655 17259 net.cpp:137] Memory required for data: 689275392
I1213 09:53:07.885670 17259 layer_factory.hpp:77] Creating layer drop6
I1213 09:53:07.885682 17259 net.cpp:84] Creating Layer drop6
I1213 09:53:07.885689 17259 net.cpp:406] drop6 <- fc6
I1213 09:53:07.885704 17259 net.cpp:367] drop6 -> fc6 (in-place)
I1213 09:53:07.885736 17259 net.cpp:122] Setting up drop6
I1213 09:53:07.885744 17259 net.cpp:129] Top shape: 128 256 (32768)
I1213 09:53:07.885749 17259 net.cpp:137] Memory required for data: 689406464
I1213 09:53:07.885754 17259 layer_factory.hpp:77] Creating layer fc7
I1213 09:53:07.885766 17259 net.cpp:84] Creating Layer fc7
I1213 09:53:07.885771 17259 net.cpp:406] fc7 <- fc6
I1213 09:53:07.885779 17259 net.cpp:380] fc7 -> fc7
I1213 09:53:07.886384 17259 net.cpp:122] Setting up fc7
I1213 09:53:07.886394 17259 net.cpp:129] Top shape: 128 256 (32768)
I1213 09:53:07.886399 17259 net.cpp:137] Memory required for data: 689537536
I1213 09:53:07.886409 17259 layer_factory.hpp:77] Creating layer relu7
I1213 09:53:07.886418 17259 net.cpp:84] Creating Layer relu7
I1213 09:53:07.886425 17259 net.cpp:406] relu7 <- fc7
I1213 09:53:07.886431 17259 net.cpp:367] relu7 -> fc7 (in-place)
I1213 09:53:07.886523 17259 net.cpp:122] Setting up relu7
I1213 09:53:07.886533 17259 net.cpp:129] Top shape: 128 256 (32768)
I1213 09:53:07.886538 17259 net.cpp:137] Memory required for data: 689668608
I1213 09:53:07.886544 17259 layer_factory.hpp:77] Creating layer drop7
I1213 09:53:07.886552 17259 net.cpp:84] Creating Layer drop7
I1213 09:53:07.886557 17259 net.cpp:406] drop7 <- fc7
I1213 09:53:07.886566 17259 net.cpp:367] drop7 -> fc7 (in-place)
I1213 09:53:07.886590 17259 net.cpp:122] Setting up drop7
I1213 09:53:07.886597 17259 net.cpp:129] Top shape: 128 256 (32768)
I1213 09:53:07.886601 17259 net.cpp:137] Memory required for data: 689799680
I1213 09:53:07.886615 17259 layer_factory.hpp:77] Creating layer fc8
I1213 09:53:07.886627 17259 net.cpp:84] Creating Layer fc8
I1213 09:53:07.886632 17259 net.cpp:406] fc8 <- fc7
I1213 09:53:07.886641 17259 net.cpp:380] fc8 -> fc8
I1213 09:53:07.886765 17259 net.cpp:122] Setting up fc8
I1213 09:53:07.886776 17259 net.cpp:129] Top shape: 128 2 (256)
I1213 09:53:07.886780 17259 net.cpp:137] Memory required for data: 689800704
I1213 09:53:07.886790 17259 layer_factory.hpp:77] Creating layer loss
I1213 09:53:07.888425 17259 net.cpp:84] Creating Layer loss
I1213 09:53:07.888438 17259 net.cpp:406] loss <- fc8
I1213 09:53:07.888445 17259 net.cpp:406] loss <- label
I1213 09:53:07.888459 17259 net.cpp:380] loss -> loss
I1213 09:53:07.888484 17259 layer_factory.hpp:77] Creating layer loss
…
I1213 09:53:11.541625 17259 solver.cpp:172] Creating test net (#0) specified by net file: weighted_train_val.prototxt
I1213 09:53:11.541749 17259 net.cpp:294] The NetState phase (1) differed from the phase (0) specified by a rule in layer data
I1213 09:53:11.542799 17259 net.cpp:51] Initializing net from parameters: 
name: "CaffeNet"
state {
  phase: TEST
}
layer {
  name: "data"
  type: "Data"
  top: "data"
  top: "label"
  include {
    phase: TEST
  }
  transform_param {
    scale: 0.0078125
    mirror: true
    mean_value: 127
  }
  data_param {
    source: "/home/lc/gender/dushanzi/data/val.lmdb"
    batch_size: 128
    backend: LMDB
  }
}
layer {
  name: "conv1"
  type: "Convolution"
  bottom: "data"
  top: "conv1"
  param {
    lr_mult: 1
  }
  param {
    lr_mult: 2
  }
  convolution_param {
    num_output: 96
    kernel_size: 11
    stride: 4
    weight_filler {
      type: "xavier"
    }
    bias_filler {
      type: "constant"
    }
  }
}
layer {
  name: "relu1"
  type: "ReLU"
  bottom: "conv1"
  top: "conv1"
}
layer {
  name: "pool1"
  type: "Pooling"
  bottom: "conv1"
  top: "pool1"
  pooling_param {
    pool: MAX
    kernel_size: 3
    stride: 2
  }
}
layer {
  name: "norm1"
  type: "LRN"
  bottom: "pool1"
  top: "norm1"
  lrn_param {
    local_size: 5
    alpha: 0.0001
    beta: 0.75
  }
}
layer {
  name: "conv2"
  type: "Convolution"
  bottom: "norm1"
  top: "conv2"
  param {
    lr_mult: 1
  }
  param {
    lr_mult: 2
  }
  convolution_param {
    num_output: 256
    pad: 2
    kernel_size: 5
    group: 2
    weight_filler {
      type: "xavier"
    }
    bias_filler {
      type: "constant"
    }
  }
}
layer {
  name: "relu2"
  type: "ReLU"
  bottom: "conv2"
  top: "conv2"
}
layer {
  name: "pool2"
  type: "Pooling"
  bottom: "conv2"
  top: "pool2"
  pooling_param {
    pool: MAX
    kernel_size: 3
    stride: 2
  }
}
layer {
  name: "norm2"
  type: "LRN"
  bottom: "pool2"
  top: "norm2"
  lrn_param {
    local_size: 5
    alpha: 0.0001
    beta: 0.75
  }
}
layer {
  name: "conv3"
  type: "Convolution"
  bottom: "norm2"
  top: "conv3"
  param {
    lr_mult: 1
  }
  param {
    lr_mult: 2
  }
  convolution_param {
    num_output: 384
    pad: 1
    kernel_size: 3
    weight_filler {
      type: "xavier"
    }
    bias_filler {
      type: "constant"
    }
  }
}
layer {
  name: "relu3"
  type: "ReLU"
  bottom: "conv3"
  top: "conv3"
}
layer {
  name: "conv4"
  type: "Convolution"
  bottom: "conv3"
  top: "conv4"
  param {
    lr_mult: 1
  }
  param {
    lr_mult: 2
  }
  convolution_param {
    num_output: 384
    pad: 1
    kernel_size: 3
    group: 2
    weight_filler {
      type: "xavier"
    }
    bias_filler {
      type: "constant"
    }
  }
}
layer {
  name: "relu4"
  type: "ReLU"
  bottom: "conv4"
  top: "conv4"
}
layer {
  name: "conv5"
  type: "Convolution"
  bottom: "conv4"
  top: "conv5"
  param {
    lr_mult: 1
  }
  param {
    lr_mult: 2
  }
  convolution_param {
    num_output: 256
    pad: 1
    kernel_size: 3
    group: 2
    weight_filler {
      type: "xavier"
    }
    bias_filler {
      type: "constant"
    }
  }
}
layer {
  name: "relu5"
  type: "ReLU"
  bottom: "conv5"
  top: "conv5"
}
layer {
  name: "pool5"
  type: "Pooling"
  bottom: "conv5"
  top: "pool5"
  pooling_param {
    pool: MAX
    kernel_size: 3
    stride: 2
  }
}
layer {
  name: "fc6"
  type: "InnerProduct"
  bottom: "pool5"
  top: "fc6"
  param {
    lr_mult: 1
  }
  param {
    lr_mult: 2
  }
  inner_product_param {
    num_output: 256
    weight_filler {
      type: "xavier"
    }
    bias_filler {
      type: "constant"
    }
  }
}
layer {
  name: "relu6"
  type: "ReLU"
  bottom: "fc6"
  top: "fc6"
}
layer {
  name: "drop6"
  type: "Dropout"
  bottom: "fc6"
  top: "fc6"
  dropout_param {
    dropout_ratio: 0.5
  }
}
layer {
  name: "fc7"
  type: "InnerProduct"
  bottom: "fc6"
  top: "fc7"
  param {
    lr_mult: 1
  }
  param {
    lr_mult: 2
  }
  inner_product_param {
    num_output: 256
    weight_filler {
      type: "xavier"
    }
    bias_filler {
      type: "constant"
    }
  }
}
layer {
  name: "relu7"
  type: "ReLU"
  bottom: "fc7"
  top: "fc7"
}
layer {
  name: "drop7"
  type: "Dropout"
  bottom: "fc7"
  top: "fc7"
  dropout_param {
    dropout_ratio: 0.5
  }
}
layer {
  name: "fc8"
  type: "InnerProduct"
  bottom: "fc7"
  top: "fc8"
  param {
    lr_mult: 1
  }
  param {
    lr_mult: 2
  }
  inner_product_param {
    num_output: 2
    weight_filler {
      type: "xavier"
    }
    bias_filler {
      type: "constant"
    }
  }
}
layer {
  name: "accuracy"
  type: "Accuracy"
  bottom: "fc8"
  bottom: "label"
  top: "accuracy"
  include {
    phase: TEST
  }
}
layer {
  name: "loss"
  type: "WeightedSoftmaxWithLoss"
  bottom: "fc8"
  bottom: "label"
  top: "loss"
  softmax_param {
    pos_mult: 7
    pos_cid: 1
  }
}
I1213 09:53:11.543023 17259 layer_factory.hpp:77] Creating layer data
I1213 09:53:29.649902 17259 db_lmdb.cpp:35] Opened lmdb /home/lc/gender/dushanzi/data/val.lmdb
I1213 09:53:29.669083 17259 net.cpp:84] Creating Layer data
I1213 09:53:29.669127 17259 net.cpp:380] data -> data
I1213 09:53:29.669158 17259 net.cpp:380] data -> label
I1213 09:53:29.674314 17259 data_layer.cpp:45] output data size: 128,3,200,200
I1213 09:53:29.874104 17259 net.cpp:122] Setting up data
I1213 09:53:29.874168 17259 net.cpp:129] Top shape: 128 3 200 200 (15360000)
I1213 09:53:29.874183 17259 net.cpp:129] Top shape: 128 (128)
I1213 09:53:29.874188 17259 net.cpp:137] Memory required for data: 61440512
I1213 09:53:29.874202 17259 layer_factory.hpp:77] Creating layer label_data_1_split
I1213 09:53:29.874222 17259 net.cpp:84] Creating Layer label_data_1_split
I1213 09:53:29.874228 17259 net.cpp:406] label_data_1_split <- label
I1213 09:53:29.874240 17259 net.cpp:380] label_data_1_split -> label_data_1_split_0
I1213 09:53:29.874256 17259 net.cpp:380] label_data_1_split -> label_data_1_split_1
I1213 09:53:29.874336 17259 net.cpp:122] Setting up label_data_1_split
I1213 09:53:29.874346 17259 net.cpp:129] Top shape: 128 (128)
I1213 09:53:29.874351 17259 net.cpp:129] Top shape: 128 (128)
I1213 09:53:29.874356 17259 net.cpp:137] Memory required for data: 61441536
I1213 09:53:29.874361 17259 layer_factory.hpp:77] Creating layer conv1
I1213 09:53:29.874378 17259 net.cpp:84] Creating Layer conv1
I1213 09:53:29.874384 17259 net.cpp:406] conv1 <- data
I1213 09:53:29.874393 17259 net.cpp:380] conv1 -> conv1
I1213 09:53:29.875880 17259 net.cpp:122] Setting up conv1
I1213 09:53:29.875902 17259 net.cpp:129] Top shape: 128 96 48 48 (28311552)
I1213 09:53:29.875907 17259 net.cpp:137] Memory required for data: 174687744
I1213 09:53:29.875926 17259 layer_factory.hpp:77] Creating layer relu1
I1213 09:53:29.875936 17259 net.cpp:84] Creating Layer relu1
I1213 09:53:29.875941 17259 net.cpp:406] relu1 <- conv1
I1213 09:53:29.875949 17259 net.cpp:367] relu1 -> conv1 (in-place)
I1213 09:53:29.876070 17259 net.cpp:122] Setting up relu1
I1213 09:53:29.876083 17259 net.cpp:129] Top shape: 128 96 48 48 (28311552)
I1213 09:53:29.876088 17259 net.cpp:137] Memory required for data: 287933952
I1213 09:53:29.876093 17259 layer_factory.hpp:77] Creating layer pool1
I1213 09:53:29.876104 17259 net.cpp:84] Creating Layer pool1
I1213 09:53:29.876109 17259 net.cpp:406] pool1 <- conv1
I1213 09:53:29.876117 17259 net.cpp:380] pool1 -> pool1
I1213 09:53:29.876160 17259 net.cpp:122] Setting up pool1
I1213 09:53:29.876169 17259 net.cpp:129] Top shape: 128 96 24 24 (7077888)
I1213 09:53:29.876174 17259 net.cpp:137] Memory required for data: 316245504
I1213 09:53:29.876179 17259 layer_factory.hpp:77] Creating layer norm1
I1213 09:53:29.876188 17259 net.cpp:84] Creating Layer norm1
I1213 09:53:29.876194 17259 net.cpp:406] norm1 <- pool1
I1213 09:53:29.876202 17259 net.cpp:380] norm1 -> norm1
I1213 09:53:29.876567 17259 net.cpp:122] Setting up norm1
I1213 09:53:29.876585 17259 net.cpp:129] Top shape: 128 96 24 24 (7077888)
I1213 09:53:29.876591 17259 net.cpp:137] Memory required for data: 344557056
I1213 09:53:29.876596 17259 layer_factory.hpp:77] Creating layer conv2
I1213 09:53:29.876616 17259 net.cpp:84] Creating Layer conv2
I1213 09:53:29.876621 17259 net.cpp:406] conv2 <- norm1
I1213 09:53:29.876629 17259 net.cpp:380] conv2 -> conv2
I1213 09:53:29.883416 17259 net.cpp:122] Setting up conv2
I1213 09:53:29.883438 17259 net.cpp:129] Top shape: 128 256 24 24 (18874368)
I1213 09:53:29.883445 17259 net.cpp:137] Memory required for data: 420054528
I1213 09:53:29.883457 17259 layer_factory.hpp:77] Creating layer relu2
I1213 09:53:29.883466 17259 net.cpp:84] Creating Layer relu2
I1213 09:53:29.883471 17259 net.cpp:406] relu2 <- conv2
I1213 09:53:29.883479 17259 net.cpp:367] relu2 -> conv2 (in-place)
I1213 09:53:29.883575 17259 net.cpp:122] Setting up relu2
I1213 09:53:29.883587 17259 net.cpp:129] Top shape: 128 256 24 24 (18874368)
I1213 09:53:29.883592 17259 net.cpp:137] Memory required for data: 495552000
I1213 09:53:29.883597 17259 layer_factory.hpp:77] Creating layer pool2
I1213 09:53:29.883606 17259 net.cpp:84] Creating Layer pool2
I1213 09:53:29.883611 17259 net.cpp:406] pool2 <- conv2
I1213 09:53:29.883618 17259 net.cpp:380] pool2 -> pool2
I1213 09:53:29.883671 17259 net.cpp:122] Setting up pool2
I1213 09:53:29.883680 17259 net.cpp:129] Top shape: 128 256 12 12 (4718592)
I1213 09:53:29.883685 17259 net.cpp:137] Memory required for data: 514426368
I1213 09:53:29.883690 17259 layer_factory.hpp:77] Creating layer norm2
I1213 09:53:29.883697 17259 net.cpp:84] Creating Layer norm2
I1213 09:53:29.883702 17259 net.cpp:406] norm2 <- pool2
I1213 09:53:29.883711 17259 net.cpp:380] norm2 -> norm2
I1213 09:53:29.884050 17259 net.cpp:122] Setting up norm2
I1213 09:53:29.884066 17259 net.cpp:129] Top shape: 128 256 12 12 (4718592)
I1213 09:53:29.884073 17259 net.cpp:137] Memory required for data: 533300736
I1213 09:53:29.884078 17259 layer_factory.hpp:77] Creating layer conv3
I1213 09:53:29.884091 17259 net.cpp:84] Creating Layer conv3
I1213 09:53:29.884102 17259 net.cpp:406] conv3 <- norm2
I1213 09:53:29.884114 17259 net.cpp:380] conv3 -> conv3
I1213 09:53:29.893294 17259 net.cpp:122] Setting up conv3
I1213 09:53:29.893317 17259 net.cpp:129] Top shape: 128 384 12 12 (7077888)
I1213 09:53:29.893323 17259 net.cpp:137] Memory required for data: 561612288
I1213 09:53:29.893337 17259 layer_factory.hpp:77] Creating layer relu3
I1213 09:53:29.893345 17259 net.cpp:84] Creating Layer relu3
I1213 09:53:29.893350 17259 net.cpp:406] relu3 <- conv3
I1213 09:53:29.893359 17259 net.cpp:367] relu3 -> conv3 (in-place)
I1213 09:53:29.893662 17259 net.cpp:122] Setting up relu3
I1213 09:53:29.893678 17259 net.cpp:129] Top shape: 128 384 12 12 (7077888)
I1213 09:53:29.893683 17259 net.cpp:137] Memory required for data: 589923840
I1213 09:53:29.893688 17259 layer_factory.hpp:77] Creating layer conv4
I1213 09:53:29.893703 17259 net.cpp:84] Creating Layer conv4
I1213 09:53:29.893708 17259 net.cpp:406] conv4 <- conv3
I1213 09:53:29.893718 17259 net.cpp:380] conv4 -> conv4
I1213 09:53:29.903340 17259 net.cpp:122] Setting up conv4
I1213 09:53:29.903362 17259 net.cpp:129] Top shape: 128 384 12 12 (7077888)
I1213 09:53:29.903367 17259 net.cpp:137] Memory required for data: 618235392
I1213 09:53:29.903378 17259 layer_factory.hpp:77] Creating layer relu4
I1213 09:53:29.903386 17259 net.cpp:84] Creating Layer relu4
I1213 09:53:29.903393 17259 net.cpp:406] relu4 <- conv4
I1213 09:53:29.903403 17259 net.cpp:367] relu4 -> conv4 (in-place)
I1213 09:53:29.903501 17259 net.cpp:122] Setting up relu4
I1213 09:53:29.903512 17259 net.cpp:129] Top shape: 128 384 12 12 (7077888)
I1213 09:53:29.903518 17259 net.cpp:137] Memory required for data: 646546944
I1213 09:53:29.903523 17259 layer_factory.hpp:77] Creating layer conv5
I1213 09:53:29.903537 17259 net.cpp:84] Creating Layer conv5
I1213 09:53:29.903542 17259 net.cpp:406] conv5 <- conv4
I1213 09:53:29.903551 17259 net.cpp:380] conv5 -> conv5
I1213 09:53:29.909369 17259 net.cpp:122] Setting up conv5
I1213 09:53:29.909392 17259 net.cpp:129] Top shape: 128 256 12 12 (4718592)
I1213 09:53:29.909399 17259 net.cpp:137] Memory required for data: 665421312
I1213 09:53:29.909412 17259 layer_factory.hpp:77] Creating layer relu5
I1213 09:53:29.909420 17259 net.cpp:84] Creating Layer relu5
I1213 09:53:29.909426 17259 net.cpp:406] relu5 <- conv5
I1213 09:53:29.909435 17259 net.cpp:367] relu5 -> conv5 (in-place)
I1213 09:53:29.909754 17259 net.cpp:122] Setting up relu5
I1213 09:53:29.909770 17259 net.cpp:129] Top shape: 128 256 12 12 (4718592)
I1213 09:53:29.909775 17259 net.cpp:137] Memory required for data: 684295680
I1213 09:53:29.909781 17259 layer_factory.hpp:77] Creating layer pool5
I1213 09:53:29.909793 17259 net.cpp:84] Creating Layer pool5
I1213 09:53:29.909799 17259 net.cpp:406] pool5 <- conv5
I1213 09:53:29.909809 17259 net.cpp:380] pool5 -> pool5
I1213 09:53:29.909858 17259 net.cpp:122] Setting up pool5
I1213 09:53:29.909868 17259 net.cpp:129] Top shape: 128 256 6 6 (1179648)
I1213 09:53:29.909873 17259 net.cpp:137] Memory required for data: 689014272
I1213 09:53:29.909878 17259 layer_factory.hpp:77] Creating layer fc6
I1213 09:53:29.909889 17259 net.cpp:84] Creating Layer fc6
I1213 09:53:29.909894 17259 net.cpp:406] fc6 <- pool5
I1213 09:53:29.909904 17259 net.cpp:380] fc6 -> fc6
I1213 09:53:29.930814 17259 net.cpp:122] Setting up fc6
I1213 09:53:29.930841 17259 net.cpp:129] Top shape: 128 256 (32768)
I1213 09:53:29.930846 17259 net.cpp:137] Memory required for data: 689145344
I1213 09:53:29.930857 17259 layer_factory.hpp:77] Creating layer relu6
I1213 09:53:29.930866 17259 net.cpp:84] Creating Layer relu6
I1213 09:53:29.930871 17259 net.cpp:406] relu6 <- fc6
I1213 09:53:29.930881 17259 net.cpp:367] relu6 -> fc6 (in-place)
I1213 09:53:29.930989 17259 net.cpp:122] Setting up relu6
I1213 09:53:29.930999 17259 net.cpp:129] Top shape: 128 256 (32768)
I1213 09:53:29.931004 17259 net.cpp:137] Memory required for data: 689276416
I1213 09:53:29.931010 17259 layer_factory.hpp:77] Creating layer drop6
I1213 09:53:29.931018 17259 net.cpp:84] Creating Layer drop6
I1213 09:53:29.931031 17259 net.cpp:406] drop6 <- fc6
I1213 09:53:29.931038 17259 net.cpp:367] drop6 -> fc6 (in-place)
I1213 09:53:29.931064 17259 net.cpp:122] Setting up drop6
I1213 09:53:29.931072 17259 net.cpp:129] Top shape: 128 256 (32768)
I1213 09:53:29.931077 17259 net.cpp:137] Memory required for data: 689407488
I1213 09:53:29.931082 17259 layer_factory.hpp:77] Creating layer fc7
I1213 09:53:29.931090 17259 net.cpp:84] Creating Layer fc7
I1213 09:53:29.931094 17259 net.cpp:406] fc7 <- fc6
I1213 09:53:29.931102 17259 net.cpp:380] fc7 -> fc7
I1213 09:53:29.931659 17259 net.cpp:122] Setting up fc7
I1213 09:53:29.931668 17259 net.cpp:129] Top shape: 128 256 (32768)
I1213 09:53:29.931674 17259 net.cpp:137] Memory required for data: 689538560
I1213 09:53:29.931681 17259 layer_factory.hpp:77] Creating layer relu7
I1213 09:53:29.931690 17259 net.cpp:84] Creating Layer relu7
I1213 09:53:29.931695 17259 net.cpp:406] relu7 <- fc7
I1213 09:53:29.931702 17259 net.cpp:367] relu7 -> fc7 (in-place)
I1213 09:53:29.932047 17259 net.cpp:122] Setting up relu7
I1213 09:53:29.932061 17259 net.cpp:129] Top shape: 128 256 (32768)
I1213 09:53:29.932066 17259 net.cpp:137] Memory required for data: 689669632
I1213 09:53:29.932072 17259 layer_factory.hpp:77] Creating layer drop7
I1213 09:53:29.932086 17259 net.cpp:84] Creating Layer drop7
I1213 09:53:29.932092 17259 net.cpp:406] drop7 <- fc7
I1213 09:53:29.932101 17259 net.cpp:367] drop7 -> fc7 (in-place)
I1213 09:53:29.932126 17259 net.cpp:122] Setting up drop7
I1213 09:53:29.932132 17259 net.cpp:129] Top shape: 128 256 (32768)
I1213 09:53:29.932137 17259 net.cpp:137] Memory required for data: 689800704
I1213 09:53:29.932142 17259 layer_factory.hpp:77] Creating layer fc8
I1213 09:53:29.932149 17259 net.cpp:84] Creating Layer fc8
I1213 09:53:29.932154 17259 net.cpp:406] fc8 <- fc7
I1213 09:53:29.932163 17259 net.cpp:380] fc8 -> fc8
I1213 09:53:29.932284 17259 net.cpp:122] Setting up fc8
I1213 09:53:29.932293 17259 net.cpp:129] Top shape: 128 2 (256)
I1213 09:53:29.932297 17259 net.cpp:137] Memory required for data: 689801728
I1213 09:53:29.932307 17259 layer_factory.hpp:77] Creating layer fc8_fc8_0_split
I1213 09:53:29.932314 17259 net.cpp:84] Creating Layer fc8_fc8_0_split
I1213 09:53:29.932319 17259 net.cpp:406] fc8_fc8_0_split <- fc8
I1213 09:53:29.932328 17259 net.cpp:380] fc8_fc8_0_split -> fc8_fc8_0_split_0
I1213 09:53:29.932337 17259 net.cpp:380] fc8_fc8_0_split -> fc8_fc8_0_split_1
I1213 09:53:29.932373 17259 net.cpp:122] Setting up fc8_fc8_0_split
I1213 09:53:29.932380 17259 net.cpp:129] Top shape: 128 2 (256)
I1213 09:53:29.932385 17259 net.cpp:129] Top shape: 128 2 (256)
I1213 09:53:29.932389 17259 net.cpp:137] Memory required for data: 689803776
I1213 09:53:29.932395 17259 layer_factory.hpp:77] Creating layer accuracy
I1213 09:53:29.932406 17259 net.cpp:84] Creating Layer accuracy
I1213 09:53:29.932411 17259 net.cpp:406] accuracy <- fc8_fc8_0_split_0
I1213 09:53:29.932417 17259 net.cpp:406] accuracy <- label_data_1_split_0
I1213 09:53:29.932425 17259 net.cpp:380] accuracy -> accuracy
…
