…
I1213 10:25:08.279898 25895 net.cpp:294] The NetState phase (0) differed from the phase (1) specified by a rule in layer data
I1213 10:25:08.279989 25895 net.cpp:294] The NetState phase (0) differed from the phase (1) specified by a rule in layer accuracy
I1213 10:25:08.280921 25895 net.cpp:51] Initializing net from parameters: 
state {
  phase: TRAIN
  level: 0
  stage: ""
}
layer {
  name: "data"
  type: "Data"
  top: "data"
  top: "label"
  include {
    phase: TRAIN
  }
  transform_param {
    scale: 0.0078125
    mirror: true
    mean_value: 127
  }
  data_param {
    source: "/home/lc/gender/dushanzi/data/train.lmdb"
    batch_size: 10
    backend: LMDB
  }
}
layer {
  name: "conv0"
  type: "Convolution"
  bottom: "data"
  top: "conv0"
  param {
    lr_mult: 1
    decay_mult: 1
  }
  convolution_param {
    num_output: 64
    bias_term: false
    pad: 1
    kernel_size: 3
    stride: 1
    weight_filler {
      type: "gaussian"
      std: 0.01
    }
    engine: CAFFE
  }
}
layer {
  name: "bn0"
  type: "BatchNorm"
  bottom: "conv0"
  top: "bn0"
  batch_norm_param {
    use_global_stats: false
    moving_average_fraction: 0.9
    eps: 2e-05
  }
}
layer {
  name: "bn0_scale"
  type: "Scale"
  bottom: "bn0"
  top: "bn0"
  scale_param {
    bias_term: true
  }
}
layer {
  name: "relu0"
  type: "ReLU"
  bottom: "bn0"
  top: "relu0"
}
layer {
  name: "stage1_unit1_bn1"
  type: "BatchNorm"
  bottom: "relu0"
  top: "stage1_unit1_bn1"
  batch_norm_param {
    use_global_stats: false
    moving_average_fraction: 0.9
    eps: 2e-05
  }
}
layer {
  name: "stage1_unit1_bn1_scale"
  type: "Scale"
  bottom: "stage1_unit1_bn1"
  top: "stage1_unit1_bn1"
  scale_param {
    bias_term: true
  }
}
layer {
  name: "stage1_unit1_conv1"
  type: "Convolution"
  bottom: "stage1_unit1_bn1"
  top: "stage1_unit1_conv1"
  param {
    lr_mult: 1
    decay_mult: 1
  }
  convolution_param {
    num_output: 64
    bias_term: false
    pad: 1
    kernel_size: 3
    stride: 1
    weight_filler {
      type: "gaussian"
      std: 0.01
    }
    engine: CAFFE
  }
}
layer {
  name: "stage1_unit1_bn2"
  type: "BatchNorm"
  bottom: "stage1_unit1_conv1"
  top: "stage1_unit1_bn2"
  batch_norm_param {
    use_global_stats: false
    moving_average_fraction: 0.9
    eps: 2e-05
  }
}
layer {
  name: "stage1_unit1_bn2_scale"
  type: "Scale"
  bottom: "stage1_unit1_bn2"
  top: "stage1_unit1_bn2"
  scale_param {
    bias_term: true
  }
}
layer {
  name: "stage1_unit1_relu1"
  type: "ReLU"
  bottom: "stage1_unit1_bn2"
  top: "stage1_unit1_relu1"
}
layer {
  name: "stage1_unit1_conv2"
  type: "Convolution"
  bottom: "stage1_unit1_relu1"
  top: "stage1_unit1_conv2"
  param {
    lr_mult: 1
    decay_mult: 1
  }
  convolution_param {
    num_output: 64
    bias_term: false
    pad: 1
    kernel_size: 3
    stride: 2
    weight_filler {
      type: "gaussian"
      std: 0.01
    }
    engine: CAFFE
  }
}
layer {
  name: "stage1_unit1_bn3"
  type: "BatchNorm"
  bottom: "stage1_unit1_conv2"
  top: "stage1_unit1_bn3"
  batch_norm_param {
    use_global_stats: false
    moving_average_fraction: 0.9
    eps: 2e-05
  }
}
layer {
  name: "stage1_unit1_bn3_scale"
  type: "Scale"
  bottom: "stage1_unit1_bn3"
  top: "stage1_unit1_bn3"
  scale_param {
    bias_term: true
  }
}
layer {
  name: "stage1_unit1_conv1sc"
  type: "Convolution"
  bottom: "relu0"
  top: "stage1_unit1_conv1sc"
  param {
    lr_mult: 1
    decay_mult: 1
  }
  convolution_param {
    num_output: 64
    bias_term: false
    kernel_size: 1
    stride: 2
    weight_filler {
      type: "gaussian"
      std: 0.01
    }
    engine: CAFFE
  }
}
layer {
  name: "stage1_unit1_sc"
  type: "BatchNorm"
  bottom: "stage1_unit1_conv1sc"
  top: "stage1_unit1_sc"
  batch_norm_param {
    use_global_stats: false
    moving_average_fraction: 0.9
    eps: 2e-05
  }
}
layer {
  name: "stage1_unit1_sc_scale"
  type: "Scale"
  bottom: "stage1_unit1_sc"
  top: "stage1_unit1_sc"
  scale_param {
    bias_term: true
  }
}
layer {
  name: "_plus0"
  type: "Eltwise"
  bottom: "stage1_unit1_bn3"
  bottom: "stage1_unit1_sc"
  top: "_plus0"
  eltwise_param {
    operation: SUM
  }
}
layer {
  name: "stage1_unit2_bn1"
  type: "BatchNorm"
  bottom: "_plus0"
  top: "stage1_unit2_bn1"
  batch_norm_param {
    use_global_stats: false
    moving_average_fraction: 0.9
    eps: 2e-05
  }
}
layer {
  name: "stage1_unit2_bn1_scale"
  type: "Scale"
  bottom: "stage1_unit2_bn1"
  top: "stage1_unit2_bn1"
  scale_param {
    bias_term: true
  }
}
layer {
  name: "stage1_unit2_conv1"
  type: "Convolution"
  bottom: "stage1_unit2_bn1"
  top: "stage1_unit2_conv1"
  param {
    lr_mult: 1
    decay_mult: 1
  }
  convolution_param {
    num_output: 64
    bias_term: false
    pad: 1
    kernel_size: 3
    stride: 1
    weight_filler {
      type: "gaussian"
      std: 0.01
    }
    engine: CAFFE
  }
}
layer {
  name: "stage1_unit2_bn2"
  type: "BatchNorm"
  bottom: "stage1_unit2_conv1"
  top: "stage1_unit2_bn2"
  batch_norm_param {
    use_global_stats: false
    moving_average_fraction: 0.9
    eps: 2e-05
  }
}
layer {
  name: "stage1_unit2_bn2_scale"
  type: "Scale"
  bottom: "stage1_unit2_bn2"
  top: "stage1_unit2_bn2"
  scale_param {
    bias_term: true
  }
}
layer {
  name: "stage1_unit2_relu1"
  type: "ReLU"
  bottom: "stage1_unit2_bn2"
  top: "stage1_unit2_relu1"
}
layer {
  name: "stage1_unit2_conv2"
  type: "Convolution"
  bottom: "stage1_unit2_relu1"
  top: "stage1_unit2_conv2"
  param {
    lr_mult: 1
    decay_mult: 1
  }
  convolution_param {
    num_output: 64
    bias_term: false
    pad: 1
    kernel_size: 3
    stride: 1
    weight_filler {
      type: "gaussian"
      std: 0.01
    }
    engine: CAFFE
  }
}
layer {
  name: "stage1_unit2_bn3"
  type: "BatchNorm"
  bottom: "stage1_unit2_conv2"
  top: "stage1_unit2_bn3"
  batch_norm_param {
    use_global_stats: false
    moving_average_fraction: 0.9
    eps: 2e-05
  }
}
layer {
  name: "stage1_unit2_bn3_scale"
  type: "Scale"
  bottom: "stage1_unit2_bn3"
  top: "stage1_unit2_bn3"
  scale_param {
    bias_term: true
  }
}
layer {
  name: "_plus1"
  type: "Eltwise"
  bottom: "stage1_unit2_bn3"
  bottom: "_plus0"
  top: "_plus1"
  eltwise_param {
    operation: SUM
  }
}
layer {
  name: "stage2_unit1_bn1"
  type: "BatchNorm"
  bottom: "_plus1"
  top: "stage2_unit1_bn1"
  batch_norm_param {
    use_global_stats: false
    moving_average_fraction: 0.9
    eps: 2e-05
  }
}
layer {
  name: "stage2_unit1_bn1_scale"
  type: "Scale"
  bottom: "stage2_unit1_bn1"
  top: "stage2_unit1_bn1"
  scale_param {
    bias_term: true
  }
}
layer {
  name: "stage2_unit1_conv1"
  type: "Convolution"
  bottom: "stage2_unit1_bn1"
  top: "stage2_unit1_conv1"
  param {
    lr_mult: 1
    decay_mult: 1
  }
  convolution_param {
    num_output: 128
    bias_term: false
    pad: 1
    kernel_size: 3
    stride: 1
    weight_filler {
      type: "gaussian"
      std: 0.01
    }
    engine: CAFFE
  }
}
layer {
  name: "stage2_unit1_bn2"
  type: "BatchNorm"
  bottom: "stage2_unit1_conv1"
  top: "stage2_unit1_bn2"
  batch_norm_param {
    use_global_stats: false
    moving_average_fraction: 0.9
    eps: 2e-05
  }
}
layer {
  name: "stage2_unit1_bn2_scale"
  type: "Scale"
  bottom: "stage2_unit1_bn2"
  top: "stage2_unit1_bn2"
  scale_param {
    bias_term: true
  }
}
layer {
  name: "stage2_unit1_relu1"
  type: "ReLU"
  bottom: "stage2_unit1_bn2"
  top: "stage2_unit1_relu1"
}
layer {
  name: "stage2_unit1_conv2"
  type: "Convolution"
  bottom: "stage2_unit1_relu1"
  top: "stage2_unit1_conv2"
  param {
    lr_mult: 1
    decay_mult: 1
  }
  convolution_param {
    num_output: 128
    bias_term: false
    pad: 1
    kernel_size: 3
    stride: 2
    weight_filler {
      type: "gaussian"
      std: 0.01
    }
    engine: CAFFE
  }
}
layer {
  name: "stage2_unit1_bn3"
  type: "BatchNorm"
  bottom: "stage2_unit1_conv2"
  top: "stage2_unit1_bn3"
  batch_norm_param {
    use_global_stats: false
    moving_average_fraction: 0.9
    eps: 2e-05
  }
}
layer {
  name: "stage2_unit1_bn3_scale"
  type: "Scale"
  bottom: "stage2_unit1_bn3"
  top: "stage2_unit1_bn3"
  scale_param {
    bias_term: true
  }
}
layer {
  name: "stage2_unit1_conv1sc"
  type: "Convolution"
  bottom: "_plus1"
  top: "stage2_unit1_conv1sc"
  param {
    lr_mult: 1
    decay_mult: 1
  }
  convolution_param {
    num_output: 128
    bias_term: false
    kernel_size: 1
    stride: 2
    weight_filler {
      type: "gaussian"
      std: 0.01
    }
    engine: CAFFE
  }
}
layer {
  name: "stage2_unit1_sc"
  type: "BatchNorm"
  bottom: "stage2_unit1_conv1sc"
  top: "stage2_unit1_sc"
  batch_norm_param {
    use_global_stats: false
    moving_average_fraction: 0.9
    eps: 2e-05
  }
}
layer {
  name: "stage2_unit1_sc_scale"
  type: "Scale"
  bottom: "stage2_unit1_sc"
  top: "stage2_unit1_sc"
  scale_param {
    bias_term: true
  }
}
layer {
  name: "_plus2"
  type: "Eltwise"
  bottom: "stage2_unit1_bn3"
  bottom: "stage2_unit1_sc"
  top: "_plus2"
  eltwise_param {
    operation: SUM
  }
}
layer {
  name: "stage2_unit2_bn1"
  type: "BatchNorm"
  bottom: "_plus2"
  top: "stage2_unit2_bn1"
  batch_norm_param {
    use_global_stats: false
    moving_average_fraction: 0.9
    eps: 2e-05
  }
}
layer {
  name: "stage2_unit2_bn1_scale"
  type: "Scale"
  bottom: "stage2_unit2_bn1"
  top: "stage2_unit2_bn1"
  scale_param {
    bias_term: true
  }
}
layer {
  name: "stage2_unit2_conv1"
  type: "Convolution"
  bottom: "stage2_unit2_bn1"
  top: "stage2_unit2_conv1"
  param {
    lr_mult: 1
    decay_mult: 1
  }
  convolution_param {
    num_output: 128
    bias_term: false
    pad: 1
    kernel_size: 3
    stride: 1
    weight_filler {
      type: "gaussian"
      std: 0.01
    }
    engine: CAFFE
  }
}
layer {
  name: "stage2_unit2_bn2"
  type: "BatchNorm"
  bottom: "stage2_unit2_conv1"
  top: "stage2_unit2_bn2"
  batch_norm_param {
    use_global_stats: false
    moving_average_fraction: 0.9
    eps: 2e-05
  }
}
layer {
  name: "stage2_unit2_bn2_scale"
  type: "Scale"
  bottom: "stage2_unit2_bn2"
  top: "stage2_unit2_bn2"
  scale_param {
    bias_term: true
  }
}
layer {
  name: "stage2_unit2_relu1"
  type: "ReLU"
  bottom: "stage2_unit2_bn2"
  top: "stage2_unit2_relu1"
}
layer {
  name: "stage2_unit2_conv2"
  type: "Convolution"
  bottom: "stage2_unit2_relu1"
  top: "stage2_unit2_conv2"
  param {
    lr_mult: 1
    decay_mult: 1
  }
  convolution_param {
    num_output: 128
    bias_term: false
    pad: 1
    kernel_size: 3
    stride: 1
    weight_filler {
      type: "gaussian"
      std: 0.01
    }
    engine: CAFFE
  }
}
layer {
  name: "stage2_unit2_bn3"
  type: "BatchNorm"
  bottom: "stage2_unit2_conv2"
  top: "stage2_unit2_bn3"
  batch_norm_param {
    use_global_stats: false
    moving_average_fraction: 0.9
    eps: 2e-05
  }
}
layer {
  name: "stage2_unit2_bn3_scale"
  type: "Scale"
  bottom: "stage2_unit2_bn3"
  top: "stage2_unit2_bn3"
  scale_param {
    bias_term: true
  }
}
layer {
  name: "_plus3"
  type: "Eltwise"
  bottom: "stage2_unit2_bn3"
  bottom: "_plus2"
  top: "_plus3"
  eltwise_param {
    operation: SUM
  }
}
layer {
  name: "stage3_unit1_bn1"
  type: "BatchNorm"
  bottom: "_plus3"
  top: "stage3_unit1_bn1"
  batch_norm_param {
    use_global_stats: false
    moving_average_fraction: 0.9
    eps: 2e-05
  }
}
layer {
  name: "stage3_unit1_bn1_scale"
  type: "Scale"
  bottom: "stage3_unit1_bn1"
  top: "stage3_unit1_bn1"
  scale_param {
    bias_term: true
  }
}
layer {
  name: "stage3_unit1_conv1"
  type: "Convolution"
  bottom: "stage3_unit1_bn1"
  top: "stage3_unit1_conv1"
  param {
    lr_mult: 1
    decay_mult: 1
  }
  convolution_param {
    num_output: 256
    bias_term: false
    pad: 1
    kernel_size: 3
    stride: 1
    weight_filler {
      type: "gaussian"
      std: 0.01
    }
    engine: CAFFE
  }
}
layer {
  name: "stage3_unit1_bn2"
  type: "BatchNorm"
  bottom: "stage3_unit1_conv1"
  top: "stage3_unit1_bn2"
  batch_norm_param {
    use_global_stats: false
    moving_average_fraction: 0.9
    eps: 2e-05
  }
}
layer {
  name: "stage3_unit1_bn2_scale"
  type: "Scale"
  bottom: "stage3_unit1_bn2"
  top: "stage3_unit1_bn2"
  scale_param {
    bias_term: true
  }
}
layer {
  name: "stage3_unit1_relu1"
  type: "ReLU"
  bottom: "stage3_unit1_bn2"
  top: "stage3_unit1_relu1"
}
layer {
  name: "stage3_unit1_conv2"
  type: "Convolution"
  bottom: "stage3_unit1_relu1"
  top: "stage3_unit1_conv2"
  param {
    lr_mult: 1
    decay_mult: 1
  }
  convolution_param {
    num_output: 256
    bias_term: false
    pad: 1
    kernel_size: 3
    stride: 2
    weight_filler {
      type: "gaussian"
      std: 0.01
    }
    engine: CAFFE
  }
}
layer {
  name: "stage3_unit1_bn3"
  type: "BatchNorm"
  bottom: "stage3_unit1_conv2"
  top: "stage3_unit1_bn3"
  batch_norm_param {
    use_global_stats: false
    moving_average_fraction: 0.9
    eps: 2e-05
  }
}
layer {
  name: "stage3_unit1_bn3_scale"
  type: "Scale"
  bottom: "stage3_unit1_bn3"
  top: "stage3_unit1_bn3"
  scale_param {
    bias_term: true
  }
}
layer {
  name: "stage3_unit1_conv1sc"
  type: "Convolution"
  bottom: "_plus3"
  top: "stage3_unit1_conv1sc"
  param {
    lr_mult: 1
    decay_mult: 1
  }
  convolution_param {
    num_output: 256
    bias_term: false
    kernel_size: 1
    stride: 2
    weight_filler {
      type: "gaussian"
      std: 0.01
    }
    engine: CAFFE
  }
}
layer {
  name: "stage3_unit1_sc"
  type: "BatchNorm"
  bottom: "stage3_unit1_conv1sc"
  top: "stage3_unit1_sc"
  batch_norm_param {
    use_global_stats: false
    moving_average_fraction: 0.9
    eps: 2e-05
  }
}
layer {
  name: "stage3_unit1_sc_scale"
  type: "Scale"
  bottom: "stage3_unit1_sc"
  top: "stage3_unit1_sc"
  scale_param {
    bias_term: true
  }
}
layer {
  name: "_plus4"
  type: "Eltwise"
  bottom: "stage3_unit1_bn3"
  bottom: "stage3_unit1_sc"
  top: "_plus4"
  eltwise_param {
    operation: SUM
  }
}
layer {
  name: "stage3_unit2_bn1"
  type: "BatchNorm"
  bottom: "_plus4"
  top: "stage3_unit2_bn1"
  batch_norm_param {
    use_global_stats: false
    moving_average_fraction: 0.9
    eps: 2e-05
  }
}
layer {
  name: "stage3_unit2_bn1_scale"
  type: "Scale"
  bottom: "stage3_unit2_bn1"
  top: "stage3_unit2_bn1"
  scale_param {
    bias_term: true
  }
}
layer {
  name: "stage3_unit2_conv1"
  type: "Convolution"
  bottom: "stage3_unit2_bn1"
  top: "stage3_unit2_conv1"
  param {
    lr_mult: 1
    decay_mult: 1
  }
  convolution_param {
    num_output: 256
    bias_term: false
    pad: 1
    kernel_size: 3
    stride: 1
    weight_filler {
      type: "gaussian"
      std: 0.01
    }
    engine: CAFFE
  }
}
layer {
  name: "stage3_unit2_bn2"
  type: "BatchNorm"
  bottom: "stage3_unit2_conv1"
  top: "stage3_unit2_bn2"
  batch_norm_param {
    use_global_stats: false
    moving_average_fraction: 0.9
    eps: 2e-05
  }
}
layer {
  name: "stage3_unit2_bn2_scale"
  type: "Scale"
  bottom: "stage3_unit2_bn2"
  top: "stage3_unit2_bn2"
  scale_param {
    bias_term: true
  }
}
layer {
  name: "stage3_unit2_relu1"
  type: "ReLU"
  bottom: "stage3_unit2_bn2"
  top: "stage3_unit2_relu1"
}
layer {
  name: "stage3_unit2_conv2"
  type: "Convolution"
  bottom: "stage3_unit2_relu1"
  top: "stage3_unit2_conv2"
  param {
    lr_mult: 1
    decay_mult: 1
  }
  convolution_param {
    num_output: 256
    bias_term: false
    pad: 1
    kernel_size: 3
    stride: 1
    weight_filler {
      type: "gaussian"
      std: 0.01
    }
    engine: CAFFE
  }
}
layer {
  name: "stage3_unit2_bn3"
  type: "BatchNorm"
  bottom: "stage3_unit2_conv2"
  top: "stage3_unit2_bn3"
  batch_norm_param {
    use_global_stats: false
    moving_average_fraction: 0.9
    eps: 2e-05
  }
}
layer {
  name: "stage3_unit2_bn3_scale"
  type: "Scale"
  bottom: "stage3_unit2_bn3"
  top: "stage3_unit2_bn3"
  scale_param {
    bias_term: true
  }
}
layer {
  name: "_plus5"
  type: "Eltwise"
  bottom: "stage3_unit2_bn3"
  bottom: "_plus4"
  top: "_plus5"
  eltwise_param {
    operation: SUM
  }
}
layer {
  name: "stage4_unit1_bn1"
  type: "BatchNorm"
  bottom: "_plus5"
  top: "stage4_unit1_bn1"
  batch_norm_param {
    use_global_stats: false
    moving_average_fraction: 0.9
    eps: 2e-05
  }
}
layer {
  name: "stage4_unit1_bn1_scale"
  type: "Scale"
  bottom: "stage4_unit1_bn1"
  top: "stage4_unit1_bn1"
  scale_param {
    bias_term: true
  }
}
layer {
  name: "stage4_unit1_conv1"
  type: "Convolution"
  bottom: "stage4_unit1_bn1"
  top: "stage4_unit1_conv1"
  param {
    lr_mult: 1
    decay_mult: 1
  }
  convolution_param {
    num_output: 512
    bias_term: false
    pad: 1
    kernel_size: 3
    stride: 1
    weight_filler {
      type: "gaussian"
      std: 0.01
    }
    engine: CAFFE
  }
}
layer {
  name: "stage4_unit1_bn2"
  type: "BatchNorm"
  bottom: "stage4_unit1_conv1"
  top: "stage4_unit1_bn2"
  batch_norm_param {
    use_global_stats: false
    moving_average_fraction: 0.9
    eps: 2e-05
  }
}
layer {
  name: "stage4_unit1_bn2_scale"
  type: "Scale"
  bottom: "stage4_unit1_bn2"
  top: "stage4_unit1_bn2"
  scale_param {
    bias_term: true
  }
}
layer {
  name: "stage4_unit1_relu1"
  type: "ReLU"
  bottom: "stage4_unit1_bn2"
  top: "stage4_unit1_relu1"
}
layer {
  name: "stage4_unit1_conv2"
  type: "Convolution"
  bottom: "stage4_unit1_relu1"
  top: "stage4_unit1_conv2"
  param {
    lr_mult: 1
    decay_mult: 1
  }
  convolution_param {
    num_output: 512
    bias_term: false
    pad: 1
    kernel_size: 3
    stride: 2
    weight_filler {
      type: "gaussian"
      std: 0.01
    }
    engine: CAFFE
  }
}
layer {
  name: "stage4_unit1_bn3"
  type: "BatchNorm"
  bottom: "stage4_unit1_conv2"
  top: "stage4_unit1_bn3"
  batch_norm_param {
    use_global_stats: false
    moving_average_fraction: 0.9
    eps: 2e-05
  }
}
layer {
  name: "stage4_unit1_bn3_scale"
  type: "Scale"
  bottom: "stage4_unit1_bn3"
  top: "stage4_unit1_bn3"
  scale_param {
    bias_term: true
  }
}
layer {
  name: "stage4_unit1_conv1sc"
  type: "Convolution"
  bottom: "_plus5"
  top: "stage4_unit1_conv1sc"
  param {
    lr_mult: 1
    decay_mult: 1
  }
  convolution_param {
    num_output: 512
    bias_term: false
    kernel_size: 1
    stride: 2
    weight_filler {
      type: "gaussian"
      std: 0.01
    }
    engine: CAFFE
  }
}
layer {
  name: "stage4_unit1_sc"
  type: "BatchNorm"
  bottom: "stage4_unit1_conv1sc"
  top: "stage4_unit1_sc"
  batch_norm_param {
    use_global_stats: false
    moving_average_fraction: 0.9
    eps: 2e-05
  }
}
layer {
  name: "stage4_unit1_sc_scale"
  type: "Scale"
  bottom: "stage4_unit1_sc"
  top: "stage4_unit1_sc"
  scale_param {
    bias_term: true
  }
}
layer {
  name: "_plus6"
  type: "Eltwise"
  bottom: "stage4_unit1_bn3"
  bottom: "stage4_unit1_sc"
  top: "_plus6"
  eltwise_param {
    operation: SUM
  }
}
layer {
  name: "stage4_unit2_bn1"
  type: "BatchNorm"
  bottom: "_plus6"
  top: "stage4_unit2_bn1"
  batch_norm_param {
    use_global_stats: false
    moving_average_fraction: 0.9
    eps: 2e-05
  }
}
layer {
  name: "stage4_unit2_bn1_scale"
  type: "Scale"
  bottom: "stage4_unit2_bn1"
  top: "stage4_unit2_bn1"
  scale_param {
    bias_term: true
  }
}
layer {
  name: "stage4_unit2_conv1"
  type: "Convolution"
  bottom: "stage4_unit2_bn1"
  top: "stage4_unit2_conv1"
  param {
    lr_mult: 1
    decay_mult: 1
  }
  convolution_param {
    num_output: 512
    bias_term: false
    pad: 1
    kernel_size: 3
    stride: 1
    weight_filler {
      type: "gaussian"
      std: 0.01
    }
    engine: CAFFE
  }
}
layer {
  name: "stage4_unit2_bn2"
  type: "BatchNorm"
  bottom: "stage4_unit2_conv1"
  top: "stage4_unit2_bn2"
  batch_norm_param {
    use_global_stats: false
    moving_average_fraction: 0.9
    eps: 2e-05
  }
}
layer {
  name: "stage4_unit2_bn2_scale"
  type: "Scale"
  bottom: "stage4_unit2_bn2"
  top: "stage4_unit2_bn2"
  scale_param {
    bias_term: true
  }
}
layer {
  name: "stage4_unit2_relu1"
  type: "ReLU"
  bottom: "stage4_unit2_bn2"
  top: "stage4_unit2_relu1"
}
layer {
  name: "stage4_unit2_conv2"
  type: "Convolution"
  bottom: "stage4_unit2_relu1"
  top: "stage4_unit2_conv2"
  param {
    lr_mult: 1
    decay_mult: 1
  }
  convolution_param {
    num_output: 512
    bias_term: false
    pad: 1
    kernel_size: 3
    stride: 1
    weight_filler {
      type: "gaussian"
      std: 0.01
    }
    engine: CAFFE
  }
}
layer {
  name: "stage4_unit2_bn3"
  type: "BatchNorm"
  bottom: "stage4_unit2_conv2"
  top: "stage4_unit2_bn3"
  batch_norm_param {
    use_global_stats: false
    moving_average_fraction: 0.9
    eps: 2e-05
  }
}
layer {
  name: "stage4_unit2_bn3_scale"
  type: "Scale"
  bottom: "stage4_unit2_bn3"
  top: "stage4_unit2_bn3"
  scale_param {
    bias_term: true
  }
}
layer {
  name: "_plus7"
  type: "Eltwise"
  bottom: "stage4_unit2_bn3"
  bottom: "_plus6"
  top: "_plus7"
  eltwise_param {
    operation: SUM
  }
}
layer {
  name: "bn1"
  type: "BatchNorm"
  bottom: "_plus7"
  top: "bn1"
  batch_norm_param {
    use_global_stats: false
    moving_average_fraction: 0.9
    eps: 2e-05
  }
}
layer {
  name: "bn1_scale"
  type: "Scale"
  bottom: "bn1"
  top: "bn1"
  scale_param {
    bias_term: true
  }
}
layer {
  name: "fc8"
  type: "InnerProduct"
  bottom: "bn1"
  top: "fc8"
  param {
    lr_mult: 1
    decay_mult: 1
  }
  param {
    lr_mult: 2
    decay_mult: 0
  }
  inner_product_param {
    num_output: 2
    weight_filler {
      type: "msra"
      std: 0.01
    }
    bias_filler {
      type: "constant"
      value: 0
    }
  }
}
layer {
  name: "loss"
  type: "WeightedSoftmaxWithLoss"
  bottom: "fc8"
  bottom: "label"
  top: "loss"
  softmax_param {
    pos_mult: 5
    pos_cid: 1
  }
}
I1213 10:25:08.281548 25895 layer_factory.hpp:77] Creating layer data
I1213 10:25:08.281713 25895 db_lmdb.cpp:35] Opened lmdb /home/lc/gender/dushanzi/data/train.lmdb
I1213 10:25:08.281774 25895 net.cpp:84] Creating Layer data
I1213 10:25:08.281788 25895 net.cpp:380] data -> data
I1213 10:25:08.281834 25895 net.cpp:380] data -> label
I1213 10:25:08.283689 25895 data_layer.cpp:45] output data size: 10,3,200,200
I1213 10:25:08.301759 25895 net.cpp:122] Setting up data
I1213 10:25:08.301812 25895 net.cpp:129] Top shape: 10 3 200 200 (1200000)
I1213 10:25:08.301820 25895 net.cpp:129] Top shape: 10 (10)
I1213 10:25:08.301825 25895 net.cpp:137] Memory required for data: 4800040
I1213 10:25:08.301841 25895 layer_factory.hpp:77] Creating layer conv0
I1213 10:25:08.301870 25895 net.cpp:84] Creating Layer conv0
I1213 10:25:08.301879 25895 net.cpp:406] conv0 <- data
I1213 10:25:08.301903 25895 net.cpp:380] conv0 -> conv0
I1213 10:25:08.302269 25895 net.cpp:122] Setting up conv0
I1213 10:25:08.302282 25895 net.cpp:129] Top shape: 10 64 200 200 (25600000)
I1213 10:25:08.302287 25895 net.cpp:137] Memory required for data: 107200040
I1213 10:25:08.302331 25895 layer_factory.hpp:77] Creating layer bn0
I1213 10:25:08.302345 25895 net.cpp:84] Creating Layer bn0
I1213 10:25:08.302351 25895 net.cpp:406] bn0 <- conv0
I1213 10:25:08.302361 25895 net.cpp:380] bn0 -> bn0
I1213 10:25:08.302704 25895 net.cpp:122] Setting up bn0
I1213 10:25:08.302716 25895 net.cpp:129] Top shape: 10 64 200 200 (25600000)
I1213 10:25:08.302721 25895 net.cpp:137] Memory required for data: 209600040
I1213 10:25:08.302747 25895 layer_factory.hpp:77] Creating layer bn0_scale
I1213 10:25:08.302757 25895 net.cpp:84] Creating Layer bn0_scale
I1213 10:25:08.302764 25895 net.cpp:406] bn0_scale <- bn0
I1213 10:25:08.302772 25895 net.cpp:367] bn0_scale -> bn0 (in-place)
I1213 10:25:08.302819 25895 layer_factory.hpp:77] Creating layer bn0_scale
I1213 10:25:08.303076 25895 net.cpp:122] Setting up bn0_scale
I1213 10:25:08.303088 25895 net.cpp:129] Top shape: 10 64 200 200 (25600000)
I1213 10:25:08.303093 25895 net.cpp:137] Memory required for data: 312000040
I1213 10:25:08.303107 25895 layer_factory.hpp:77] Creating layer relu0
I1213 10:25:08.303117 25895 net.cpp:84] Creating Layer relu0
I1213 10:25:08.303122 25895 net.cpp:406] relu0 <- bn0
I1213 10:25:08.303129 25895 net.cpp:380] relu0 -> relu0
I1213 10:25:09.044035 25895 net.cpp:122] Setting up relu0
I1213 10:25:09.044137 25895 net.cpp:129] Top shape: 10 64 200 200 (25600000)
I1213 10:25:09.044157 25895 net.cpp:137] Memory required for data: 414400040
I1213 10:25:09.044194 25895 layer_factory.hpp:77] Creating layer relu0_relu0_0_split
I1213 10:25:09.044234 25895 net.cpp:84] Creating Layer relu0_relu0_0_split
I1213 10:25:09.044250 25895 net.cpp:406] relu0_relu0_0_split <- relu0
I1213 10:25:09.044283 25895 net.cpp:380] relu0_relu0_0_split -> relu0_relu0_0_split_0
I1213 10:25:09.044312 25895 net.cpp:380] relu0_relu0_0_split -> relu0_relu0_0_split_1
I1213 10:25:09.044381 25895 net.cpp:122] Setting up relu0_relu0_0_split
I1213 10:25:09.044404 25895 net.cpp:129] Top shape: 10 64 200 200 (25600000)
I1213 10:25:09.044423 25895 net.cpp:129] Top shape: 10 64 200 200 (25600000)
I1213 10:25:09.044438 25895 net.cpp:137] Memory required for data: 619200040
I1213 10:25:09.044454 25895 layer_factory.hpp:77] Creating layer stage1_unit1_bn1
I1213 10:25:09.044479 25895 net.cpp:84] Creating Layer stage1_unit1_bn1
I1213 10:25:09.044495 25895 net.cpp:406] stage1_unit1_bn1 <- relu0_relu0_0_split_0
I1213 10:25:09.044515 25895 net.cpp:380] stage1_unit1_bn1 -> stage1_unit1_bn1
I1213 10:25:09.044869 25895 net.cpp:122] Setting up stage1_unit1_bn1
I1213 10:25:09.044895 25895 net.cpp:129] Top shape: 10 64 200 200 (25600000)
I1213 10:25:09.044911 25895 net.cpp:137] Memory required for data: 721600040
I1213 10:25:09.044956 25895 layer_factory.hpp:77] Creating layer stage1_unit1_bn1_scale
I1213 10:25:09.044981 25895 net.cpp:84] Creating Layer stage1_unit1_bn1_scale
I1213 10:25:09.044996 25895 net.cpp:406] stage1_unit1_bn1_scale <- stage1_unit1_bn1
I1213 10:25:09.045015 25895 net.cpp:367] stage1_unit1_bn1_scale -> stage1_unit1_bn1 (in-place)
I1213 10:25:09.045089 25895 layer_factory.hpp:77] Creating layer stage1_unit1_bn1_scale
I1213 10:25:09.045399 25895 net.cpp:122] Setting up stage1_unit1_bn1_scale
I1213 10:25:09.045425 25895 net.cpp:129] Top shape: 10 64 200 200 (25600000)
I1213 10:25:09.045441 25895 net.cpp:137] Memory required for data: 824000040
I1213 10:25:09.045462 25895 layer_factory.hpp:77] Creating layer stage1_unit1_conv1
I1213 10:25:09.045492 25895 net.cpp:84] Creating Layer stage1_unit1_conv1
I1213 10:25:09.045508 25895 net.cpp:406] stage1_unit1_conv1 <- stage1_unit1_bn1
I1213 10:25:09.045528 25895 net.cpp:380] stage1_unit1_conv1 -> stage1_unit1_conv1
I1213 10:25:09.046497 25895 net.cpp:122] Setting up stage1_unit1_conv1
I1213 10:25:09.046525 25895 net.cpp:129] Top shape: 10 64 200 200 (25600000)
I1213 10:25:09.046540 25895 net.cpp:137] Memory required for data: 926400040
I1213 10:25:09.046568 25895 layer_factory.hpp:77] Creating layer stage1_unit1_bn2
I1213 10:25:09.046588 25895 net.cpp:84] Creating Layer stage1_unit1_bn2
I1213 10:25:09.046604 25895 net.cpp:406] stage1_unit1_bn2 <- stage1_unit1_conv1
I1213 10:25:09.046623 25895 net.cpp:380] stage1_unit1_bn2 -> stage1_unit1_bn2
I1213 10:25:09.046977 25895 net.cpp:122] Setting up stage1_unit1_bn2
I1213 10:25:09.047005 25895 net.cpp:129] Top shape: 10 64 200 200 (25600000)
I1213 10:25:09.047021 25895 net.cpp:137] Memory required for data: 1028800040
I1213 10:25:09.047044 25895 layer_factory.hpp:77] Creating layer stage1_unit1_bn2_scale
I1213 10:25:09.047065 25895 net.cpp:84] Creating Layer stage1_unit1_bn2_scale
I1213 10:25:09.047080 25895 net.cpp:406] stage1_unit1_bn2_scale <- stage1_unit1_bn2
I1213 10:25:09.047099 25895 net.cpp:367] stage1_unit1_bn2_scale -> stage1_unit1_bn2 (in-place)
I1213 10:25:09.047163 25895 layer_factory.hpp:77] Creating layer stage1_unit1_bn2_scale
I1213 10:25:09.047462 25895 net.cpp:122] Setting up stage1_unit1_bn2_scale
I1213 10:25:09.047488 25895 net.cpp:129] Top shape: 10 64 200 200 (25600000)
I1213 10:25:09.047504 25895 net.cpp:137] Memory required for data: 1131200040
I1213 10:25:09.047529 25895 layer_factory.hpp:77] Creating layer stage1_unit1_relu1
I1213 10:25:09.047549 25895 net.cpp:84] Creating Layer stage1_unit1_relu1
I1213 10:25:09.047581 25895 net.cpp:406] stage1_unit1_relu1 <- stage1_unit1_bn2
I1213 10:25:09.047600 25895 net.cpp:380] stage1_unit1_relu1 -> stage1_unit1_relu1
I1213 10:25:09.047766 25895 net.cpp:122] Setting up stage1_unit1_relu1
I1213 10:25:09.047796 25895 net.cpp:129] Top shape: 10 64 200 200 (25600000)
I1213 10:25:09.047811 25895 net.cpp:137] Memory required for data: 1233600040
I1213 10:25:09.047834 25895 layer_factory.hpp:77] Creating layer stage1_unit1_conv2
I1213 10:25:09.047858 25895 net.cpp:84] Creating Layer stage1_unit1_conv2
I1213 10:25:09.047875 25895 net.cpp:406] stage1_unit1_conv2 <- stage1_unit1_relu1
I1213 10:25:09.047895 25895 net.cpp:380] stage1_unit1_conv2 -> stage1_unit1_conv2
I1213 10:25:09.048842 25895 net.cpp:122] Setting up stage1_unit1_conv2
I1213 10:25:09.048868 25895 net.cpp:129] Top shape: 10 64 100 100 (6400000)
I1213 10:25:09.048885 25895 net.cpp:137] Memory required for data: 1259200040
I1213 10:25:09.048904 25895 layer_factory.hpp:77] Creating layer stage1_unit1_bn3
I1213 10:25:09.048924 25895 net.cpp:84] Creating Layer stage1_unit1_bn3
I1213 10:25:09.048940 25895 net.cpp:406] stage1_unit1_bn3 <- stage1_unit1_conv2
I1213 10:25:09.048959 25895 net.cpp:380] stage1_unit1_bn3 -> stage1_unit1_bn3
I1213 10:25:09.049253 25895 net.cpp:122] Setting up stage1_unit1_bn3
I1213 10:25:09.049278 25895 net.cpp:129] Top shape: 10 64 100 100 (6400000)
I1213 10:25:09.049293 25895 net.cpp:137] Memory required for data: 1284800040
I1213 10:25:09.049315 25895 layer_factory.hpp:77] Creating layer stage1_unit1_bn3_scale
I1213 10:25:09.049335 25895 net.cpp:84] Creating Layer stage1_unit1_bn3_scale
I1213 10:25:09.049350 25895 net.cpp:406] stage1_unit1_bn3_scale <- stage1_unit1_bn3
I1213 10:25:09.049368 25895 net.cpp:367] stage1_unit1_bn3_scale -> stage1_unit1_bn3 (in-place)
I1213 10:25:09.049433 25895 layer_factory.hpp:77] Creating layer stage1_unit1_bn3_scale
I1213 10:25:09.049625 25895 net.cpp:122] Setting up stage1_unit1_bn3_scale
I1213 10:25:09.049650 25895 net.cpp:129] Top shape: 10 64 100 100 (6400000)
I1213 10:25:09.049666 25895 net.cpp:137] Memory required for data: 1310400040
I1213 10:25:09.049687 25895 layer_factory.hpp:77] Creating layer stage1_unit1_conv1sc
I1213 10:25:09.049718 25895 net.cpp:84] Creating Layer stage1_unit1_conv1sc
I1213 10:25:09.049736 25895 net.cpp:406] stage1_unit1_conv1sc <- relu0_relu0_0_split_1
I1213 10:25:09.049755 25895 net.cpp:380] stage1_unit1_conv1sc -> stage1_unit1_conv1sc
I1213 10:25:09.050081 25895 net.cpp:122] Setting up stage1_unit1_conv1sc
I1213 10:25:09.050107 25895 net.cpp:129] Top shape: 10 64 100 100 (6400000)
I1213 10:25:09.050122 25895 net.cpp:137] Memory required for data: 1336000040
I1213 10:25:09.050140 25895 layer_factory.hpp:77] Creating layer stage1_unit1_sc
I1213 10:25:09.050161 25895 net.cpp:84] Creating Layer stage1_unit1_sc
I1213 10:25:09.050177 25895 net.cpp:406] stage1_unit1_sc <- stage1_unit1_conv1sc
I1213 10:25:09.050196 25895 net.cpp:380] stage1_unit1_sc -> stage1_unit1_sc
I1213 10:25:09.050495 25895 net.cpp:122] Setting up stage1_unit1_sc
I1213 10:25:09.050520 25895 net.cpp:129] Top shape: 10 64 100 100 (6400000)
I1213 10:25:09.050535 25895 net.cpp:137] Memory required for data: 1361600040
I1213 10:25:09.050559 25895 layer_factory.hpp:77] Creating layer stage1_unit1_sc_scale
I1213 10:25:09.050580 25895 net.cpp:84] Creating Layer stage1_unit1_sc_scale
I1213 10:25:09.050595 25895 net.cpp:406] stage1_unit1_sc_scale <- stage1_unit1_sc
I1213 10:25:09.050613 25895 net.cpp:367] stage1_unit1_sc_scale -> stage1_unit1_sc (in-place)
I1213 10:25:09.050685 25895 layer_factory.hpp:77] Creating layer stage1_unit1_sc_scale
I1213 10:25:09.052359 25895 net.cpp:122] Setting up stage1_unit1_sc_scale
I1213 10:25:09.052394 25895 net.cpp:129] Top shape: 10 64 100 100 (6400000)
I1213 10:25:09.052412 25895 net.cpp:137] Memory required for data: 1387200040
I1213 10:25:09.052433 25895 layer_factory.hpp:77] Creating layer _plus0
I1213 10:25:09.052455 25895 net.cpp:84] Creating Layer _plus0
I1213 10:25:09.052472 25895 net.cpp:406] _plus0 <- stage1_unit1_bn3
I1213 10:25:09.052501 25895 net.cpp:406] _plus0 <- stage1_unit1_sc
I1213 10:25:09.052521 25895 net.cpp:380] _plus0 -> _plus0
I1213 10:25:09.052577 25895 net.cpp:122] Setting up _plus0
I1213 10:25:09.052599 25895 net.cpp:129] Top shape: 10 64 100 100 (6400000)
I1213 10:25:09.052615 25895 net.cpp:137] Memory required for data: 1412800040
I1213 10:25:09.052630 25895 layer_factory.hpp:77] Creating layer _plus0__plus0_0_split
I1213 10:25:09.052660 25895 net.cpp:84] Creating Layer _plus0__plus0_0_split
I1213 10:25:09.052676 25895 net.cpp:406] _plus0__plus0_0_split <- _plus0
I1213 10:25:09.052696 25895 net.cpp:380] _plus0__plus0_0_split -> _plus0__plus0_0_split_0
I1213 10:25:09.052721 25895 net.cpp:380] _plus0__plus0_0_split -> _plus0__plus0_0_split_1
I1213 10:25:09.052783 25895 net.cpp:122] Setting up _plus0__plus0_0_split
I1213 10:25:09.052808 25895 net.cpp:129] Top shape: 10 64 100 100 (6400000)
I1213 10:25:09.052825 25895 net.cpp:129] Top shape: 10 64 100 100 (6400000)
I1213 10:25:09.052840 25895 net.cpp:137] Memory required for data: 1464000040
I1213 10:25:09.052856 25895 layer_factory.hpp:77] Creating layer stage1_unit2_bn1
I1213 10:25:09.052876 25895 net.cpp:84] Creating Layer stage1_unit2_bn1
I1213 10:25:09.052892 25895 net.cpp:406] stage1_unit2_bn1 <- _plus0__plus0_0_split_0
I1213 10:25:09.052911 25895 net.cpp:380] stage1_unit2_bn1 -> stage1_unit2_bn1
I1213 10:25:09.053215 25895 net.cpp:122] Setting up stage1_unit2_bn1
I1213 10:25:09.053239 25895 net.cpp:129] Top shape: 10 64 100 100 (6400000)
I1213 10:25:09.053256 25895 net.cpp:137] Memory required for data: 1489600040
I1213 10:25:09.053278 25895 layer_factory.hpp:77] Creating layer stage1_unit2_bn1_scale
I1213 10:25:09.053298 25895 net.cpp:84] Creating Layer stage1_unit2_bn1_scale
I1213 10:25:09.053314 25895 net.cpp:406] stage1_unit2_bn1_scale <- stage1_unit2_bn1
I1213 10:25:09.053333 25895 net.cpp:367] stage1_unit2_bn1_scale -> stage1_unit2_bn1 (in-place)
I1213 10:25:09.053400 25895 layer_factory.hpp:77] Creating layer stage1_unit2_bn1_scale
I1213 10:25:09.053589 25895 net.cpp:122] Setting up stage1_unit2_bn1_scale
I1213 10:25:09.053616 25895 net.cpp:129] Top shape: 10 64 100 100 (6400000)
I1213 10:25:09.053632 25895 net.cpp:137] Memory required for data: 1515200040
I1213 10:25:09.053658 25895 layer_factory.hpp:77] Creating layer stage1_unit2_conv1
I1213 10:25:09.053683 25895 net.cpp:84] Creating Layer stage1_unit2_conv1
I1213 10:25:09.053699 25895 net.cpp:406] stage1_unit2_conv1 <- stage1_unit2_bn1
I1213 10:25:09.053719 25895 net.cpp:380] stage1_unit2_conv1 -> stage1_unit2_conv1
I1213 10:25:09.054661 25895 net.cpp:122] Setting up stage1_unit2_conv1
I1213 10:25:09.054689 25895 net.cpp:129] Top shape: 10 64 100 100 (6400000)
I1213 10:25:09.054705 25895 net.cpp:137] Memory required for data: 1540800040
I1213 10:25:09.054733 25895 layer_factory.hpp:77] Creating layer stage1_unit2_bn2
I1213 10:25:09.054755 25895 net.cpp:84] Creating Layer stage1_unit2_bn2
I1213 10:25:09.054772 25895 net.cpp:406] stage1_unit2_bn2 <- stage1_unit2_conv1
I1213 10:25:09.054791 25895 net.cpp:380] stage1_unit2_bn2 -> stage1_unit2_bn2
I1213 10:25:09.055080 25895 net.cpp:122] Setting up stage1_unit2_bn2
I1213 10:25:09.055104 25895 net.cpp:129] Top shape: 10 64 100 100 (6400000)
I1213 10:25:09.055120 25895 net.cpp:137] Memory required for data: 1566400040
I1213 10:25:09.055143 25895 layer_factory.hpp:77] Creating layer stage1_unit2_bn2_scale
I1213 10:25:09.055163 25895 net.cpp:84] Creating Layer stage1_unit2_bn2_scale
I1213 10:25:09.055179 25895 net.cpp:406] stage1_unit2_bn2_scale <- stage1_unit2_bn2
I1213 10:25:09.055197 25895 net.cpp:367] stage1_unit2_bn2_scale -> stage1_unit2_bn2 (in-place)
I1213 10:25:09.055263 25895 layer_factory.hpp:77] Creating layer stage1_unit2_bn2_scale
I1213 10:25:09.055450 25895 net.cpp:122] Setting up stage1_unit2_bn2_scale
I1213 10:25:09.055474 25895 net.cpp:129] Top shape: 10 64 100 100 (6400000)
I1213 10:25:09.055490 25895 net.cpp:137] Memory required for data: 1592000040
I1213 10:25:09.055511 25895 layer_factory.hpp:77] Creating layer stage1_unit2_relu1
I1213 10:25:09.055531 25895 net.cpp:84] Creating Layer stage1_unit2_relu1
I1213 10:25:09.055557 25895 net.cpp:406] stage1_unit2_relu1 <- stage1_unit2_bn2
I1213 10:25:09.055577 25895 net.cpp:380] stage1_unit2_relu1 -> stage1_unit2_relu1
I1213 10:25:09.057008 25895 net.cpp:122] Setting up stage1_unit2_relu1
I1213 10:25:09.057044 25895 net.cpp:129] Top shape: 10 64 100 100 (6400000)
I1213 10:25:09.057060 25895 net.cpp:137] Memory required for data: 1617600040
I1213 10:25:09.057083 25895 layer_factory.hpp:77] Creating layer stage1_unit2_conv2
I1213 10:25:09.057111 25895 net.cpp:84] Creating Layer stage1_unit2_conv2
I1213 10:25:09.057127 25895 net.cpp:406] stage1_unit2_conv2 <- stage1_unit2_relu1
I1213 10:25:09.057148 25895 net.cpp:380] stage1_unit2_conv2 -> stage1_unit2_conv2
I1213 10:25:09.058096 25895 net.cpp:122] Setting up stage1_unit2_conv2
I1213 10:25:09.058123 25895 net.cpp:129] Top shape: 10 64 100 100 (6400000)
I1213 10:25:09.058138 25895 net.cpp:137] Memory required for data: 1643200040
I1213 10:25:09.058158 25895 layer_factory.hpp:77] Creating layer stage1_unit2_bn3
I1213 10:25:09.058178 25895 net.cpp:84] Creating Layer stage1_unit2_bn3
I1213 10:25:09.058194 25895 net.cpp:406] stage1_unit2_bn3 <- stage1_unit2_conv2
I1213 10:25:09.058214 25895 net.cpp:380] stage1_unit2_bn3 -> stage1_unit2_bn3
I1213 10:25:09.058526 25895 net.cpp:122] Setting up stage1_unit2_bn3
I1213 10:25:09.058550 25895 net.cpp:129] Top shape: 10 64 100 100 (6400000)
I1213 10:25:09.058567 25895 net.cpp:137] Memory required for data: 1668800040
I1213 10:25:09.058589 25895 layer_factory.hpp:77] Creating layer stage1_unit2_bn3_scale
I1213 10:25:09.058609 25895 net.cpp:84] Creating Layer stage1_unit2_bn3_scale
I1213 10:25:09.058624 25895 net.cpp:406] stage1_unit2_bn3_scale <- stage1_unit2_bn3
I1213 10:25:09.058643 25895 net.cpp:367] stage1_unit2_bn3_scale -> stage1_unit2_bn3 (in-place)
I1213 10:25:09.058734 25895 layer_factory.hpp:77] Creating layer stage1_unit2_bn3_scale
I1213 10:25:09.058931 25895 net.cpp:122] Setting up stage1_unit2_bn3_scale
I1213 10:25:09.058957 25895 net.cpp:129] Top shape: 10 64 100 100 (6400000)
I1213 10:25:09.058974 25895 net.cpp:137] Memory required for data: 1694400040
I1213 10:25:09.058995 25895 layer_factory.hpp:77] Creating layer _plus1
I1213 10:25:09.059013 25895 net.cpp:84] Creating Layer _plus1
I1213 10:25:09.059029 25895 net.cpp:406] _plus1 <- stage1_unit2_bn3
I1213 10:25:09.059047 25895 net.cpp:406] _plus1 <- _plus0__plus0_0_split_1
I1213 10:25:09.059067 25895 net.cpp:380] _plus1 -> _plus1
I1213 10:25:09.059114 25895 net.cpp:122] Setting up _plus1
I1213 10:25:09.059136 25895 net.cpp:129] Top shape: 10 64 100 100 (6400000)
I1213 10:25:09.059152 25895 net.cpp:137] Memory required for data: 1720000040
I1213 10:25:09.059176 25895 layer_factory.hpp:77] Creating layer _plus1__plus1_0_split
I1213 10:25:09.059196 25895 net.cpp:84] Creating Layer _plus1__plus1_0_split
I1213 10:25:09.059212 25895 net.cpp:406] _plus1__plus1_0_split <- _plus1
I1213 10:25:09.059232 25895 net.cpp:380] _plus1__plus1_0_split -> _plus1__plus1_0_split_0
I1213 10:25:09.059253 25895 net.cpp:380] _plus1__plus1_0_split -> _plus1__plus1_0_split_1
I1213 10:25:09.059315 25895 net.cpp:122] Setting up _plus1__plus1_0_split
I1213 10:25:09.059337 25895 net.cpp:129] Top shape: 10 64 100 100 (6400000)
I1213 10:25:09.059356 25895 net.cpp:129] Top shape: 10 64 100 100 (6400000)
I1213 10:25:09.059371 25895 net.cpp:137] Memory required for data: 1771200040
I1213 10:25:09.059387 25895 layer_factory.hpp:77] Creating layer stage2_unit1_bn1
I1213 10:25:09.059406 25895 net.cpp:84] Creating Layer stage2_unit1_bn1
I1213 10:25:09.059422 25895 net.cpp:406] stage2_unit1_bn1 <- _plus1__plus1_0_split_0
I1213 10:25:09.059442 25895 net.cpp:380] stage2_unit1_bn1 -> stage2_unit1_bn1
I1213 10:25:09.059972 25895 net.cpp:122] Setting up stage2_unit1_bn1
I1213 10:25:09.060004 25895 net.cpp:129] Top shape: 10 64 100 100 (6400000)
I1213 10:25:09.060021 25895 net.cpp:137] Memory required for data: 1796800040
I1213 10:25:09.060046 25895 layer_factory.hpp:77] Creating layer stage2_unit1_bn1_scale
I1213 10:25:09.060070 25895 net.cpp:84] Creating Layer stage2_unit1_bn1_scale
I1213 10:25:09.060097 25895 net.cpp:406] stage2_unit1_bn1_scale <- stage2_unit1_bn1
I1213 10:25:09.060127 25895 net.cpp:367] stage2_unit1_bn1_scale -> stage2_unit1_bn1 (in-place)
I1213 10:25:09.060204 25895 layer_factory.hpp:77] Creating layer stage2_unit1_bn1_scale
I1213 10:25:09.060396 25895 net.cpp:122] Setting up stage2_unit1_bn1_scale
I1213 10:25:09.060421 25895 net.cpp:129] Top shape: 10 64 100 100 (6400000)
I1213 10:25:09.060437 25895 net.cpp:137] Memory required for data: 1822400040
I1213 10:25:09.060472 25895 layer_factory.hpp:77] Creating layer stage2_unit1_conv1
I1213 10:25:09.060497 25895 net.cpp:84] Creating Layer stage2_unit1_conv1
I1213 10:25:09.060514 25895 net.cpp:406] stage2_unit1_conv1 <- stage2_unit1_bn1
I1213 10:25:09.060535 25895 net.cpp:380] stage2_unit1_conv1 -> stage2_unit1_conv1
I1213 10:25:09.062707 25895 net.cpp:122] Setting up stage2_unit1_conv1
I1213 10:25:09.062744 25895 net.cpp:129] Top shape: 10 128 100 100 (12800000)
I1213 10:25:09.062762 25895 net.cpp:137] Memory required for data: 1873600040
I1213 10:25:09.062781 25895 layer_factory.hpp:77] Creating layer stage2_unit1_bn2
I1213 10:25:09.062803 25895 net.cpp:84] Creating Layer stage2_unit1_bn2
I1213 10:25:09.062819 25895 net.cpp:406] stage2_unit1_bn2 <- stage2_unit1_conv1
I1213 10:25:09.062840 25895 net.cpp:380] stage2_unit1_bn2 -> stage2_unit1_bn2
I1213 10:25:09.063141 25895 net.cpp:122] Setting up stage2_unit1_bn2
I1213 10:25:09.063167 25895 net.cpp:129] Top shape: 10 128 100 100 (12800000)
I1213 10:25:09.063182 25895 net.cpp:137] Memory required for data: 1924800040
I1213 10:25:09.063205 25895 layer_factory.hpp:77] Creating layer stage2_unit1_bn2_scale
I1213 10:25:09.063226 25895 net.cpp:84] Creating Layer stage2_unit1_bn2_scale
I1213 10:25:09.063242 25895 net.cpp:406] stage2_unit1_bn2_scale <- stage2_unit1_bn2
I1213 10:25:09.063261 25895 net.cpp:367] stage2_unit1_bn2_scale -> stage2_unit1_bn2 (in-place)
I1213 10:25:09.063328 25895 layer_factory.hpp:77] Creating layer stage2_unit1_bn2_scale
I1213 10:25:09.063508 25895 net.cpp:122] Setting up stage2_unit1_bn2_scale
I1213 10:25:09.063531 25895 net.cpp:129] Top shape: 10 128 100 100 (12800000)
I1213 10:25:09.063546 25895 net.cpp:137] Memory required for data: 1976000040
I1213 10:25:09.063567 25895 layer_factory.hpp:77] Creating layer stage2_unit1_relu1
I1213 10:25:09.063601 25895 net.cpp:84] Creating Layer stage2_unit1_relu1
I1213 10:25:09.063616 25895 net.cpp:406] stage2_unit1_relu1 <- stage2_unit1_bn2
I1213 10:25:09.063635 25895 net.cpp:380] stage2_unit1_relu1 -> stage2_unit1_relu1
I1213 10:25:09.063805 25895 net.cpp:122] Setting up stage2_unit1_relu1
I1213 10:25:09.063835 25895 net.cpp:129] Top shape: 10 128 100 100 (12800000)
I1213 10:25:09.063851 25895 net.cpp:137] Memory required for data: 2027200040
I1213 10:25:09.063868 25895 layer_factory.hpp:77] Creating layer stage2_unit1_conv2
I1213 10:25:09.063891 25895 net.cpp:84] Creating Layer stage2_unit1_conv2
I1213 10:25:09.063908 25895 net.cpp:406] stage2_unit1_conv2 <- stage2_unit1_relu1
I1213 10:25:09.063930 25895 net.cpp:380] stage2_unit1_conv2 -> stage2_unit1_conv2
I1213 10:25:09.066879 25895 net.cpp:122] Setting up stage2_unit1_conv2
I1213 10:25:09.066906 25895 net.cpp:129] Top shape: 10 128 50 50 (3200000)
I1213 10:25:09.066922 25895 net.cpp:137] Memory required for data: 2040000040
I1213 10:25:09.066942 25895 layer_factory.hpp:77] Creating layer stage2_unit1_bn3
I1213 10:25:09.066962 25895 net.cpp:84] Creating Layer stage2_unit1_bn3
I1213 10:25:09.066978 25895 net.cpp:406] stage2_unit1_bn3 <- stage2_unit1_conv2
I1213 10:25:09.066998 25895 net.cpp:380] stage2_unit1_bn3 -> stage2_unit1_bn3
I1213 10:25:09.067338 25895 net.cpp:122] Setting up stage2_unit1_bn3
I1213 10:25:09.067365 25895 net.cpp:129] Top shape: 10 128 50 50 (3200000)
I1213 10:25:09.067381 25895 net.cpp:137] Memory required for data: 2052800040
I1213 10:25:09.067405 25895 layer_factory.hpp:77] Creating layer stage2_unit1_bn3_scale
I1213 10:25:09.067425 25895 net.cpp:84] Creating Layer stage2_unit1_bn3_scale
I1213 10:25:09.067452 25895 net.cpp:406] stage2_unit1_bn3_scale <- stage2_unit1_bn3
I1213 10:25:09.067472 25895 net.cpp:367] stage2_unit1_bn3_scale -> stage2_unit1_bn3 (in-place)
I1213 10:25:09.067541 25895 layer_factory.hpp:77] Creating layer stage2_unit1_bn3_scale
I1213 10:25:09.067708 25895 net.cpp:122] Setting up stage2_unit1_bn3_scale
I1213 10:25:09.067731 25895 net.cpp:129] Top shape: 10 128 50 50 (3200000)
I1213 10:25:09.067746 25895 net.cpp:137] Memory required for data: 2065600040
I1213 10:25:09.067775 25895 layer_factory.hpp:77] Creating layer stage2_unit1_conv1sc
I1213 10:25:09.067800 25895 net.cpp:84] Creating Layer stage2_unit1_conv1sc
I1213 10:25:09.067816 25895 net.cpp:406] stage2_unit1_conv1sc <- _plus1__plus1_0_split_1
I1213 10:25:09.067836 25895 net.cpp:380] stage2_unit1_conv1sc -> stage2_unit1_conv1sc
I1213 10:25:09.068254 25895 net.cpp:122] Setting up stage2_unit1_conv1sc
I1213 10:25:09.068279 25895 net.cpp:129] Top shape: 10 128 50 50 (3200000)
I1213 10:25:09.068295 25895 net.cpp:137] Memory required for data: 2078400040
I1213 10:25:09.068312 25895 layer_factory.hpp:77] Creating layer stage2_unit1_sc
I1213 10:25:09.068332 25895 net.cpp:84] Creating Layer stage2_unit1_sc
I1213 10:25:09.068348 25895 net.cpp:406] stage2_unit1_sc <- stage2_unit1_conv1sc
I1213 10:25:09.068367 25895 net.cpp:380] stage2_unit1_sc -> stage2_unit1_sc
I1213 10:25:09.068653 25895 net.cpp:122] Setting up stage2_unit1_sc
I1213 10:25:09.068677 25895 net.cpp:129] Top shape: 10 128 50 50 (3200000)
I1213 10:25:09.068693 25895 net.cpp:137] Memory required for data: 2091200040
I1213 10:25:09.068724 25895 layer_factory.hpp:77] Creating layer stage2_unit1_sc_scale
I1213 10:25:09.068744 25895 net.cpp:84] Creating Layer stage2_unit1_sc_scale
I1213 10:25:09.068760 25895 net.cpp:406] stage2_unit1_sc_scale <- stage2_unit1_sc
I1213 10:25:09.068779 25895 net.cpp:367] stage2_unit1_sc_scale -> stage2_unit1_sc (in-place)
I1213 10:25:09.068845 25895 layer_factory.hpp:77] Creating layer stage2_unit1_sc_scale
I1213 10:25:09.069007 25895 net.cpp:122] Setting up stage2_unit1_sc_scale
I1213 10:25:09.069031 25895 net.cpp:129] Top shape: 10 128 50 50 (3200000)
I1213 10:25:09.069046 25895 net.cpp:137] Memory required for data: 2104000040
I1213 10:25:09.069067 25895 layer_factory.hpp:77] Creating layer _plus2
I1213 10:25:09.069087 25895 net.cpp:84] Creating Layer _plus2
I1213 10:25:09.069103 25895 net.cpp:406] _plus2 <- stage2_unit1_bn3
I1213 10:25:09.069120 25895 net.cpp:406] _plus2 <- stage2_unit1_sc
I1213 10:25:09.069140 25895 net.cpp:380] _plus2 -> _plus2
I1213 10:25:09.069187 25895 net.cpp:122] Setting up _plus2
I1213 10:25:09.069209 25895 net.cpp:129] Top shape: 10 128 50 50 (3200000)
I1213 10:25:09.069224 25895 net.cpp:137] Memory required for data: 2116800040
I1213 10:25:09.069250 25895 layer_factory.hpp:77] Creating layer _plus2__plus2_0_split
I1213 10:25:09.069270 25895 net.cpp:84] Creating Layer _plus2__plus2_0_split
I1213 10:25:09.069286 25895 net.cpp:406] _plus2__plus2_0_split <- _plus2
I1213 10:25:09.069306 25895 net.cpp:380] _plus2__plus2_0_split -> _plus2__plus2_0_split_0
I1213 10:25:09.069327 25895 net.cpp:380] _plus2__plus2_0_split -> _plus2__plus2_0_split_1
I1213 10:25:09.069389 25895 net.cpp:122] Setting up _plus2__plus2_0_split
I1213 10:25:09.069412 25895 net.cpp:129] Top shape: 10 128 50 50 (3200000)
I1213 10:25:09.069432 25895 net.cpp:129] Top shape: 10 128 50 50 (3200000)
I1213 10:25:09.069447 25895 net.cpp:137] Memory required for data: 2142400040
I1213 10:25:09.069461 25895 layer_factory.hpp:77] Creating layer stage2_unit2_bn1
I1213 10:25:09.069483 25895 net.cpp:84] Creating Layer stage2_unit2_bn1
I1213 10:25:09.069497 25895 net.cpp:406] stage2_unit2_bn1 <- _plus2__plus2_0_split_0
I1213 10:25:09.069517 25895 net.cpp:380] stage2_unit2_bn1 -> stage2_unit2_bn1
I1213 10:25:09.069797 25895 net.cpp:122] Setting up stage2_unit2_bn1
I1213 10:25:09.069821 25895 net.cpp:129] Top shape: 10 128 50 50 (3200000)
I1213 10:25:09.069836 25895 net.cpp:137] Memory required for data: 2155200040
I1213 10:25:09.069859 25895 layer_factory.hpp:77] Creating layer stage2_unit2_bn1_scale
I1213 10:25:09.069890 25895 net.cpp:84] Creating Layer stage2_unit2_bn1_scale
I1213 10:25:09.069906 25895 net.cpp:406] stage2_unit2_bn1_scale <- stage2_unit2_bn1
I1213 10:25:09.069924 25895 net.cpp:367] stage2_unit2_bn1_scale -> stage2_unit2_bn1 (in-place)
I1213 10:25:09.069990 25895 layer_factory.hpp:77] Creating layer stage2_unit2_bn1_scale
I1213 10:25:09.070152 25895 net.cpp:122] Setting up stage2_unit2_bn1_scale
I1213 10:25:09.070178 25895 net.cpp:129] Top shape: 10 128 50 50 (3200000)
I1213 10:25:09.070194 25895 net.cpp:137] Memory required for data: 2168000040
I1213 10:25:09.070222 25895 layer_factory.hpp:77] Creating layer stage2_unit2_conv1
I1213 10:25:09.070246 25895 net.cpp:84] Creating Layer stage2_unit2_conv1
I1213 10:25:09.070262 25895 net.cpp:406] stage2_unit2_conv1 <- stage2_unit2_bn1
I1213 10:25:09.070282 25895 net.cpp:380] stage2_unit2_conv1 -> stage2_unit2_conv1
I1213 10:25:09.080893 25895 net.cpp:122] Setting up stage2_unit2_conv1
I1213 10:25:09.080942 25895 net.cpp:129] Top shape: 10 128 50 50 (3200000)
I1213 10:25:09.080965 25895 net.cpp:137] Memory required for data: 2180800040
I1213 10:25:09.080987 25895 layer_factory.hpp:77] Creating layer stage2_unit2_bn2
I1213 10:25:09.081010 25895 net.cpp:84] Creating Layer stage2_unit2_bn2
I1213 10:25:09.081029 25895 net.cpp:406] stage2_unit2_bn2 <- stage2_unit2_conv1
I1213 10:25:09.081053 25895 net.cpp:380] stage2_unit2_bn2 -> stage2_unit2_bn2
I1213 10:25:09.081367 25895 net.cpp:122] Setting up stage2_unit2_bn2
I1213 10:25:09.081403 25895 net.cpp:129] Top shape: 10 128 50 50 (3200000)
I1213 10:25:09.081421 25895 net.cpp:137] Memory required for data: 2193600040
I1213 10:25:09.081446 25895 layer_factory.hpp:77] Creating layer stage2_unit2_bn2_scale
I1213 10:25:09.081468 25895 net.cpp:84] Creating Layer stage2_unit2_bn2_scale
I1213 10:25:09.081485 25895 net.cpp:406] stage2_unit2_bn2_scale <- stage2_unit2_bn2
I1213 10:25:09.081506 25895 net.cpp:367] stage2_unit2_bn2_scale -> stage2_unit2_bn2 (in-place)
I1213 10:25:09.081579 25895 layer_factory.hpp:77] Creating layer stage2_unit2_bn2_scale
I1213 10:25:09.081760 25895 net.cpp:122] Setting up stage2_unit2_bn2_scale
I1213 10:25:09.081791 25895 net.cpp:129] Top shape: 10 128 50 50 (3200000)
I1213 10:25:09.081807 25895 net.cpp:137] Memory required for data: 2206400040
I1213 10:25:09.081830 25895 layer_factory.hpp:77] Creating layer stage2_unit2_relu1
I1213 10:25:09.081861 25895 net.cpp:84] Creating Layer stage2_unit2_relu1
I1213 10:25:09.081878 25895 net.cpp:406] stage2_unit2_relu1 <- stage2_unit2_bn2
I1213 10:25:09.081898 25895 net.cpp:380] stage2_unit2_relu1 -> stage2_unit2_relu1
I1213 10:25:09.082383 25895 net.cpp:122] Setting up stage2_unit2_relu1
I1213 10:25:09.082423 25895 net.cpp:129] Top shape: 10 128 50 50 (3200000)
I1213 10:25:09.082443 25895 net.cpp:137] Memory required for data: 2219200040
I1213 10:25:09.082461 25895 layer_factory.hpp:77] Creating layer stage2_unit2_conv2
I1213 10:25:09.082489 25895 net.cpp:84] Creating Layer stage2_unit2_conv2
I1213 10:25:09.082507 25895 net.cpp:406] stage2_unit2_conv2 <- stage2_unit2_relu1
I1213 10:25:09.082530 25895 net.cpp:380] stage2_unit2_conv2 -> stage2_unit2_conv2
I1213 10:25:09.085672 25895 net.cpp:122] Setting up stage2_unit2_conv2
I1213 10:25:09.085712 25895 net.cpp:129] Top shape: 10 128 50 50 (3200000)
I1213 10:25:09.085731 25895 net.cpp:137] Memory required for data: 2232000040
I1213 10:25:09.085752 25895 layer_factory.hpp:77] Creating layer stage2_unit2_bn3
I1213 10:25:09.085774 25895 net.cpp:84] Creating Layer stage2_unit2_bn3
I1213 10:25:09.085793 25895 net.cpp:406] stage2_unit2_bn3 <- stage2_unit2_conv2
I1213 10:25:09.085814 25895 net.cpp:380] stage2_unit2_bn3 -> stage2_unit2_bn3
I1213 10:25:09.086122 25895 net.cpp:122] Setting up stage2_unit2_bn3
I1213 10:25:09.086150 25895 net.cpp:129] Top shape: 10 128 50 50 (3200000)
I1213 10:25:09.086167 25895 net.cpp:137] Memory required for data: 2244800040
I1213 10:25:09.086192 25895 layer_factory.hpp:77] Creating layer stage2_unit2_bn3_scale
I1213 10:25:09.086215 25895 net.cpp:84] Creating Layer stage2_unit2_bn3_scale
I1213 10:25:09.086243 25895 net.cpp:406] stage2_unit2_bn3_scale <- stage2_unit2_bn3
I1213 10:25:09.086264 25895 net.cpp:367] stage2_unit2_bn3_scale -> stage2_unit2_bn3 (in-place)
I1213 10:25:09.086340 25895 layer_factory.hpp:77] Creating layer stage2_unit2_bn3_scale
I1213 10:25:09.086521 25895 net.cpp:122] Setting up stage2_unit2_bn3_scale
I1213 10:25:09.086547 25895 net.cpp:129] Top shape: 10 128 50 50 (3200000)
I1213 10:25:09.086565 25895 net.cpp:137] Memory required for data: 2257600040
I1213 10:25:09.086597 25895 layer_factory.hpp:77] Creating layer _plus3
I1213 10:25:09.086619 25895 net.cpp:84] Creating Layer _plus3
I1213 10:25:09.086637 25895 net.cpp:406] _plus3 <- stage2_unit2_bn3
I1213 10:25:09.086661 25895 net.cpp:406] _plus3 <- _plus2__plus2_0_split_1
I1213 10:25:09.086685 25895 net.cpp:380] _plus3 -> _plus3
I1213 10:25:09.086738 25895 net.cpp:122] Setting up _plus3
I1213 10:25:09.086762 25895 net.cpp:129] Top shape: 10 128 50 50 (3200000)
I1213 10:25:09.086778 25895 net.cpp:137] Memory required for data: 2270400040
I1213 10:25:09.086796 25895 layer_factory.hpp:77] Creating layer _plus3__plus3_0_split
I1213 10:25:09.086814 25895 net.cpp:84] Creating Layer _plus3__plus3_0_split
I1213 10:25:09.086830 25895 net.cpp:406] _plus3__plus3_0_split <- _plus3
I1213 10:25:09.086853 25895 net.cpp:380] _plus3__plus3_0_split -> _plus3__plus3_0_split_0
I1213 10:25:09.086879 25895 net.cpp:380] _plus3__plus3_0_split -> _plus3__plus3_0_split_1
I1213 10:25:09.086951 25895 net.cpp:122] Setting up _plus3__plus3_0_split
I1213 10:25:09.086975 25895 net.cpp:129] Top shape: 10 128 50 50 (3200000)
I1213 10:25:09.086995 25895 net.cpp:129] Top shape: 10 128 50 50 (3200000)
I1213 10:25:09.087010 25895 net.cpp:137] Memory required for data: 2296000040
I1213 10:25:09.087026 25895 layer_factory.hpp:77] Creating layer stage3_unit1_bn1
I1213 10:25:09.087047 25895 net.cpp:84] Creating Layer stage3_unit1_bn1
I1213 10:25:09.087064 25895 net.cpp:406] stage3_unit1_bn1 <- _plus3__plus3_0_split_0
I1213 10:25:09.087085 25895 net.cpp:380] stage3_unit1_bn1 -> stage3_unit1_bn1
I1213 10:25:09.087393 25895 net.cpp:122] Setting up stage3_unit1_bn1
I1213 10:25:09.087421 25895 net.cpp:129] Top shape: 10 128 50 50 (3200000)
I1213 10:25:09.087440 25895 net.cpp:137] Memory required for data: 2308800040
I1213 10:25:09.087463 25895 layer_factory.hpp:77] Creating layer stage3_unit1_bn1_scale
I1213 10:25:09.087496 25895 net.cpp:84] Creating Layer stage3_unit1_bn1_scale
I1213 10:25:09.087513 25895 net.cpp:406] stage3_unit1_bn1_scale <- stage3_unit1_bn1
I1213 10:25:09.087533 25895 net.cpp:367] stage3_unit1_bn1_scale -> stage3_unit1_bn1 (in-place)
I1213 10:25:09.087605 25895 layer_factory.hpp:77] Creating layer stage3_unit1_bn1_scale
I1213 10:25:09.087782 25895 net.cpp:122] Setting up stage3_unit1_bn1_scale
I1213 10:25:09.087807 25895 net.cpp:129] Top shape: 10 128 50 50 (3200000)
I1213 10:25:09.087824 25895 net.cpp:137] Memory required for data: 2321600040
I1213 10:25:09.087846 25895 layer_factory.hpp:77] Creating layer stage3_unit1_conv1
I1213 10:25:09.087873 25895 net.cpp:84] Creating Layer stage3_unit1_conv1
I1213 10:25:09.087893 25895 net.cpp:406] stage3_unit1_conv1 <- stage3_unit1_bn1
I1213 10:25:09.087914 25895 net.cpp:380] stage3_unit1_conv1 -> stage3_unit1_conv1
I1213 10:25:09.104782 25895 net.cpp:122] Setting up stage3_unit1_conv1
I1213 10:25:09.104840 25895 net.cpp:129] Top shape: 10 256 50 50 (6400000)
I1213 10:25:09.104857 25895 net.cpp:137] Memory required for data: 2347200040
I1213 10:25:09.104878 25895 layer_factory.hpp:77] Creating layer stage3_unit1_bn2
I1213 10:25:09.104902 25895 net.cpp:84] Creating Layer stage3_unit1_bn2
I1213 10:25:09.104919 25895 net.cpp:406] stage3_unit1_bn2 <- stage3_unit1_conv1
I1213 10:25:09.104940 25895 net.cpp:380] stage3_unit1_bn2 -> stage3_unit1_bn2
I1213 10:25:09.105235 25895 net.cpp:122] Setting up stage3_unit1_bn2
I1213 10:25:09.105260 25895 net.cpp:129] Top shape: 10 256 50 50 (6400000)
I1213 10:25:09.105275 25895 net.cpp:137] Memory required for data: 2372800040
I1213 10:25:09.105298 25895 layer_factory.hpp:77] Creating layer stage3_unit1_bn2_scale
I1213 10:25:09.105336 25895 net.cpp:84] Creating Layer stage3_unit1_bn2_scale
I1213 10:25:09.105352 25895 net.cpp:406] stage3_unit1_bn2_scale <- stage3_unit1_bn2
I1213 10:25:09.105371 25895 net.cpp:367] stage3_unit1_bn2_scale -> stage3_unit1_bn2 (in-place)
I1213 10:25:09.105442 25895 layer_factory.hpp:77] Creating layer stage3_unit1_bn2_scale
I1213 10:25:09.105612 25895 net.cpp:122] Setting up stage3_unit1_bn2_scale
I1213 10:25:09.105635 25895 net.cpp:129] Top shape: 10 256 50 50 (6400000)
I1213 10:25:09.105650 25895 net.cpp:137] Memory required for data: 2398400040
I1213 10:25:09.105684 25895 layer_factory.hpp:77] Creating layer stage3_unit1_relu1
I1213 10:25:09.105705 25895 net.cpp:84] Creating Layer stage3_unit1_relu1
I1213 10:25:09.105721 25895 net.cpp:406] stage3_unit1_relu1 <- stage3_unit1_bn2
I1213 10:25:09.105739 25895 net.cpp:380] stage3_unit1_relu1 -> stage3_unit1_relu1
I1213 10:25:09.105939 25895 net.cpp:122] Setting up stage3_unit1_relu1
I1213 10:25:09.105968 25895 net.cpp:129] Top shape: 10 256 50 50 (6400000)
I1213 10:25:09.105983 25895 net.cpp:137] Memory required for data: 2424000040
I1213 10:25:09.105999 25895 layer_factory.hpp:77] Creating layer stage3_unit1_conv2
I1213 10:25:09.106024 25895 net.cpp:84] Creating Layer stage3_unit1_conv2
I1213 10:25:09.106041 25895 net.cpp:406] stage3_unit1_conv2 <- stage3_unit1_relu1
I1213 10:25:09.106061 25895 net.cpp:380] stage3_unit1_conv2 -> stage3_unit1_conv2
I1213 10:25:09.132067 25895 net.cpp:122] Setting up stage3_unit1_conv2
I1213 10:25:09.132118 25895 net.cpp:129] Top shape: 10 256 25 25 (1600000)
I1213 10:25:09.132127 25895 net.cpp:137] Memory required for data: 2430400040
I1213 10:25:09.132145 25895 layer_factory.hpp:77] Creating layer stage3_unit1_bn3
I1213 10:25:09.132171 25895 net.cpp:84] Creating Layer stage3_unit1_bn3
I1213 10:25:09.132181 25895 net.cpp:406] stage3_unit1_bn3 <- stage3_unit1_conv2
I1213 10:25:09.132197 25895 net.cpp:380] stage3_unit1_bn3 -> stage3_unit1_bn3
I1213 10:25:09.132495 25895 net.cpp:122] Setting up stage3_unit1_bn3
I1213 10:25:09.132508 25895 net.cpp:129] Top shape: 10 256 25 25 (1600000)
I1213 10:25:09.132515 25895 net.cpp:137] Memory required for data: 2436800040
I1213 10:25:09.132531 25895 layer_factory.hpp:77] Creating layer stage3_unit1_bn3_scale
I1213 10:25:09.132570 25895 net.cpp:84] Creating Layer stage3_unit1_bn3_scale
I1213 10:25:09.132578 25895 net.cpp:406] stage3_unit1_bn3_scale <- stage3_unit1_bn3
I1213 10:25:09.132587 25895 net.cpp:367] stage3_unit1_bn3_scale -> stage3_unit1_bn3 (in-place)
I1213 10:25:09.132655 25895 layer_factory.hpp:77] Creating layer stage3_unit1_bn3_scale
I1213 10:25:09.132808 25895 net.cpp:122] Setting up stage3_unit1_bn3_scale
I1213 10:25:09.132820 25895 net.cpp:129] Top shape: 10 256 25 25 (1600000)
I1213 10:25:09.132827 25895 net.cpp:137] Memory required for data: 2443200040
I1213 10:25:09.132851 25895 layer_factory.hpp:77] Creating layer stage3_unit1_conv1sc
I1213 10:25:09.132870 25895 net.cpp:84] Creating Layer stage3_unit1_conv1sc
I1213 10:25:09.132879 25895 net.cpp:406] stage3_unit1_conv1sc <- _plus3__plus3_0_split_1
I1213 10:25:09.132890 25895 net.cpp:380] stage3_unit1_conv1sc -> stage3_unit1_conv1sc
I1213 10:25:09.133807 25895 net.cpp:122] Setting up stage3_unit1_conv1sc
I1213 10:25:09.133828 25895 net.cpp:129] Top shape: 10 256 25 25 (1600000)
I1213 10:25:09.133836 25895 net.cpp:137] Memory required for data: 2449600040
I1213 10:25:09.133849 25895 layer_factory.hpp:77] Creating layer stage3_unit1_sc
I1213 10:25:09.133862 25895 net.cpp:84] Creating Layer stage3_unit1_sc
I1213 10:25:09.133867 25895 net.cpp:406] stage3_unit1_sc <- stage3_unit1_conv1sc
I1213 10:25:09.133874 25895 net.cpp:380] stage3_unit1_sc -> stage3_unit1_sc
I1213 10:25:09.134186 25895 net.cpp:122] Setting up stage3_unit1_sc
I1213 10:25:09.134205 25895 net.cpp:129] Top shape: 10 256 25 25 (1600000)
I1213 10:25:09.134213 25895 net.cpp:137] Memory required for data: 2456000040
I1213 10:25:09.134227 25895 layer_factory.hpp:77] Creating layer stage3_unit1_sc_scale
I1213 10:25:09.134241 25895 net.cpp:84] Creating Layer stage3_unit1_sc_scale
I1213 10:25:09.134249 25895 net.cpp:406] stage3_unit1_sc_scale <- stage3_unit1_sc
I1213 10:25:09.134259 25895 net.cpp:367] stage3_unit1_sc_scale -> stage3_unit1_sc (in-place)
I1213 10:25:09.134326 25895 layer_factory.hpp:77] Creating layer stage3_unit1_sc_scale
I1213 10:25:09.134486 25895 net.cpp:122] Setting up stage3_unit1_sc_scale
I1213 10:25:09.134505 25895 net.cpp:129] Top shape: 10 256 25 25 (1600000)
I1213 10:25:09.134513 25895 net.cpp:137] Memory required for data: 2462400040
I1213 10:25:09.134539 25895 layer_factory.hpp:77] Creating layer _plus4
I1213 10:25:09.134555 25895 net.cpp:84] Creating Layer _plus4
I1213 10:25:09.134564 25895 net.cpp:406] _plus4 <- stage3_unit1_bn3
I1213 10:25:09.134574 25895 net.cpp:406] _plus4 <- stage3_unit1_sc
I1213 10:25:09.134586 25895 net.cpp:380] _plus4 -> _plus4
I1213 10:25:09.134631 25895 net.cpp:122] Setting up _plus4
I1213 10:25:09.134646 25895 net.cpp:129] Top shape: 10 256 25 25 (1600000)
I1213 10:25:09.134660 25895 net.cpp:137] Memory required for data: 2468800040
I1213 10:25:09.134667 25895 layer_factory.hpp:77] Creating layer _plus4__plus4_0_split
I1213 10:25:09.134683 25895 net.cpp:84] Creating Layer _plus4__plus4_0_split
I1213 10:25:09.134692 25895 net.cpp:406] _plus4__plus4_0_split <- _plus4
I1213 10:25:09.134704 25895 net.cpp:380] _plus4__plus4_0_split -> _plus4__plus4_0_split_0
I1213 10:25:09.134719 25895 net.cpp:380] _plus4__plus4_0_split -> _plus4__plus4_0_split_1
I1213 10:25:09.134774 25895 net.cpp:122] Setting up _plus4__plus4_0_split
I1213 10:25:09.134785 25895 net.cpp:129] Top shape: 10 256 25 25 (1600000)
I1213 10:25:09.134795 25895 net.cpp:129] Top shape: 10 256 25 25 (1600000)
I1213 10:25:09.134802 25895 net.cpp:137] Memory required for data: 2481600040
I1213 10:25:09.134809 25895 layer_factory.hpp:77] Creating layer stage3_unit2_bn1
I1213 10:25:09.134822 25895 net.cpp:84] Creating Layer stage3_unit2_bn1
I1213 10:25:09.134831 25895 net.cpp:406] stage3_unit2_bn1 <- _plus4__plus4_0_split_0
I1213 10:25:09.134843 25895 net.cpp:380] stage3_unit2_bn1 -> stage3_unit2_bn1
I1213 10:25:09.135140 25895 net.cpp:122] Setting up stage3_unit2_bn1
I1213 10:25:09.135159 25895 net.cpp:129] Top shape: 10 256 25 25 (1600000)
I1213 10:25:09.135167 25895 net.cpp:137] Memory required for data: 2488000040
I1213 10:25:09.135195 25895 layer_factory.hpp:77] Creating layer stage3_unit2_bn1_scale
I1213 10:25:09.135210 25895 net.cpp:84] Creating Layer stage3_unit2_bn1_scale
I1213 10:25:09.135219 25895 net.cpp:406] stage3_unit2_bn1_scale <- stage3_unit2_bn1
I1213 10:25:09.135231 25895 net.cpp:367] stage3_unit2_bn1_scale -> stage3_unit2_bn1 (in-place)
I1213 10:25:09.135298 25895 layer_factory.hpp:77] Creating layer stage3_unit2_bn1_scale
I1213 10:25:09.135468 25895 net.cpp:122] Setting up stage3_unit2_bn1_scale
I1213 10:25:09.135488 25895 net.cpp:129] Top shape: 10 256 25 25 (1600000)
I1213 10:25:09.135495 25895 net.cpp:137] Memory required for data: 2494400040
I1213 10:25:09.135509 25895 layer_factory.hpp:77] Creating layer stage3_unit2_conv1
I1213 10:25:09.135529 25895 net.cpp:84] Creating Layer stage3_unit2_conv1
I1213 10:25:09.135540 25895 net.cpp:406] stage3_unit2_conv1 <- stage3_unit2_bn1
I1213 10:25:09.135551 25895 net.cpp:380] stage3_unit2_conv1 -> stage3_unit2_conv1
I1213 10:25:09.149513 25895 net.cpp:122] Setting up stage3_unit2_conv1
I1213 10:25:09.149569 25895 net.cpp:129] Top shape: 10 256 25 25 (1600000)
I1213 10:25:09.149576 25895 net.cpp:137] Memory required for data: 2500800040
I1213 10:25:09.149596 25895 layer_factory.hpp:77] Creating layer stage3_unit2_bn2
I1213 10:25:09.149619 25895 net.cpp:84] Creating Layer stage3_unit2_bn2
I1213 10:25:09.149629 25895 net.cpp:406] stage3_unit2_bn2 <- stage3_unit2_conv1
I1213 10:25:09.149646 25895 net.cpp:380] stage3_unit2_bn2 -> stage3_unit2_bn2
I1213 10:25:09.149950 25895 net.cpp:122] Setting up stage3_unit2_bn2
I1213 10:25:09.149963 25895 net.cpp:129] Top shape: 10 256 25 25 (1600000)
I1213 10:25:09.149971 25895 net.cpp:137] Memory required for data: 2507200040
I1213 10:25:09.149987 25895 layer_factory.hpp:77] Creating layer stage3_unit2_bn2_scale
I1213 10:25:09.149999 25895 net.cpp:84] Creating Layer stage3_unit2_bn2_scale
I1213 10:25:09.150008 25895 net.cpp:406] stage3_unit2_bn2_scale <- stage3_unit2_bn2
I1213 10:25:09.150018 25895 net.cpp:367] stage3_unit2_bn2_scale -> stage3_unit2_bn2 (in-place)
I1213 10:25:09.150089 25895 layer_factory.hpp:77] Creating layer stage3_unit2_bn2_scale
I1213 10:25:09.150241 25895 net.cpp:122] Setting up stage3_unit2_bn2_scale
I1213 10:25:09.150254 25895 net.cpp:129] Top shape: 10 256 25 25 (1600000)
I1213 10:25:09.150262 25895 net.cpp:137] Memory required for data: 2513600040
I1213 10:25:09.150290 25895 layer_factory.hpp:77] Creating layer stage3_unit2_relu1
I1213 10:25:09.150303 25895 net.cpp:84] Creating Layer stage3_unit2_relu1
I1213 10:25:09.150310 25895 net.cpp:406] stage3_unit2_relu1 <- stage3_unit2_bn2
I1213 10:25:09.150321 25895 net.cpp:380] stage3_unit2_relu1 -> stage3_unit2_relu1
I1213 10:25:09.151044 25895 net.cpp:122] Setting up stage3_unit2_relu1
I1213 10:25:09.151067 25895 net.cpp:129] Top shape: 10 256 25 25 (1600000)
I1213 10:25:09.151073 25895 net.cpp:137] Memory required for data: 2520000040
I1213 10:25:09.151082 25895 layer_factory.hpp:77] Creating layer stage3_unit2_conv2
I1213 10:25:09.151101 25895 net.cpp:84] Creating Layer stage3_unit2_conv2
I1213 10:25:09.151109 25895 net.cpp:406] stage3_unit2_conv2 <- stage3_unit2_relu1
I1213 10:25:09.151127 25895 net.cpp:380] stage3_unit2_conv2 -> stage3_unit2_conv2
I1213 10:25:09.164608 25895 net.cpp:122] Setting up stage3_unit2_conv2
I1213 10:25:09.164646 25895 net.cpp:129] Top shape: 10 256 25 25 (1600000)
I1213 10:25:09.164652 25895 net.cpp:137] Memory required for data: 2526400040
I1213 10:25:09.164669 25895 layer_factory.hpp:77] Creating layer stage3_unit2_bn3
I1213 10:25:09.164686 25895 net.cpp:84] Creating Layer stage3_unit2_bn3
I1213 10:25:09.164695 25895 net.cpp:406] stage3_unit2_bn3 <- stage3_unit2_conv2
I1213 10:25:09.164708 25895 net.cpp:380] stage3_unit2_bn3 -> stage3_unit2_bn3
I1213 10:25:09.164985 25895 net.cpp:122] Setting up stage3_unit2_bn3
I1213 10:25:09.164999 25895 net.cpp:129] Top shape: 10 256 25 25 (1600000)
I1213 10:25:09.165004 25895 net.cpp:137] Memory required for data: 2532800040
I1213 10:25:09.165025 25895 layer_factory.hpp:77] Creating layer stage3_unit2_bn3_scale
I1213 10:25:09.165040 25895 net.cpp:84] Creating Layer stage3_unit2_bn3_scale
I1213 10:25:09.165046 25895 net.cpp:406] stage3_unit2_bn3_scale <- stage3_unit2_bn3
I1213 10:25:09.165058 25895 net.cpp:367] stage3_unit2_bn3_scale -> stage3_unit2_bn3 (in-place)
I1213 10:25:09.165123 25895 layer_factory.hpp:77] Creating layer stage3_unit2_bn3_scale
I1213 10:25:09.165278 25895 net.cpp:122] Setting up stage3_unit2_bn3_scale
I1213 10:25:09.165293 25895 net.cpp:129] Top shape: 10 256 25 25 (1600000)
I1213 10:25:09.165300 25895 net.cpp:137] Memory required for data: 2539200040
I1213 10:25:09.165310 25895 layer_factory.hpp:77] Creating layer _plus5
I1213 10:25:09.165323 25895 net.cpp:84] Creating Layer _plus5
I1213 10:25:09.165330 25895 net.cpp:406] _plus5 <- stage3_unit2_bn3
I1213 10:25:09.165340 25895 net.cpp:406] _plus5 <- _plus4__plus4_0_split_1
I1213 10:25:09.165350 25895 net.cpp:380] _plus5 -> _plus5
I1213 10:25:09.165392 25895 net.cpp:122] Setting up _plus5
I1213 10:25:09.165405 25895 net.cpp:129] Top shape: 10 256 25 25 (1600000)
I1213 10:25:09.165411 25895 net.cpp:137] Memory required for data: 2545600040
I1213 10:25:09.165416 25895 layer_factory.hpp:77] Creating layer _plus5__plus5_0_split
I1213 10:25:09.165426 25895 net.cpp:84] Creating Layer _plus5__plus5_0_split
I1213 10:25:09.165433 25895 net.cpp:406] _plus5__plus5_0_split <- _plus5
I1213 10:25:09.165446 25895 net.cpp:380] _plus5__plus5_0_split -> _plus5__plus5_0_split_0
I1213 10:25:09.165458 25895 net.cpp:380] _plus5__plus5_0_split -> _plus5__plus5_0_split_1
I1213 10:25:09.165518 25895 net.cpp:122] Setting up _plus5__plus5_0_split
I1213 10:25:09.165531 25895 net.cpp:129] Top shape: 10 256 25 25 (1600000)
I1213 10:25:09.165541 25895 net.cpp:129] Top shape: 10 256 25 25 (1600000)
I1213 10:25:09.165549 25895 net.cpp:137] Memory required for data: 2558400040
I1213 10:25:09.165555 25895 layer_factory.hpp:77] Creating layer stage4_unit1_bn1
I1213 10:25:09.165573 25895 net.cpp:84] Creating Layer stage4_unit1_bn1
I1213 10:25:09.165583 25895 net.cpp:406] stage4_unit1_bn1 <- _plus5__plus5_0_split_0
I1213 10:25:09.165596 25895 net.cpp:380] stage4_unit1_bn1 -> stage4_unit1_bn1
I1213 10:25:09.165871 25895 net.cpp:122] Setting up stage4_unit1_bn1
I1213 10:25:09.165887 25895 net.cpp:129] Top shape: 10 256 25 25 (1600000)
I1213 10:25:09.165894 25895 net.cpp:137] Memory required for data: 2564800040
I1213 10:25:09.165920 25895 layer_factory.hpp:77] Creating layer stage4_unit1_bn1_scale
I1213 10:25:09.165932 25895 net.cpp:84] Creating Layer stage4_unit1_bn1_scale
I1213 10:25:09.165940 25895 net.cpp:406] stage4_unit1_bn1_scale <- stage4_unit1_bn1
I1213 10:25:09.165949 25895 net.cpp:367] stage4_unit1_bn1_scale -> stage4_unit1_bn1 (in-place)
I1213 10:25:09.166029 25895 layer_factory.hpp:77] Creating layer stage4_unit1_bn1_scale
I1213 10:25:09.166198 25895 net.cpp:122] Setting up stage4_unit1_bn1_scale
I1213 10:25:09.166213 25895 net.cpp:129] Top shape: 10 256 25 25 (1600000)
I1213 10:25:09.166221 25895 net.cpp:137] Memory required for data: 2571200040
I1213 10:25:09.166234 25895 layer_factory.hpp:77] Creating layer stage4_unit1_conv1
I1213 10:25:09.166254 25895 net.cpp:84] Creating Layer stage4_unit1_conv1
I1213 10:25:09.166262 25895 net.cpp:406] stage4_unit1_conv1 <- stage4_unit1_bn1
I1213 10:25:09.166275 25895 net.cpp:380] stage4_unit1_conv1 -> stage4_unit1_conv1
I1213 10:25:09.194344 25895 net.cpp:122] Setting up stage4_unit1_conv1
I1213 10:25:09.194411 25895 net.cpp:129] Top shape: 10 512 25 25 (3200000)
I1213 10:25:09.194416 25895 net.cpp:137] Memory required for data: 2584000040
I1213 10:25:09.194476 25895 layer_factory.hpp:77] Creating layer stage4_unit1_bn2
I1213 10:25:09.194500 25895 net.cpp:84] Creating Layer stage4_unit1_bn2
I1213 10:25:09.194536 25895 net.cpp:406] stage4_unit1_bn2 <- stage4_unit1_conv1
I1213 10:25:09.194545 25895 net.cpp:380] stage4_unit1_bn2 -> stage4_unit1_bn2
I1213 10:25:09.194887 25895 net.cpp:122] Setting up stage4_unit1_bn2
I1213 10:25:09.194897 25895 net.cpp:129] Top shape: 10 512 25 25 (3200000)
I1213 10:25:09.194916 25895 net.cpp:137] Memory required for data: 2596800040
I1213 10:25:09.194962 25895 layer_factory.hpp:77] Creating layer stage4_unit1_bn2_scale
I1213 10:25:09.194989 25895 net.cpp:84] Creating Layer stage4_unit1_bn2_scale
I1213 10:25:09.194994 25895 net.cpp:406] stage4_unit1_bn2_scale <- stage4_unit1_bn2
I1213 10:25:09.195001 25895 net.cpp:367] stage4_unit1_bn2_scale -> stage4_unit1_bn2 (in-place)
I1213 10:25:09.195140 25895 layer_factory.hpp:77] Creating layer stage4_unit1_bn2_scale
I1213 10:25:09.195258 25895 net.cpp:122] Setting up stage4_unit1_bn2_scale
I1213 10:25:09.195267 25895 net.cpp:129] Top shape: 10 512 25 25 (3200000)
I1213 10:25:09.195271 25895 net.cpp:137] Memory required for data: 2609600040
I1213 10:25:09.195277 25895 layer_factory.hpp:77] Creating layer stage4_unit1_relu1
I1213 10:25:09.195289 25895 net.cpp:84] Creating Layer stage4_unit1_relu1
I1213 10:25:09.195294 25895 net.cpp:406] stage4_unit1_relu1 <- stage4_unit1_bn2
I1213 10:25:09.195299 25895 net.cpp:380] stage4_unit1_relu1 -> stage4_unit1_relu1
I1213 10:25:09.195629 25895 net.cpp:122] Setting up stage4_unit1_relu1
I1213 10:25:09.195641 25895 net.cpp:129] Top shape: 10 512 25 25 (3200000)
I1213 10:25:09.195644 25895 net.cpp:137] Memory required for data: 2622400040
I1213 10:25:09.195648 25895 layer_factory.hpp:77] Creating layer stage4_unit1_conv2
I1213 10:25:09.195660 25895 net.cpp:84] Creating Layer stage4_unit1_conv2
I1213 10:25:09.195665 25895 net.cpp:406] stage4_unit1_conv2 <- stage4_unit1_relu1
I1213 10:25:09.195675 25895 net.cpp:380] stage4_unit1_conv2 -> stage4_unit1_conv2
I1213 10:25:09.223915 25895 net.cpp:122] Setting up stage4_unit1_conv2
I1213 10:25:09.223968 25895 net.cpp:129] Top shape: 10 512 13 13 (865280)
I1213 10:25:09.223973 25895 net.cpp:137] Memory required for data: 2625861160
I1213 10:25:09.223989 25895 layer_factory.hpp:77] Creating layer stage4_unit1_bn3
I1213 10:25:09.224016 25895 net.cpp:84] Creating Layer stage4_unit1_bn3
I1213 10:25:09.224022 25895 net.cpp:406] stage4_unit1_bn3 <- stage4_unit1_conv2
I1213 10:25:09.224031 25895 net.cpp:380] stage4_unit1_bn3 -> stage4_unit1_bn3
I1213 10:25:09.224381 25895 net.cpp:122] Setting up stage4_unit1_bn3
I1213 10:25:09.224390 25895 net.cpp:129] Top shape: 10 512 13 13 (865280)
I1213 10:25:09.224409 25895 net.cpp:137] Memory required for data: 2629322280
I1213 10:25:09.224419 25895 layer_factory.hpp:77] Creating layer stage4_unit1_bn3_scale
I1213 10:25:09.224432 25895 net.cpp:84] Creating Layer stage4_unit1_bn3_scale
I1213 10:25:09.224436 25895 net.cpp:406] stage4_unit1_bn3_scale <- stage4_unit1_bn3
I1213 10:25:09.224442 25895 net.cpp:367] stage4_unit1_bn3_scale -> stage4_unit1_bn3 (in-place)
I1213 10:25:09.224491 25895 layer_factory.hpp:77] Creating layer stage4_unit1_bn3_scale
I1213 10:25:09.224611 25895 net.cpp:122] Setting up stage4_unit1_bn3_scale
I1213 10:25:09.224618 25895 net.cpp:129] Top shape: 10 512 13 13 (865280)
I1213 10:25:09.224622 25895 net.cpp:137] Memory required for data: 2632783400
I1213 10:25:09.224629 25895 layer_factory.hpp:77] Creating layer stage4_unit1_conv1sc
I1213 10:25:09.224644 25895 net.cpp:84] Creating Layer stage4_unit1_conv1sc
I1213 10:25:09.224658 25895 net.cpp:406] stage4_unit1_conv1sc <- _plus5__plus5_0_split_1
I1213 10:25:09.224669 25895 net.cpp:380] stage4_unit1_conv1sc -> stage4_unit1_conv1sc
I1213 10:25:09.226389 25895 net.cpp:122] Setting up stage4_unit1_conv1sc
I1213 10:25:09.226399 25895 net.cpp:129] Top shape: 10 512 13 13 (865280)
I1213 10:25:09.226403 25895 net.cpp:137] Memory required for data: 2636244520
I1213 10:25:09.226408 25895 layer_factory.hpp:77] Creating layer stage4_unit1_sc
I1213 10:25:09.226420 25895 net.cpp:84] Creating Layer stage4_unit1_sc
I1213 10:25:09.226425 25895 net.cpp:406] stage4_unit1_sc <- stage4_unit1_conv1sc
I1213 10:25:09.226430 25895 net.cpp:380] stage4_unit1_sc -> stage4_unit1_sc
I1213 10:25:09.226644 25895 net.cpp:122] Setting up stage4_unit1_sc
I1213 10:25:09.226686 25895 net.cpp:129] Top shape: 10 512 13 13 (865280)
I1213 10:25:09.226691 25895 net.cpp:137] Memory required for data: 2639705640
I1213 10:25:09.226701 25895 layer_factory.hpp:77] Creating layer stage4_unit1_sc_scale
I1213 10:25:09.226729 25895 net.cpp:84] Creating Layer stage4_unit1_sc_scale
I1213 10:25:09.226734 25895 net.cpp:406] stage4_unit1_sc_scale <- stage4_unit1_sc
I1213 10:25:09.226740 25895 net.cpp:367] stage4_unit1_sc_scale -> stage4_unit1_sc (in-place)
I1213 10:25:09.226784 25895 layer_factory.hpp:77] Creating layer stage4_unit1_sc_scale
I1213 10:25:09.226961 25895 net.cpp:122] Setting up stage4_unit1_sc_scale
I1213 10:25:09.226991 25895 net.cpp:129] Top shape: 10 512 13 13 (865280)
I1213 10:25:09.226999 25895 net.cpp:137] Memory required for data: 2643166760
I1213 10:25:09.227013 25895 layer_factory.hpp:77] Creating layer _plus6
I1213 10:25:09.227027 25895 net.cpp:84] Creating Layer _plus6
I1213 10:25:09.227037 25895 net.cpp:406] _plus6 <- stage4_unit1_bn3
I1213 10:25:09.227047 25895 net.cpp:406] _plus6 <- stage4_unit1_sc
I1213 10:25:09.227059 25895 net.cpp:380] _plus6 -> _plus6
I1213 10:25:09.227123 25895 net.cpp:122] Setting up _plus6
I1213 10:25:09.227136 25895 net.cpp:129] Top shape: 10 512 13 13 (865280)
I1213 10:25:09.227144 25895 net.cpp:137] Memory required for data: 2646627880
I1213 10:25:09.227152 25895 layer_factory.hpp:77] Creating layer _plus6__plus6_0_split
I1213 10:25:09.227171 25895 net.cpp:84] Creating Layer _plus6__plus6_0_split
I1213 10:25:09.227180 25895 net.cpp:406] _plus6__plus6_0_split <- _plus6
I1213 10:25:09.227192 25895 net.cpp:380] _plus6__plus6_0_split -> _plus6__plus6_0_split_0
I1213 10:25:09.227207 25895 net.cpp:380] _plus6__plus6_0_split -> _plus6__plus6_0_split_1
I1213 10:25:09.227280 25895 net.cpp:122] Setting up _plus6__plus6_0_split
I1213 10:25:09.227294 25895 net.cpp:129] Top shape: 10 512 13 13 (865280)
I1213 10:25:09.227305 25895 net.cpp:129] Top shape: 10 512 13 13 (865280)
I1213 10:25:09.227313 25895 net.cpp:137] Memory required for data: 2653550120
I1213 10:25:09.227319 25895 layer_factory.hpp:77] Creating layer stage4_unit2_bn1
I1213 10:25:09.227334 25895 net.cpp:84] Creating Layer stage4_unit2_bn1
I1213 10:25:09.227349 25895 net.cpp:406] stage4_unit2_bn1 <- _plus6__plus6_0_split_0
I1213 10:25:09.227367 25895 net.cpp:380] stage4_unit2_bn1 -> stage4_unit2_bn1
I1213 10:25:09.227751 25895 net.cpp:122] Setting up stage4_unit2_bn1
I1213 10:25:09.227767 25895 net.cpp:129] Top shape: 10 512 13 13 (865280)
I1213 10:25:09.227777 25895 net.cpp:137] Memory required for data: 2657011240
I1213 10:25:09.227792 25895 layer_factory.hpp:77] Creating layer stage4_unit2_bn1_scale
I1213 10:25:09.227805 25895 net.cpp:84] Creating Layer stage4_unit2_bn1_scale
I1213 10:25:09.227814 25895 net.cpp:406] stage4_unit2_bn1_scale <- stage4_unit2_bn1
I1213 10:25:09.227833 25895 net.cpp:367] stage4_unit2_bn1_scale -> stage4_unit2_bn1 (in-place)
I1213 10:25:09.227902 25895 layer_factory.hpp:77] Creating layer stage4_unit2_bn1_scale
I1213 10:25:09.228121 25895 net.cpp:122] Setting up stage4_unit2_bn1_scale
I1213 10:25:09.228137 25895 net.cpp:129] Top shape: 10 512 13 13 (865280)
I1213 10:25:09.228144 25895 net.cpp:137] Memory required for data: 2660472360
I1213 10:25:09.228158 25895 layer_factory.hpp:77] Creating layer stage4_unit2_conv1
I1213 10:25:09.228185 25895 net.cpp:84] Creating Layer stage4_unit2_conv1
I1213 10:25:09.228195 25895 net.cpp:406] stage4_unit2_conv1 <- stage4_unit2_bn1
I1213 10:25:09.228214 25895 net.cpp:380] stage4_unit2_conv1 -> stage4_unit2_conv1
I1213 10:25:09.286329 25895 net.cpp:122] Setting up stage4_unit2_conv1
I1213 10:25:09.286418 25895 net.cpp:129] Top shape: 10 512 13 13 (865280)
I1213 10:25:09.286440 25895 net.cpp:137] Memory required for data: 2663933480
I1213 10:25:09.286471 25895 layer_factory.hpp:77] Creating layer stage4_unit2_bn2
I1213 10:25:09.286504 25895 net.cpp:84] Creating Layer stage4_unit2_bn2
I1213 10:25:09.286525 25895 net.cpp:406] stage4_unit2_bn2 <- stage4_unit2_conv1
I1213 10:25:09.286552 25895 net.cpp:380] stage4_unit2_bn2 -> stage4_unit2_bn2
I1213 10:25:09.286993 25895 net.cpp:122] Setting up stage4_unit2_bn2
I1213 10:25:09.287030 25895 net.cpp:129] Top shape: 10 512 13 13 (865280)
I1213 10:25:09.287050 25895 net.cpp:137] Memory required for data: 2667394600
I1213 10:25:09.287079 25895 layer_factory.hpp:77] Creating layer stage4_unit2_bn2_scale
I1213 10:25:09.287106 25895 net.cpp:84] Creating Layer stage4_unit2_bn2_scale
I1213 10:25:09.287125 25895 net.cpp:406] stage4_unit2_bn2_scale <- stage4_unit2_bn2
I1213 10:25:09.287148 25895 net.cpp:367] stage4_unit2_bn2_scale -> stage4_unit2_bn2 (in-place)
I1213 10:25:09.287256 25895 layer_factory.hpp:77] Creating layer stage4_unit2_bn2_scale
I1213 10:25:09.287483 25895 net.cpp:122] Setting up stage4_unit2_bn2_scale
I1213 10:25:09.287514 25895 net.cpp:129] Top shape: 10 512 13 13 (865280)
I1213 10:25:09.287533 25895 net.cpp:137] Memory required for data: 2670855720
I1213 10:25:09.287560 25895 layer_factory.hpp:77] Creating layer stage4_unit2_relu1
I1213 10:25:09.287590 25895 net.cpp:84] Creating Layer stage4_unit2_relu1
I1213 10:25:09.287611 25895 net.cpp:406] stage4_unit2_relu1 <- stage4_unit2_bn2
I1213 10:25:09.287633 25895 net.cpp:380] stage4_unit2_relu1 -> stage4_unit2_relu1
I1213 10:25:09.289466 25895 net.cpp:122] Setting up stage4_unit2_relu1
I1213 10:25:09.289513 25895 net.cpp:129] Top shape: 10 512 13 13 (865280)
I1213 10:25:09.289532 25895 net.cpp:137] Memory required for data: 2674316840
I1213 10:25:09.289551 25895 layer_factory.hpp:77] Creating layer stage4_unit2_conv2
I1213 10:25:09.289587 25895 net.cpp:84] Creating Layer stage4_unit2_conv2
I1213 10:25:09.289605 25895 net.cpp:406] stage4_unit2_conv2 <- stage4_unit2_relu1
I1213 10:25:09.289628 25895 net.cpp:380] stage4_unit2_conv2 -> stage4_unit2_conv2
I1213 10:25:09.385246 25895 net.cpp:122] Setting up stage4_unit2_conv2
I1213 10:25:09.393052 25895 net.cpp:129] Top shape: 10 512 13 13 (865280)
I1213 10:25:09.393115 25895 net.cpp:137] Memory required for data: 2677777960
I1213 10:25:09.393157 25895 layer_factory.hpp:77] Creating layer stage4_unit2_bn3
I1213 10:25:09.393213 25895 net.cpp:84] Creating Layer stage4_unit2_bn3
I1213 10:25:09.393263 25895 net.cpp:406] stage4_unit2_bn3 <- stage4_unit2_conv2
I1213 10:25:09.393299 25895 net.cpp:380] stage4_unit2_bn3 -> stage4_unit2_bn3
I1213 10:25:09.393667 25895 net.cpp:122] Setting up stage4_unit2_bn3
I1213 10:25:09.394043 25895 net.cpp:129] Top shape: 10 512 13 13 (865280)
I1213 10:25:09.394074 25895 net.cpp:137] Memory required for data: 2681239080
I1213 10:25:09.394109 25895 layer_factory.hpp:77] Creating layer stage4_unit2_bn3_scale
I1213 10:25:09.394155 25895 net.cpp:84] Creating Layer stage4_unit2_bn3_scale
I1213 10:25:09.394193 25895 net.cpp:406] stage4_unit2_bn3_scale <- stage4_unit2_bn3
I1213 10:25:09.394223 25895 net.cpp:367] stage4_unit2_bn3_scale -> stage4_unit2_bn3 (in-place)
I1213 10:25:09.394321 25895 layer_factory.hpp:77] Creating layer stage4_unit2_bn3_scale
I1213 10:25:09.394600 25895 net.cpp:122] Setting up stage4_unit2_bn3_scale
I1213 10:25:09.394814 25895 net.cpp:129] Top shape: 10 512 13 13 (865280)
I1213 10:25:09.394848 25895 net.cpp:137] Memory required for data: 2684700200
I1213 10:25:09.394877 25895 layer_factory.hpp:77] Creating layer _plus7
I1213 10:25:09.394913 25895 net.cpp:84] Creating Layer _plus7
I1213 10:25:09.394943 25895 net.cpp:406] _plus7 <- stage4_unit2_bn3
I1213 10:25:09.394971 25895 net.cpp:406] _plus7 <- _plus6__plus6_0_split_1
I1213 10:25:09.395009 25895 net.cpp:380] _plus7 -> _plus7
I1213 10:25:09.395087 25895 net.cpp:122] Setting up _plus7
I1213 10:25:09.395162 25895 net.cpp:129] Top shape: 10 512 13 13 (865280)
I1213 10:25:09.395191 25895 net.cpp:137] Memory required for data: 2688161320
I1213 10:25:09.395215 25895 layer_factory.hpp:77] Creating layer bn1
I1213 10:25:09.395242 25895 net.cpp:84] Creating Layer bn1
I1213 10:25:09.395270 25895 net.cpp:406] bn1 <- _plus7
I1213 10:25:09.395304 25895 net.cpp:380] bn1 -> bn1
I1213 10:25:09.395623 25895 net.cpp:122] Setting up bn1
I1213 10:25:09.395944 25895 net.cpp:129] Top shape: 10 512 13 13 (865280)
I1213 10:25:09.395973 25895 net.cpp:137] Memory required for data: 2691622440
I1213 10:25:09.396006 25895 layer_factory.hpp:77] Creating layer bn1_scale
I1213 10:25:09.396041 25895 net.cpp:84] Creating Layer bn1_scale
I1213 10:25:09.396070 25895 net.cpp:406] bn1_scale <- bn1
I1213 10:25:09.396096 25895 net.cpp:367] bn1_scale -> bn1 (in-place)
I1213 10:25:09.396184 25895 layer_factory.hpp:77] Creating layer bn1_scale
I1213 10:25:09.396452 25895 net.cpp:122] Setting up bn1_scale
I1213 10:25:09.396667 25895 net.cpp:129] Top shape: 10 512 13 13 (865280)
I1213 10:25:09.396695 25895 net.cpp:137] Memory required for data: 2695083560
I1213 10:25:09.396726 25895 layer_factory.hpp:77] Creating layer fc8
I1213 10:25:09.396769 25895 net.cpp:84] Creating Layer fc8
I1213 10:25:09.396806 25895 net.cpp:406] fc8 <- bn1
I1213 10:25:09.396840 25895 net.cpp:380] fc8 -> fc8
I1213 10:25:09.401806 25895 net.cpp:122] Setting up fc8
I1213 10:25:09.406790 25895 net.cpp:129] Top shape: 10 2 (20)
I1213 10:25:09.406822 25895 net.cpp:137] Memory required for data: 2695083640
I1213 10:25:09.406854 25895 layer_factory.hpp:77] Creating layer loss
I1213 10:25:09.406900 25895 net.cpp:84] Creating Layer loss
I1213 10:25:09.406939 25895 net.cpp:406] loss <- fc8
I1213 10:25:09.406965 25895 net.cpp:406] loss <- label
I1213 10:25:09.407001 25895 net.cpp:380] loss -> loss
I1213 10:25:09.407052 25895 layer_factory.hpp:77] Creating layer loss
…
I1213 10:25:09.413928 25895 solver.cpp:172] Creating test net (#0) specified by net file: r18_train_val.prototxt
I1213 10:25:09.416298 25895 net.cpp:294] The NetState phase (1) differed from the phase (0) specified by a rule in layer data
I1213 10:25:09.417717 25895 net.cpp:51] Initializing net from parameters: 
state {
  phase: TEST
}
layer {
  name: "data"
  type: "Data"
  top: "data"
  top: "label"
  include {
    phase: TEST
  }
  transform_param {
    scale: 0.0078125
    mirror: true
    mean_value: 127
  }
  data_param {
    source: "/home/lc/gender/dushanzi/data/val.lmdb"
    batch_size: 10
    backend: LMDB
  }
}
layer {
  name: "conv0"
  type: "Convolution"
  bottom: "data"
  top: "conv0"
  param {
    lr_mult: 1
    decay_mult: 1
  }
  convolution_param {
    num_output: 64
    bias_term: false
    pad: 1
    kernel_size: 3
    stride: 1
    weight_filler {
      type: "gaussian"
      std: 0.01
    }
    engine: CAFFE
  }
}
layer {
  name: "bn0"
  type: "BatchNorm"
  bottom: "conv0"
  top: "bn0"
  batch_norm_param {
    use_global_stats: false
    moving_average_fraction: 0.9
    eps: 2e-05
  }
}
layer {
  name: "bn0_scale"
  type: "Scale"
  bottom: "bn0"
  top: "bn0"
  scale_param {
    bias_term: true
  }
}
layer {
  name: "relu0"
  type: "ReLU"
  bottom: "bn0"
  top: "relu0"
}
layer {
  name: "stage1_unit1_bn1"
  type: "BatchNorm"
  bottom: "relu0"
  top: "stage1_unit1_bn1"
  batch_norm_param {
    use_global_stats: false
    moving_average_fraction: 0.9
    eps: 2e-05
  }
}
layer {
  name: "stage1_unit1_bn1_scale"
  type: "Scale"
  bottom: "stage1_unit1_bn1"
  top: "stage1_unit1_bn1"
  scale_param {
    bias_term: true
  }
}
layer {
  name: "stage1_unit1_conv1"
  type: "Convolution"
  bottom: "stage1_unit1_bn1"
  top: "stage1_unit1_conv1"
  param {
    lr_mult: 1
    decay_mult: 1
  }
  convolution_param {
    num_output: 64
    bias_term: false
    pad: 1
    kernel_size: 3
    stride: 1
    weight_filler {
      type: "gaussian"
      std: 0.01
    }
    engine: CAFFE
  }
}
layer {
  name: "stage1_unit1_bn2"
  type: "BatchNorm"
  bottom: "stage1_unit1_conv1"
  top: "stage1_unit1_bn2"
  batch_norm_param {
    use_global_stats: false
    moving_average_fraction: 0.9
    eps: 2e-05
  }
}
layer {
  name: "stage1_unit1_bn2_scale"
  type: "Scale"
  bottom: "stage1_unit1_bn2"
  top: "stage1_unit1_bn2"
  scale_param {
    bias_term: true
  }
}
layer {
  name: "stage1_unit1_relu1"
  type: "ReLU"
  bottom: "stage1_unit1_bn2"
  top: "stage1_unit1_relu1"
}
layer {
  name: "stage1_unit1_conv2"
  type: "Convolution"
  bottom: "stage1_unit1_relu1"
  top: "stage1_unit1_conv2"
  param {
    lr_mult: 1
    decay_mult: 1
  }
  convolution_param {
    num_output: 64
    bias_term: false
    pad: 1
    kernel_size: 3
    stride: 2
    weight_filler {
      type: "gaussian"
      std: 0.01
    }
    engine: CAFFE
  }
}
layer {
  name: "stage1_unit1_bn3"
  type: "BatchNorm"
  bottom: "stage1_unit1_conv2"
  top: "stage1_unit1_bn3"
  batch_norm_param {
    use_global_stats: false
    moving_average_fraction: 0.9
    eps: 2e-05
  }
}
layer {
  name: "stage1_unit1_bn3_scale"
  type: "Scale"
  bottom: "stage1_unit1_bn3"
  top: "stage1_unit1_bn3"
  scale_param {
    bias_term: true
  }
}
layer {
  name: "stage1_unit1_conv1sc"
  type: "Convolution"
  bottom: "relu0"
  top: "stage1_unit1_conv1sc"
  param {
    lr_mult: 1
    decay_mult: 1
  }
  convolution_param {
    num_output: 64
    bias_term: false
    kernel_size: 1
    stride: 2
    weight_filler {
      type: "gaussian"
      std: 0.01
    }
    engine: CAFFE
  }
}
layer {
  name: "stage1_unit1_sc"
  type: "BatchNorm"
  bottom: "stage1_unit1_conv1sc"
  top: "stage1_unit1_sc"
  batch_norm_param {
    use_global_stats: false
    moving_average_fraction: 0.9
    eps: 2e-05
  }
}
layer {
  name: "stage1_unit1_sc_scale"
  type: "Scale"
  bottom: "stage1_unit1_sc"
  top: "stage1_unit1_sc"
  scale_param {
    bias_term: true
  }
}
layer {
  name: "_plus0"
  type: "Eltwise"
  bottom: "stage1_unit1_bn3"
  bottom: "stage1_unit1_sc"
  top: "_plus0"
  eltwise_param {
    operation: SUM
  }
}
layer {
  name: "stage1_unit2_bn1"
  type: "BatchNorm"
  bottom: "_plus0"
  top: "stage1_unit2_bn1"
  batch_norm_param {
    use_global_stats: false
    moving_average_fraction: 0.9
    eps: 2e-05
  }
}
layer {
  name: "stage1_unit2_bn1_scale"
  type: "Scale"
  bottom: "stage1_unit2_bn1"
  top: "stage1_unit2_bn1"
  scale_param {
    bias_term: true
  }
}
layer {
  name: "stage1_unit2_conv1"
  type: "Convolution"
  bottom: "stage1_unit2_bn1"
  top: "stage1_unit2_conv1"
  param {
    lr_mult: 1
    decay_mult: 1
  }
  convolution_param {
    num_output: 64
    bias_term: false
    pad: 1
    kernel_size: 3
    stride: 1
    weight_filler {
      type: "gaussian"
      std: 0.01
    }
    engine: CAFFE
  }
}
layer {
  name: "stage1_unit2_bn2"
  type: "BatchNorm"
  bottom: "stage1_unit2_conv1"
  top: "stage1_unit2_bn2"
  batch_norm_param {
    use_global_stats: false
    moving_average_fraction: 0.9
    eps: 2e-05
  }
}
layer {
  name: "stage1_unit2_bn2_scale"
  type: "Scale"
  bottom: "stage1_unit2_bn2"
  top: "stage1_unit2_bn2"
  scale_param {
    bias_term: true
  }
}
layer {
  name: "stage1_unit2_relu1"
  type: "ReLU"
  bottom: "stage1_unit2_bn2"
  top: "stage1_unit2_relu1"
}
layer {
  name: "stage1_unit2_conv2"
  type: "Convolution"
  bottom: "stage1_unit2_relu1"
  top: "stage1_unit2_conv2"
  param {
    lr_mult: 1
    decay_mult: 1
  }
  convolution_param {
    num_output: 64
    bias_term: false
    pad: 1
    kernel_size: 3
    stride: 1
    weight_filler {
      type: "gaussian"
      std: 0.01
    }
    engine: CAFFE
  }
}
layer {
  name: "stage1_unit2_bn3"
  type: "BatchNorm"
  bottom: "stage1_unit2_conv2"
  top: "stage1_unit2_bn3"
  batch_norm_param {
    use_global_stats: false
    moving_average_fraction: 0.9
    eps: 2e-05
  }
}
layer {
  name: "stage1_unit2_bn3_scale"
  type: "Scale"
  bottom: "stage1_unit2_bn3"
  top: "stage1_unit2_bn3"
  scale_param {
    bias_term: true
  }
}
layer {
  name: "_plus1"
  type: "Eltwise"
  bottom: "stage1_unit2_bn3"
  bottom: "_plus0"
  top: "_plus1"
  eltwise_param {
    operation: SUM
  }
}
layer {
  name: "stage2_unit1_bn1"
  type: "BatchNorm"
  bottom: "_plus1"
  top: "stage2_unit1_bn1"
  batch_norm_param {
    use_global_stats: false
    moving_average_fraction: 0.9
    eps: 2e-05
  }
}
layer {
  name: "stage2_unit1_bn1_scale"
  type: "Scale"
  bottom: "stage2_unit1_bn1"
  top: "stage2_unit1_bn1"
  scale_param {
    bias_term: true
  }
}
layer {
  name: "stage2_unit1_conv1"
  type: "Convolution"
  bottom: "stage2_unit1_bn1"
  top: "stage2_unit1_conv1"
  param {
    lr_mult: 1
    decay_mult: 1
  }
  convolution_param {
    num_output: 128
    bias_term: false
    pad: 1
    kernel_size: 3
    stride: 1
    weight_filler {
      type: "gaussian"
      std: 0.01
    }
    engine: CAFFE
  }
}
layer {
  name: "stage2_unit1_bn2"
  type: "BatchNorm"
  bottom: "stage2_unit1_conv1"
  top: "stage2_unit1_bn2"
  batch_norm_param {
    use_global_stats: false
    moving_average_fraction: 0.9
    eps: 2e-05
  }
}
layer {
  name: "stage2_unit1_bn2_scale"
  type: "Scale"
  bottom: "stage2_unit1_bn2"
  top: "stage2_unit1_bn2"
  scale_param {
    bias_term: true
  }
}
layer {
  name: "stage2_unit1_relu1"
  type: "ReLU"
  bottom: "stage2_unit1_bn2"
  top: "stage2_unit1_relu1"
}
layer {
  name: "stage2_unit1_conv2"
  type: "Convolution"
  bottom: "stage2_unit1_relu1"
  top: "stage2_unit1_conv2"
  param {
    lr_mult: 1
    decay_mult: 1
  }
  convolution_param {
    num_output: 128
    bias_term: false
    pad: 1
    kernel_size: 3
    stride: 2
    weight_filler {
      type: "gaussian"
      std: 0.01
    }
    engine: CAFFE
  }
}
layer {
  name: "stage2_unit1_bn3"
  type: "BatchNorm"
  bottom: "stage2_unit1_conv2"
  top: "stage2_unit1_bn3"
  batch_norm_param {
    use_global_stats: false
    moving_average_fraction: 0.9
    eps: 2e-05
  }
}
layer {
  name: "stage2_unit1_bn3_scale"
  type: "Scale"
  bottom: "stage2_unit1_bn3"
  top: "stage2_unit1_bn3"
  scale_param {
    bias_term: true
  }
}
layer {
  name: "stage2_unit1_conv1sc"
  type: "Convolution"
  bottom: "_plus1"
  top: "stage2_unit1_conv1sc"
  param {
    lr_mult: 1
    decay_mult: 1
  }
  convolution_param {
    num_output: 128
    bias_term: false
    kernel_size: 1
    stride: 2
    weight_filler {
      type: "gaussian"
      std: 0.01
    }
    engine: CAFFE
  }
}
layer {
  name: "stage2_unit1_sc"
  type: "BatchNorm"
  bottom: "stage2_unit1_conv1sc"
  top: "stage2_unit1_sc"
  batch_norm_param {
    use_global_stats: false
    moving_average_fraction: 0.9
    eps: 2e-05
  }
}
layer {
  name: "stage2_unit1_sc_scale"
  type: "Scale"
  bottom: "stage2_unit1_sc"
  top: "stage2_unit1_sc"
  scale_param {
    bias_term: true
  }
}
layer {
  name: "_plus2"
  type: "Eltwise"
  bottom: "stage2_unit1_bn3"
  bottom: "stage2_unit1_sc"
  top: "_plus2"
  eltwise_param {
    operation: SUM
  }
}
layer {
  name: "stage2_unit2_bn1"
  type: "BatchNorm"
  bottom: "_plus2"
  top: "stage2_unit2_bn1"
  batch_norm_param {
    use_global_stats: false
    moving_average_fraction: 0.9
    eps: 2e-05
  }
}
layer {
  name: "stage2_unit2_bn1_scale"
  type: "Scale"
  bottom: "stage2_unit2_bn1"
  top: "stage2_unit2_bn1"
  scale_param {
    bias_term: true
  }
}
layer {
  name: "stage2_unit2_conv1"
  type: "Convolution"
  bottom: "stage2_unit2_bn1"
  top: "stage2_unit2_conv1"
  param {
    lr_mult: 1
    decay_mult: 1
  }
  convolution_param {
    num_output: 128
    bias_term: false
    pad: 1
    kernel_size: 3
    stride: 1
    weight_filler {
      type: "gaussian"
      std: 0.01
    }
    engine: CAFFE
  }
}
layer {
  name: "stage2_unit2_bn2"
  type: "BatchNorm"
  bottom: "stage2_unit2_conv1"
  top: "stage2_unit2_bn2"
  batch_norm_param {
    use_global_stats: false
    moving_average_fraction: 0.9
    eps: 2e-05
  }
}
layer {
  name: "stage2_unit2_bn2_scale"
  type: "Scale"
  bottom: "stage2_unit2_bn2"
  top: "stage2_unit2_bn2"
  scale_param {
    bias_term: true
  }
}
layer {
  name: "stage2_unit2_relu1"
  type: "ReLU"
  bottom: "stage2_unit2_bn2"
  top: "stage2_unit2_relu1"
}
layer {
  name: "stage2_unit2_conv2"
  type: "Convolution"
  bottom: "stage2_unit2_relu1"
  top: "stage2_unit2_conv2"
  param {
    lr_mult: 1
    decay_mult: 1
  }
  convolution_param {
    num_output: 128
    bias_term: false
    pad: 1
    kernel_size: 3
    stride: 1
    weight_filler {
      type: "gaussian"
      std: 0.01
    }
    engine: CAFFE
  }
}
layer {
  name: "stage2_unit2_bn3"
  type: "BatchNorm"
  bottom: "stage2_unit2_conv2"
  top: "stage2_unit2_bn3"
  batch_norm_param {
    use_global_stats: false
    moving_average_fraction: 0.9
    eps: 2e-05
  }
}
layer {
  name: "stage2_unit2_bn3_scale"
  type: "Scale"
  bottom: "stage2_unit2_bn3"
  top: "stage2_unit2_bn3"
  scale_param {
    bias_term: true
  }
}
layer {
  name: "_plus3"
  type: "Eltwise"
  bottom: "stage2_unit2_bn3"
  bottom: "_plus2"
  top: "_plus3"
  eltwise_param {
    operation: SUM
  }
}
layer {
  name: "stage3_unit1_bn1"
  type: "BatchNorm"
  bottom: "_plus3"
  top: "stage3_unit1_bn1"
  batch_norm_param {
    use_global_stats: false
    moving_average_fraction: 0.9
    eps: 2e-05
  }
}
layer {
  name: "stage3_unit1_bn1_scale"
  type: "Scale"
  bottom: "stage3_unit1_bn1"
  top: "stage3_unit1_bn1"
  scale_param {
    bias_term: true
  }
}
layer {
  name: "stage3_unit1_conv1"
  type: "Convolution"
  bottom: "stage3_unit1_bn1"
  top: "stage3_unit1_conv1"
  param {
    lr_mult: 1
    decay_mult: 1
  }
  convolution_param {
    num_output: 256
    bias_term: false
    pad: 1
    kernel_size: 3
    stride: 1
    weight_filler {
      type: "gaussian"
      std: 0.01
    }
    engine: CAFFE
  }
}
layer {
  name: "stage3_unit1_bn2"
  type: "BatchNorm"
  bottom: "stage3_unit1_conv1"
  top: "stage3_unit1_bn2"
  batch_norm_param {
    use_global_stats: false
    moving_average_fraction: 0.9
    eps: 2e-05
  }
}
layer {
  name: "stage3_unit1_bn2_scale"
  type: "Scale"
  bottom: "stage3_unit1_bn2"
  top: "stage3_unit1_bn2"
  scale_param {
    bias_term: true
  }
}
layer {
  name: "stage3_unit1_relu1"
  type: "ReLU"
  bottom: "stage3_unit1_bn2"
  top: "stage3_unit1_relu1"
}
layer {
  name: "stage3_unit1_conv2"
  type: "Convolution"
  bottom: "stage3_unit1_relu1"
  top: "stage3_unit1_conv2"
  param {
    lr_mult: 1
    decay_mult: 1
  }
  convolution_param {
    num_output: 256
    bias_term: false
    pad: 1
    kernel_size: 3
    stride: 2
    weight_filler {
      type: "gaussian"
      std: 0.01
    }
    engine: CAFFE
  }
}
layer {
  name: "stage3_unit1_bn3"
  type: "BatchNorm"
  bottom: "stage3_unit1_conv2"
  top: "stage3_unit1_bn3"
  batch_norm_param {
    use_global_stats: false
    moving_average_fraction: 0.9
    eps: 2e-05
  }
}
layer {
  name: "stage3_unit1_bn3_scale"
  type: "Scale"
  bottom: "stage3_unit1_bn3"
  top: "stage3_unit1_bn3"
  scale_param {
    bias_term: true
  }
}
layer {
  name: "stage3_unit1_conv1sc"
  type: "Convolution"
  bottom: "_plus3"
  top: "stage3_unit1_conv1sc"
  param {
    lr_mult: 1
    decay_mult: 1
  }
  convolution_param {
    num_output: 256
    bias_term: false
    kernel_size: 1
    stride: 2
    weight_filler {
      type: "gaussian"
      std: 0.01
    }
    engine: CAFFE
  }
}
layer {
  name: "stage3_unit1_sc"
  type: "BatchNorm"
  bottom: "stage3_unit1_conv1sc"
  top: "stage3_unit1_sc"
  batch_norm_param {
    use_global_stats: false
    moving_average_fraction: 0.9
    eps: 2e-05
  }
}
layer {
  name: "stage3_unit1_sc_scale"
  type: "Scale"
  bottom: "stage3_unit1_sc"
  top: "stage3_unit1_sc"
  scale_param {
    bias_term: true
  }
}
layer {
  name: "_plus4"
  type: "Eltwise"
  bottom: "stage3_unit1_bn3"
  bottom: "stage3_unit1_sc"
  top: "_plus4"
  eltwise_param {
    operation: SUM
  }
}
layer {
  name: "stage3_unit2_bn1"
  type: "BatchNorm"
  bottom: "_plus4"
  top: "stage3_unit2_bn1"
  batch_norm_param {
    use_global_stats: false
    moving_average_fraction: 0.9
    eps: 2e-05
  }
}
layer {
  name: "stage3_unit2_bn1_scale"
  type: "Scale"
  bottom: "stage3_unit2_bn1"
  top: "stage3_unit2_bn1"
  scale_param {
    bias_term: true
  }
}
layer {
  name: "stage3_unit2_conv1"
  type: "Convolution"
  bottom: "stage3_unit2_bn1"
  top: "stage3_unit2_conv1"
  param {
    lr_mult: 1
    decay_mult: 1
  }
  convolution_param {
    num_output: 256
    bias_term: false
    pad: 1
    kernel_size: 3
    stride: 1
    weight_filler {
      type: "gaussian"
      std: 0.01
    }
    engine: CAFFE
  }
}
layer {
  name: "stage3_unit2_bn2"
  type: "BatchNorm"
  bottom: "stage3_unit2_conv1"
  top: "stage3_unit2_bn2"
  batch_norm_param {
    use_global_stats: false
    moving_average_fraction: 0.9
    eps: 2e-05
  }
}
layer {
  name: "stage3_unit2_bn2_scale"
  type: "Scale"
  bottom: "stage3_unit2_bn2"
  top: "stage3_unit2_bn2"
  scale_param {
    bias_term: true
  }
}
layer {
  name: "stage3_unit2_relu1"
  type: "ReLU"
  bottom: "stage3_unit2_bn2"
  top: "stage3_unit2_relu1"
}
layer {
  name: "stage3_unit2_conv2"
  type: "Convolution"
  bottom: "stage3_unit2_relu1"
  top: "stage3_unit2_conv2"
  param {
    lr_mult: 1
    decay_mult: 1
  }
  convolution_param {
    num_output: 256
    bias_term: false
    pad: 1
    kernel_size: 3
    stride: 1
    weight_filler {
      type: "gaussian"
      std: 0.01
    }
    engine: CAFFE
  }
}
layer {
  name: "stage3_unit2_bn3"
  type: "BatchNorm"
  bottom: "stage3_unit2_conv2"
  top: "stage3_unit2_bn3"
  batch_norm_param {
    use_global_stats: false
    moving_average_fraction: 0.9
    eps: 2e-05
  }
}
layer {
  name: "stage3_unit2_bn3_scale"
  type: "Scale"
  bottom: "stage3_unit2_bn3"
  top: "stage3_unit2_bn3"
  scale_param {
    bias_term: true
  }
}
layer {
  name: "_plus5"
  type: "Eltwise"
  bottom: "stage3_unit2_bn3"
  bottom: "_plus4"
  top: "_plus5"
  eltwise_param {
    operation: SUM
  }
}
layer {
  name: "stage4_unit1_bn1"
  type: "BatchNorm"
  bottom: "_plus5"
  top: "stage4_unit1_bn1"
  batch_norm_param {
    use_global_stats: false
    moving_average_fraction: 0.9
    eps: 2e-05
  }
}
layer {
  name: "stage4_unit1_bn1_scale"
  type: "Scale"
  bottom: "stage4_unit1_bn1"
  top: "stage4_unit1_bn1"
  scale_param {
    bias_term: true
  }
}
layer {
  name: "stage4_unit1_conv1"
  type: "Convolution"
  bottom: "stage4_unit1_bn1"
  top: "stage4_unit1_conv1"
  param {
    lr_mult: 1
    decay_mult: 1
  }
  convolution_param {
    num_output: 512
    bias_term: false
    pad: 1
    kernel_size: 3
    stride: 1
    weight_filler {
      type: "gaussian"
      std: 0.01
    }
    engine: CAFFE
  }
}
layer {
  name: "stage4_unit1_bn2"
  type: "BatchNorm"
  bottom: "stage4_unit1_conv1"
  top: "stage4_unit1_bn2"
  batch_norm_param {
    use_global_stats: false
    moving_average_fraction: 0.9
    eps: 2e-05
  }
}
layer {
  name: "stage4_unit1_bn2_scale"
  type: "Scale"
  bottom: "stage4_unit1_bn2"
  top: "stage4_unit1_bn2"
  scale_param {
    bias_term: true
  }
}
layer {
  name: "stage4_unit1_relu1"
  type: "ReLU"
  bottom: "stage4_unit1_bn2"
  top: "stage4_unit1_relu1"
}
layer {
  name: "stage4_unit1_conv2"
  type: "Convolution"
  bottom: "stage4_unit1_relu1"
  top: "stage4_unit1_conv2"
  param {
    lr_mult: 1
    decay_mult: 1
  }
  convolution_param {
    num_output: 512
    bias_term: false
    pad: 1
    kernel_size: 3
    stride: 2
    weight_filler {
      type: "gaussian"
      std: 0.01
    }
    engine: CAFFE
  }
}
layer {
  name: "stage4_unit1_bn3"
  type: "BatchNorm"
  bottom: "stage4_unit1_conv2"
  top: "stage4_unit1_bn3"
  batch_norm_param {
    use_global_stats: false
    moving_average_fraction: 0.9
    eps: 2e-05
  }
}
layer {
  name: "stage4_unit1_bn3_scale"
  type: "Scale"
  bottom: "stage4_unit1_bn3"
  top: "stage4_unit1_bn3"
  scale_param {
    bias_term: true
  }
}
layer {
  name: "stage4_unit1_conv1sc"
  type: "Convolution"
  bottom: "_plus5"
  top: "stage4_unit1_conv1sc"
  param {
    lr_mult: 1
    decay_mult: 1
  }
  convolution_param {
    num_output: 512
    bias_term: false
    kernel_size: 1
    stride: 2
    weight_filler {
      type: "gaussian"
      std: 0.01
    }
    engine: CAFFE
  }
}
layer {
  name: "stage4_unit1_sc"
  type: "BatchNorm"
  bottom: "stage4_unit1_conv1sc"
  top: "stage4_unit1_sc"
  batch_norm_param {
    use_global_stats: false
    moving_average_fraction: 0.9
    eps: 2e-05
  }
}
layer {
  name: "stage4_unit1_sc_scale"
  type: "Scale"
  bottom: "stage4_unit1_sc"
  top: "stage4_unit1_sc"
  scale_param {
    bias_term: true
  }
}
layer {
  name: "_plus6"
  type: "Eltwise"
  bottom: "stage4_unit1_bn3"
  bottom: "stage4_unit1_sc"
  top: "_plus6"
  eltwise_param {
    operation: SUM
  }
}
layer {
  name: "stage4_unit2_bn1"
  type: "BatchNorm"
  bottom: "_plus6"
  top: "stage4_unit2_bn1"
  batch_norm_param {
    use_global_stats: false
    moving_average_fraction: 0.9
    eps: 2e-05
  }
}
layer {
  name: "stage4_unit2_bn1_scale"
  type: "Scale"
  bottom: "stage4_unit2_bn1"
  top: "stage4_unit2_bn1"
  scale_param {
    bias_term: true
  }
}
layer {
  name: "stage4_unit2_conv1"
  type: "Convolution"
  bottom: "stage4_unit2_bn1"
  top: "stage4_unit2_conv1"
  param {
    lr_mult: 1
    decay_mult: 1
  }
  convolution_param {
    num_output: 512
    bias_term: false
    pad: 1
    kernel_size: 3
    stride: 1
    weight_filler {
      type: "gaussian"
      std: 0.01
    }
    engine: CAFFE
  }
}
layer {
  name: "stage4_unit2_bn2"
  type: "BatchNorm"
  bottom: "stage4_unit2_conv1"
  top: "stage4_unit2_bn2"
  batch_norm_param {
    use_global_stats: false
    moving_average_fraction: 0.9
    eps: 2e-05
  }
}
layer {
  name: "stage4_unit2_bn2_scale"
  type: "Scale"
  bottom: "stage4_unit2_bn2"
  top: "stage4_unit2_bn2"
  scale_param {
    bias_term: true
  }
}
layer {
  name: "stage4_unit2_relu1"
  type: "ReLU"
  bottom: "stage4_unit2_bn2"
  top: "stage4_unit2_relu1"
}
layer {
  name: "stage4_unit2_conv2"
  type: "Convolution"
  bottom: "stage4_unit2_relu1"
  top: "stage4_unit2_conv2"
  param {
    lr_mult: 1
    decay_mult: 1
  }
  convolution_param {
    num_output: 512
    bias_term: false
    pad: 1
    kernel_size: 3
    stride: 1
    weight_filler {
      type: "gaussian"
      std: 0.01
    }
    engine: CAFFE
  }
}
layer {
  name: "stage4_unit2_bn3"
  type: "BatchNorm"
  bottom: "stage4_unit2_conv2"
  top: "stage4_unit2_bn3"
  batch_norm_param {
    use_global_stats: false
    moving_average_fraction: 0.9
    eps: 2e-05
  }
}
layer {
  name: "stage4_unit2_bn3_scale"
  type: "Scale"
  bottom: "stage4_unit2_bn3"
  top: "stage4_unit2_bn3"
  scale_param {
    bias_term: true
  }
}
layer {
  name: "_plus7"
  type: "Eltwise"
  bottom: "stage4_unit2_bn3"
  bottom: "_plus6"
  top: "_plus7"
  eltwise_param {
    operation: SUM
  }
}
layer {
  name: "bn1"
  type: "BatchNorm"
  bottom: "_plus7"
  top: "bn1"
  batch_norm_param {
    use_global_stats: false
    moving_average_fraction: 0.9
    eps: 2e-05
  }
}
layer {
  name: "bn1_scale"
  type: "Scale"
  bottom: "bn1"
  top: "bn1"
  scale_param {
    bias_term: true
  }
}
layer {
  name: "fc8"
  type: "InnerProduct"
  bottom: "bn1"
  top: "fc8"
  param {
    lr_mult: 1
    decay_mult: 1
  }
  param {
    lr_mult: 2
    decay_mult: 0
  }
  inner_product_param {
    num_output: 2
    weight_filler {
      type: "msra"
      std: 0.01
    }
    bias_filler {
      type: "constant"
      value: 0
    }
  }
}
layer {
  name: "accuracy"
  type: "Accuracy"
  bottom: "fc8"
  bottom: "label"
  top: "accuracy"
  include {
    phase: TEST
  }
}
layer {
  name: "loss"
  type: "WeightedSoftmaxWithLoss"
  bottom: "fc8"
  bottom: "label"
  top: "loss"
  softmax_param {
    pos_mult: 5
    pos_cid: 1
  }
}
I1213 10:25:09.419641 25895 layer_factory.hpp:77] Creating layer data
I1213 10:25:09.420344 25895 db_lmdb.cpp:35] Opened lmdb /home/lc/gender/dushanzi/data/val.lmdb
I1213 10:25:09.420487 25895 net.cpp:84] Creating Layer data
I1213 10:25:09.420552 25895 net.cpp:380] data -> data
I1213 10:25:09.420591 25895 net.cpp:380] data -> label
I1213 10:25:09.421077 25895 data_layer.cpp:45] output data size: 10,3,200,200
I1213 10:25:09.459291 25895 net.cpp:122] Setting up data
I1213 10:25:09.459342 25895 net.cpp:129] Top shape: 10 3 200 200 (1200000)
I1213 10:25:09.459352 25895 net.cpp:129] Top shape: 10 (10)
I1213 10:25:09.459358 25895 net.cpp:137] Memory required for data: 4800040
I1213 10:25:09.459372 25895 layer_factory.hpp:77] Creating layer label_data_1_split
I1213 10:25:09.459395 25895 net.cpp:84] Creating Layer label_data_1_split
I1213 10:25:09.459404 25895 net.cpp:406] label_data_1_split <- label
I1213 10:25:09.459420 25895 net.cpp:380] label_data_1_split -> label_data_1_split_0
I1213 10:25:09.459441 25895 net.cpp:380] label_data_1_split -> label_data_1_split_1
I1213 10:25:09.459519 25895 net.cpp:122] Setting up label_data_1_split
I1213 10:25:09.459530 25895 net.cpp:129] Top shape: 10 (10)
I1213 10:25:09.459538 25895 net.cpp:129] Top shape: 10 (10)
I1213 10:25:09.459545 25895 net.cpp:137] Memory required for data: 4800120
I1213 10:25:09.459553 25895 layer_factory.hpp:77] Creating layer conv0
I1213 10:25:09.459578 25895 net.cpp:84] Creating Layer conv0
I1213 10:25:09.459584 25895 net.cpp:406] conv0 <- data
I1213 10:25:09.459596 25895 net.cpp:380] conv0 -> conv0
I1213 10:25:09.459972 25895 net.cpp:122] Setting up conv0
I1213 10:25:09.459988 25895 net.cpp:129] Top shape: 10 64 200 200 (25600000)
I1213 10:25:09.459995 25895 net.cpp:137] Memory required for data: 107200120
I1213 10:25:09.460013 25895 layer_factory.hpp:77] Creating layer bn0
I1213 10:25:09.460026 25895 net.cpp:84] Creating Layer bn0
I1213 10:25:09.460034 25895 net.cpp:406] bn0 <- conv0
I1213 10:25:09.460044 25895 net.cpp:380] bn0 -> bn0
I1213 10:25:09.460400 25895 net.cpp:122] Setting up bn0
I1213 10:25:09.460415 25895 net.cpp:129] Top shape: 10 64 200 200 (25600000)
I1213 10:25:09.460423 25895 net.cpp:137] Memory required for data: 209600120
I1213 10:25:09.460444 25895 layer_factory.hpp:77] Creating layer bn0_scale
I1213 10:25:09.460459 25895 net.cpp:84] Creating Layer bn0_scale
I1213 10:25:09.460467 25895 net.cpp:406] bn0_scale <- bn0
I1213 10:25:09.460479 25895 net.cpp:367] bn0_scale -> bn0 (in-place)
I1213 10:25:09.460543 25895 layer_factory.hpp:77] Creating layer bn0_scale
I1213 10:25:09.460857 25895 net.cpp:122] Setting up bn0_scale
I1213 10:25:09.460871 25895 net.cpp:129] Top shape: 10 64 200 200 (25600000)
I1213 10:25:09.460878 25895 net.cpp:137] Memory required for data: 312000120
I1213 10:25:09.460893 25895 layer_factory.hpp:77] Creating layer relu0
I1213 10:25:09.460906 25895 net.cpp:84] Creating Layer relu0
I1213 10:25:09.460912 25895 net.cpp:406] relu0 <- bn0
I1213 10:25:09.460924 25895 net.cpp:380] relu0 -> relu0
I1213 10:25:09.461402 25895 net.cpp:122] Setting up relu0
I1213 10:25:09.461423 25895 net.cpp:129] Top shape: 10 64 200 200 (25600000)
I1213 10:25:09.461431 25895 net.cpp:137] Memory required for data: 414400120
I1213 10:25:09.461439 25895 layer_factory.hpp:77] Creating layer relu0_relu0_0_split
I1213 10:25:09.461478 25895 net.cpp:84] Creating Layer relu0_relu0_0_split
I1213 10:25:09.461488 25895 net.cpp:406] relu0_relu0_0_split <- relu0
I1213 10:25:09.461500 25895 net.cpp:380] relu0_relu0_0_split -> relu0_relu0_0_split_0
I1213 10:25:09.461515 25895 net.cpp:380] relu0_relu0_0_split -> relu0_relu0_0_split_1
I1213 10:25:09.461578 25895 net.cpp:122] Setting up relu0_relu0_0_split
I1213 10:25:09.461591 25895 net.cpp:129] Top shape: 10 64 200 200 (25600000)
I1213 10:25:09.461601 25895 net.cpp:129] Top shape: 10 64 200 200 (25600000)
I1213 10:25:09.461608 25895 net.cpp:137] Memory required for data: 619200120
I1213 10:25:09.461616 25895 layer_factory.hpp:77] Creating layer stage1_unit1_bn1
I1213 10:25:09.461627 25895 net.cpp:84] Creating Layer stage1_unit1_bn1
I1213 10:25:09.461635 25895 net.cpp:406] stage1_unit1_bn1 <- relu0_relu0_0_split_0
I1213 10:25:09.461647 25895 net.cpp:380] stage1_unit1_bn1 -> stage1_unit1_bn1
I1213 10:25:09.462019 25895 net.cpp:122] Setting up stage1_unit1_bn1
I1213 10:25:09.462033 25895 net.cpp:129] Top shape: 10 64 200 200 (25600000)
I1213 10:25:09.462041 25895 net.cpp:137] Memory required for data: 721600120
I1213 10:25:09.462061 25895 layer_factory.hpp:77] Creating layer stage1_unit1_bn1_scale
I1213 10:25:09.462093 25895 net.cpp:84] Creating Layer stage1_unit1_bn1_scale
I1213 10:25:09.462110 25895 net.cpp:406] stage1_unit1_bn1_scale <- stage1_unit1_bn1
I1213 10:25:09.462128 25895 net.cpp:367] stage1_unit1_bn1_scale -> stage1_unit1_bn1 (in-place)
I1213 10:25:09.462198 25895 layer_factory.hpp:77] Creating layer stage1_unit1_bn1_scale
I1213 10:25:09.462568 25895 net.cpp:122] Setting up stage1_unit1_bn1_scale
I1213 10:25:09.462584 25895 net.cpp:129] Top shape: 10 64 200 200 (25600000)
I1213 10:25:09.462590 25895 net.cpp:137] Memory required for data: 824000120
I1213 10:25:09.462604 25895 layer_factory.hpp:77] Creating layer stage1_unit1_conv1
I1213 10:25:09.462623 25895 net.cpp:84] Creating Layer stage1_unit1_conv1
I1213 10:25:09.462631 25895 net.cpp:406] stage1_unit1_conv1 <- stage1_unit1_bn1
I1213 10:25:09.462643 25895 net.cpp:380] stage1_unit1_conv1 -> stage1_unit1_conv1
I1213 10:25:09.463639 25895 net.cpp:122] Setting up stage1_unit1_conv1
I1213 10:25:09.463654 25895 net.cpp:129] Top shape: 10 64 200 200 (25600000)
I1213 10:25:09.463661 25895 net.cpp:137] Memory required for data: 926400120
I1213 10:25:09.463672 25895 layer_factory.hpp:77] Creating layer stage1_unit1_bn2
I1213 10:25:09.463685 25895 net.cpp:84] Creating Layer stage1_unit1_bn2
I1213 10:25:09.463692 25895 net.cpp:406] stage1_unit1_bn2 <- stage1_unit1_conv1
I1213 10:25:09.463703 25895 net.cpp:380] stage1_unit1_bn2 -> stage1_unit1_bn2
I1213 10:25:09.464079 25895 net.cpp:122] Setting up stage1_unit1_bn2
I1213 10:25:09.464093 25895 net.cpp:129] Top shape: 10 64 200 200 (25600000)
I1213 10:25:09.464100 25895 net.cpp:137] Memory required for data: 1028800120
I1213 10:25:09.464115 25895 layer_factory.hpp:77] Creating layer stage1_unit1_bn2_scale
I1213 10:25:09.464128 25895 net.cpp:84] Creating Layer stage1_unit1_bn2_scale
I1213 10:25:09.464135 25895 net.cpp:406] stage1_unit1_bn2_scale <- stage1_unit1_bn2
I1213 10:25:09.464146 25895 net.cpp:367] stage1_unit1_bn2_scale -> stage1_unit1_bn2 (in-place)
I1213 10:25:09.464205 25895 layer_factory.hpp:77] Creating layer stage1_unit1_bn2_scale
I1213 10:25:09.464526 25895 net.cpp:122] Setting up stage1_unit1_bn2_scale
I1213 10:25:09.464542 25895 net.cpp:129] Top shape: 10 64 200 200 (25600000)
I1213 10:25:09.464548 25895 net.cpp:137] Memory required for data: 1131200120
I1213 10:25:09.464565 25895 layer_factory.hpp:77] Creating layer stage1_unit1_relu1
I1213 10:25:09.464577 25895 net.cpp:84] Creating Layer stage1_unit1_relu1
I1213 10:25:09.464586 25895 net.cpp:406] stage1_unit1_relu1 <- stage1_unit1_bn2
I1213 10:25:09.464597 25895 net.cpp:380] stage1_unit1_relu1 -> stage1_unit1_relu1
I1213 10:25:09.464874 25895 net.cpp:122] Setting up stage1_unit1_relu1
I1213 10:25:09.464900 25895 net.cpp:129] Top shape: 10 64 200 200 (25600000)
I1213 10:25:09.464905 25895 net.cpp:137] Memory required for data: 1233600120
I1213 10:25:09.464910 25895 layer_factory.hpp:77] Creating layer stage1_unit1_conv2
I1213 10:25:09.464926 25895 net.cpp:84] Creating Layer stage1_unit1_conv2
I1213 10:25:09.464936 25895 net.cpp:406] stage1_unit1_conv2 <- stage1_unit1_relu1
I1213 10:25:09.464944 25895 net.cpp:380] stage1_unit1_conv2 -> stage1_unit1_conv2
I1213 10:25:09.465765 25895 net.cpp:122] Setting up stage1_unit1_conv2
I1213 10:25:09.465780 25895 net.cpp:129] Top shape: 10 64 100 100 (6400000)
I1213 10:25:09.465785 25895 net.cpp:137] Memory required for data: 1259200120
I1213 10:25:09.465793 25895 layer_factory.hpp:77] Creating layer stage1_unit1_bn3
I1213 10:25:09.465811 25895 net.cpp:84] Creating Layer stage1_unit1_bn3
I1213 10:25:09.465821 25895 net.cpp:406] stage1_unit1_bn3 <- stage1_unit1_conv2
I1213 10:25:09.465828 25895 net.cpp:380] stage1_unit1_bn3 -> stage1_unit1_bn3
I1213 10:25:09.466092 25895 net.cpp:122] Setting up stage1_unit1_bn3
I1213 10:25:09.466100 25895 net.cpp:129] Top shape: 10 64 100 100 (6400000)
I1213 10:25:09.466105 25895 net.cpp:137] Memory required for data: 1284800120
I1213 10:25:09.466114 25895 layer_factory.hpp:77] Creating layer stage1_unit1_bn3_scale
I1213 10:25:09.466123 25895 net.cpp:84] Creating Layer stage1_unit1_bn3_scale
I1213 10:25:09.466128 25895 net.cpp:406] stage1_unit1_bn3_scale <- stage1_unit1_bn3
I1213 10:25:09.466135 25895 net.cpp:367] stage1_unit1_bn3_scale -> stage1_unit1_bn3 (in-place)
I1213 10:25:09.466179 25895 layer_factory.hpp:77] Creating layer stage1_unit1_bn3_scale
I1213 10:25:09.466341 25895 net.cpp:122] Setting up stage1_unit1_bn3_scale
I1213 10:25:09.466349 25895 net.cpp:129] Top shape: 10 64 100 100 (6400000)
I1213 10:25:09.466354 25895 net.cpp:137] Memory required for data: 1310400120
I1213 10:25:09.466361 25895 layer_factory.hpp:77] Creating layer stage1_unit1_conv1sc
I1213 10:25:09.466375 25895 net.cpp:84] Creating Layer stage1_unit1_conv1sc
I1213 10:25:09.466379 25895 net.cpp:406] stage1_unit1_conv1sc <- relu0_relu0_0_split_1
I1213 10:25:09.466387 25895 net.cpp:380] stage1_unit1_conv1sc -> stage1_unit1_conv1sc
I1213 10:25:09.466629 25895 net.cpp:122] Setting up stage1_unit1_conv1sc
I1213 10:25:09.466637 25895 net.cpp:129] Top shape: 10 64 100 100 (6400000)
I1213 10:25:09.466641 25895 net.cpp:137] Memory required for data: 1336000120
I1213 10:25:09.466646 25895 layer_factory.hpp:77] Creating layer stage1_unit1_sc
I1213 10:25:09.466692 25895 net.cpp:84] Creating Layer stage1_unit1_sc
I1213 10:25:09.466697 25895 net.cpp:406] stage1_unit1_sc <- stage1_unit1_conv1sc
I1213 10:25:09.466704 25895 net.cpp:380] stage1_unit1_sc -> stage1_unit1_sc
I1213 10:25:09.467043 25895 net.cpp:122] Setting up stage1_unit1_sc
I1213 10:25:09.467056 25895 net.cpp:129] Top shape: 10 64 100 100 (6400000)
I1213 10:25:09.467059 25895 net.cpp:137] Memory required for data: 1361600120
I1213 10:25:09.467068 25895 layer_factory.hpp:77] Creating layer stage1_unit1_sc_scale
I1213 10:25:09.467077 25895 net.cpp:84] Creating Layer stage1_unit1_sc_scale
I1213 10:25:09.467082 25895 net.cpp:406] stage1_unit1_sc_scale <- stage1_unit1_sc
I1213 10:25:09.467088 25895 net.cpp:367] stage1_unit1_sc_scale -> stage1_unit1_sc (in-place)
I1213 10:25:09.467546 25895 layer_factory.hpp:77] Creating layer stage1_unit1_sc_scale
I1213 10:25:09.468874 25895 net.cpp:122] Setting up stage1_unit1_sc_scale
I1213 10:25:09.468891 25895 net.cpp:129] Top shape: 10 64 100 100 (6400000)
I1213 10:25:09.468896 25895 net.cpp:137] Memory required for data: 1387200120
I1213 10:25:09.468904 25895 layer_factory.hpp:77] Creating layer _plus0
I1213 10:25:09.468915 25895 net.cpp:84] Creating Layer _plus0
I1213 10:25:09.468920 25895 net.cpp:406] _plus0 <- stage1_unit1_bn3
I1213 10:25:09.468926 25895 net.cpp:406] _plus0 <- stage1_unit1_sc
I1213 10:25:09.468933 25895 net.cpp:380] _plus0 -> _plus0
I1213 10:25:09.468967 25895 net.cpp:122] Setting up _plus0
I1213 10:25:09.468976 25895 net.cpp:129] Top shape: 10 64 100 100 (6400000)
I1213 10:25:09.468981 25895 net.cpp:137] Memory required for data: 1412800120
I1213 10:25:09.468984 25895 layer_factory.hpp:77] Creating layer _plus0__plus0_0_split
I1213 10:25:09.468991 25895 net.cpp:84] Creating Layer _plus0__plus0_0_split
I1213 10:25:09.468997 25895 net.cpp:406] _plus0__plus0_0_split <- _plus0
I1213 10:25:09.469004 25895 net.cpp:380] _plus0__plus0_0_split -> _plus0__plus0_0_split_0
I1213 10:25:09.469012 25895 net.cpp:380] _plus0__plus0_0_split -> _plus0__plus0_0_split_1
I1213 10:25:09.469067 25895 net.cpp:122] Setting up _plus0__plus0_0_split
I1213 10:25:09.469074 25895 net.cpp:129] Top shape: 10 64 100 100 (6400000)
I1213 10:25:09.469081 25895 net.cpp:129] Top shape: 10 64 100 100 (6400000)
I1213 10:25:09.469084 25895 net.cpp:137] Memory required for data: 1464000120
I1213 10:25:09.469089 25895 layer_factory.hpp:77] Creating layer stage1_unit2_bn1
I1213 10:25:09.469095 25895 net.cpp:84] Creating Layer stage1_unit2_bn1
I1213 10:25:09.469100 25895 net.cpp:406] stage1_unit2_bn1 <- _plus0__plus0_0_split_0
I1213 10:25:09.469107 25895 net.cpp:380] stage1_unit2_bn1 -> stage1_unit2_bn1
I1213 10:25:09.469321 25895 net.cpp:122] Setting up stage1_unit2_bn1
I1213 10:25:09.469329 25895 net.cpp:129] Top shape: 10 64 100 100 (6400000)
I1213 10:25:09.469333 25895 net.cpp:137] Memory required for data: 1489600120
I1213 10:25:09.469341 25895 layer_factory.hpp:77] Creating layer stage1_unit2_bn1_scale
I1213 10:25:09.469349 25895 net.cpp:84] Creating Layer stage1_unit2_bn1_scale
I1213 10:25:09.469354 25895 net.cpp:406] stage1_unit2_bn1_scale <- stage1_unit2_bn1
I1213 10:25:09.469360 25895 net.cpp:367] stage1_unit2_bn1_scale -> stage1_unit2_bn1 (in-place)
I1213 10:25:09.469399 25895 layer_factory.hpp:77] Creating layer stage1_unit2_bn1_scale
I1213 10:25:09.469527 25895 net.cpp:122] Setting up stage1_unit2_bn1_scale
I1213 10:25:09.469534 25895 net.cpp:129] Top shape: 10 64 100 100 (6400000)
I1213 10:25:09.469539 25895 net.cpp:137] Memory required for data: 1515200120
I1213 10:25:09.469552 25895 layer_factory.hpp:77] Creating layer stage1_unit2_conv1
I1213 10:25:09.469563 25895 net.cpp:84] Creating Layer stage1_unit2_conv1
I1213 10:25:09.469568 25895 net.cpp:406] stage1_unit2_conv1 <- stage1_unit2_bn1
I1213 10:25:09.469575 25895 net.cpp:380] stage1_unit2_conv1 -> stage1_unit2_conv1
I1213 10:25:09.470199 25895 net.cpp:122] Setting up stage1_unit2_conv1
I1213 10:25:09.470211 25895 net.cpp:129] Top shape: 10 64 100 100 (6400000)
I1213 10:25:09.470216 25895 net.cpp:137] Memory required for data: 1540800120
I1213 10:25:09.470222 25895 layer_factory.hpp:77] Creating layer stage1_unit2_bn2
I1213 10:25:09.470232 25895 net.cpp:84] Creating Layer stage1_unit2_bn2
I1213 10:25:09.470235 25895 net.cpp:406] stage1_unit2_bn2 <- stage1_unit2_conv1
I1213 10:25:09.470242 25895 net.cpp:380] stage1_unit2_bn2 -> stage1_unit2_bn2
I1213 10:25:09.470443 25895 net.cpp:122] Setting up stage1_unit2_bn2
I1213 10:25:09.470451 25895 net.cpp:129] Top shape: 10 64 100 100 (6400000)
I1213 10:25:09.470454 25895 net.cpp:137] Memory required for data: 1566400120
I1213 10:25:09.470463 25895 layer_factory.hpp:77] Creating layer stage1_unit2_bn2_scale
I1213 10:25:09.470471 25895 net.cpp:84] Creating Layer stage1_unit2_bn2_scale
I1213 10:25:09.470477 25895 net.cpp:406] stage1_unit2_bn2_scale <- stage1_unit2_bn2
I1213 10:25:09.470485 25895 net.cpp:367] stage1_unit2_bn2_scale -> stage1_unit2_bn2 (in-place)
I1213 10:25:09.470561 25895 layer_factory.hpp:77] Creating layer stage1_unit2_bn2_scale
I1213 10:25:09.470732 25895 net.cpp:122] Setting up stage1_unit2_bn2_scale
I1213 10:25:09.470760 25895 net.cpp:129] Top shape: 10 64 100 100 (6400000)
I1213 10:25:09.470780 25895 net.cpp:137] Memory required for data: 1592000120
I1213 10:25:09.470788 25895 layer_factory.hpp:77] Creating layer stage1_unit2_relu1
I1213 10:25:09.470796 25895 net.cpp:84] Creating Layer stage1_unit2_relu1
I1213 10:25:09.470800 25895 net.cpp:406] stage1_unit2_relu1 <- stage1_unit2_bn2
I1213 10:25:09.470808 25895 net.cpp:380] stage1_unit2_relu1 -> stage1_unit2_relu1
I1213 10:25:09.471843 25895 net.cpp:122] Setting up stage1_unit2_relu1
I1213 10:25:09.471858 25895 net.cpp:129] Top shape: 10 64 100 100 (6400000)
I1213 10:25:09.471863 25895 net.cpp:137] Memory required for data: 1617600120
I1213 10:25:09.471868 25895 layer_factory.hpp:77] Creating layer stage1_unit2_conv2
I1213 10:25:09.471892 25895 net.cpp:84] Creating Layer stage1_unit2_conv2
I1213 10:25:09.471899 25895 net.cpp:406] stage1_unit2_conv2 <- stage1_unit2_relu1
I1213 10:25:09.471907 25895 net.cpp:380] stage1_unit2_conv2 -> stage1_unit2_conv2
I1213 10:25:09.472538 25895 net.cpp:122] Setting up stage1_unit2_conv2
I1213 10:25:09.472549 25895 net.cpp:129] Top shape: 10 64 100 100 (6400000)
I1213 10:25:09.472553 25895 net.cpp:137] Memory required for data: 1643200120
I1213 10:25:09.472575 25895 layer_factory.hpp:77] Creating layer stage1_unit2_bn3
I1213 10:25:09.472584 25895 net.cpp:84] Creating Layer stage1_unit2_bn3
I1213 10:25:09.472589 25895 net.cpp:406] stage1_unit2_bn3 <- stage1_unit2_conv2
I1213 10:25:09.472596 25895 net.cpp:380] stage1_unit2_bn3 -> stage1_unit2_bn3
I1213 10:25:09.472817 25895 net.cpp:122] Setting up stage1_unit2_bn3
I1213 10:25:09.472831 25895 net.cpp:129] Top shape: 10 64 100 100 (6400000)
I1213 10:25:09.472837 25895 net.cpp:137] Memory required for data: 1668800120
I1213 10:25:09.472852 25895 layer_factory.hpp:77] Creating layer stage1_unit2_bn3_scale
I1213 10:25:09.472868 25895 net.cpp:84] Creating Layer stage1_unit2_bn3_scale
I1213 10:25:09.472877 25895 net.cpp:406] stage1_unit2_bn3_scale <- stage1_unit2_bn3
I1213 10:25:09.472887 25895 net.cpp:367] stage1_unit2_bn3_scale -> stage1_unit2_bn3 (in-place)
I1213 10:25:09.472934 25895 layer_factory.hpp:77] Creating layer stage1_unit2_bn3_scale
I1213 10:25:09.473064 25895 net.cpp:122] Setting up stage1_unit2_bn3_scale
I1213 10:25:09.473073 25895 net.cpp:129] Top shape: 10 64 100 100 (6400000)
I1213 10:25:09.473078 25895 net.cpp:137] Memory required for data: 1694400120
I1213 10:25:09.473086 25895 layer_factory.hpp:77] Creating layer _plus1
I1213 10:25:09.473095 25895 net.cpp:84] Creating Layer _plus1
I1213 10:25:09.473100 25895 net.cpp:406] _plus1 <- stage1_unit2_bn3
I1213 10:25:09.473105 25895 net.cpp:406] _plus1 <- _plus0__plus0_0_split_1
I1213 10:25:09.473112 25895 net.cpp:380] _plus1 -> _plus1
I1213 10:25:09.473139 25895 net.cpp:122] Setting up _plus1
I1213 10:25:09.473147 25895 net.cpp:129] Top shape: 10 64 100 100 (6400000)
I1213 10:25:09.473151 25895 net.cpp:137] Memory required for data: 1720000120
I1213 10:25:09.473156 25895 layer_factory.hpp:77] Creating layer _plus1__plus1_0_split
I1213 10:25:09.473163 25895 net.cpp:84] Creating Layer _plus1__plus1_0_split
I1213 10:25:09.473167 25895 net.cpp:406] _plus1__plus1_0_split <- _plus1
I1213 10:25:09.473174 25895 net.cpp:380] _plus1__plus1_0_split -> _plus1__plus1_0_split_0
I1213 10:25:09.473183 25895 net.cpp:380] _plus1__plus1_0_split -> _plus1__plus1_0_split_1
I1213 10:25:09.473217 25895 net.cpp:122] Setting up _plus1__plus1_0_split
I1213 10:25:09.473225 25895 net.cpp:129] Top shape: 10 64 100 100 (6400000)
I1213 10:25:09.473232 25895 net.cpp:129] Top shape: 10 64 100 100 (6400000)
I1213 10:25:09.473237 25895 net.cpp:137] Memory required for data: 1771200120
I1213 10:25:09.473240 25895 layer_factory.hpp:77] Creating layer stage2_unit1_bn1
I1213 10:25:09.473251 25895 net.cpp:84] Creating Layer stage2_unit1_bn1
I1213 10:25:09.473256 25895 net.cpp:406] stage2_unit1_bn1 <- _plus1__plus1_0_split_0
I1213 10:25:09.473263 25895 net.cpp:380] stage2_unit1_bn1 -> stage2_unit1_bn1
I1213 10:25:09.473466 25895 net.cpp:122] Setting up stage2_unit1_bn1
I1213 10:25:09.473474 25895 net.cpp:129] Top shape: 10 64 100 100 (6400000)
I1213 10:25:09.473479 25895 net.cpp:137] Memory required for data: 1796800120
I1213 10:25:09.473489 25895 layer_factory.hpp:77] Creating layer stage2_unit1_bn1_scale
I1213 10:25:09.473497 25895 net.cpp:84] Creating Layer stage2_unit1_bn1_scale
I1213 10:25:09.473501 25895 net.cpp:406] stage2_unit1_bn1_scale <- stage2_unit1_bn1
I1213 10:25:09.473508 25895 net.cpp:367] stage2_unit1_bn1_scale -> stage2_unit1_bn1 (in-place)
I1213 10:25:09.473547 25895 layer_factory.hpp:77] Creating layer stage2_unit1_bn1_scale
I1213 10:25:09.473678 25895 net.cpp:122] Setting up stage2_unit1_bn1_scale
I1213 10:25:09.473686 25895 net.cpp:129] Top shape: 10 64 100 100 (6400000)
I1213 10:25:09.473691 25895 net.cpp:137] Memory required for data: 1822400120
I1213 10:25:09.473698 25895 layer_factory.hpp:77] Creating layer stage2_unit1_conv1
I1213 10:25:09.473711 25895 net.cpp:84] Creating Layer stage2_unit1_conv1
I1213 10:25:09.473716 25895 net.cpp:406] stage2_unit1_conv1 <- stage2_unit1_bn1
I1213 10:25:09.473723 25895 net.cpp:380] stage2_unit1_conv1 -> stage2_unit1_conv1
I1213 10:25:09.474766 25895 net.cpp:122] Setting up stage2_unit1_conv1
I1213 10:25:09.474778 25895 net.cpp:129] Top shape: 10 128 100 100 (12800000)
I1213 10:25:09.474783 25895 net.cpp:137] Memory required for data: 1873600120
I1213 10:25:09.474789 25895 layer_factory.hpp:77] Creating layer stage2_unit1_bn2
I1213 10:25:09.474797 25895 net.cpp:84] Creating Layer stage2_unit1_bn2
I1213 10:25:09.474803 25895 net.cpp:406] stage2_unit1_bn2 <- stage2_unit1_conv1
I1213 10:25:09.474810 25895 net.cpp:380] stage2_unit1_bn2 -> stage2_unit1_bn2
I1213 10:25:09.475021 25895 net.cpp:122] Setting up stage2_unit1_bn2
I1213 10:25:09.475031 25895 net.cpp:129] Top shape: 10 128 100 100 (12800000)
I1213 10:25:09.475035 25895 net.cpp:137] Memory required for data: 1924800120
I1213 10:25:09.475044 25895 layer_factory.hpp:77] Creating layer stage2_unit1_bn2_scale
I1213 10:25:09.475052 25895 net.cpp:84] Creating Layer stage2_unit1_bn2_scale
I1213 10:25:09.475057 25895 net.cpp:406] stage2_unit1_bn2_scale <- stage2_unit1_bn2
I1213 10:25:09.475064 25895 net.cpp:367] stage2_unit1_bn2_scale -> stage2_unit1_bn2 (in-place)
I1213 10:25:09.475116 25895 layer_factory.hpp:77] Creating layer stage2_unit1_bn2_scale
I1213 10:25:09.475231 25895 net.cpp:122] Setting up stage2_unit1_bn2_scale
I1213 10:25:09.475240 25895 net.cpp:129] Top shape: 10 128 100 100 (12800000)
I1213 10:25:09.475244 25895 net.cpp:137] Memory required for data: 1976000120
I1213 10:25:09.475260 25895 layer_factory.hpp:77] Creating layer stage2_unit1_relu1
I1213 10:25:09.475267 25895 net.cpp:84] Creating Layer stage2_unit1_relu1
I1213 10:25:09.475272 25895 net.cpp:406] stage2_unit1_relu1 <- stage2_unit1_bn2
I1213 10:25:09.475280 25895 net.cpp:380] stage2_unit1_relu1 -> stage2_unit1_relu1
I1213 10:25:09.475414 25895 net.cpp:122] Setting up stage2_unit1_relu1
I1213 10:25:09.475425 25895 net.cpp:129] Top shape: 10 128 100 100 (12800000)
I1213 10:25:09.475430 25895 net.cpp:137] Memory required for data: 2027200120
I1213 10:25:09.475433 25895 layer_factory.hpp:77] Creating layer stage2_unit1_conv2
I1213 10:25:09.475445 25895 net.cpp:84] Creating Layer stage2_unit1_conv2
I1213 10:25:09.475450 25895 net.cpp:406] stage2_unit1_conv2 <- stage2_unit1_relu1
I1213 10:25:09.475458 25895 net.cpp:380] stage2_unit1_conv2 -> stage2_unit1_conv2
I1213 10:25:09.477305 25895 net.cpp:122] Setting up stage2_unit1_conv2
I1213 10:25:09.477314 25895 net.cpp:129] Top shape: 10 128 50 50 (3200000)
I1213 10:25:09.477319 25895 net.cpp:137] Memory required for data: 2040000120
I1213 10:25:09.477325 25895 layer_factory.hpp:77] Creating layer stage2_unit1_bn3
I1213 10:25:09.477334 25895 net.cpp:84] Creating Layer stage2_unit1_bn3
I1213 10:25:09.477339 25895 net.cpp:406] stage2_unit1_bn3 <- stage2_unit1_conv2
I1213 10:25:09.477346 25895 net.cpp:380] stage2_unit1_bn3 -> stage2_unit1_bn3
I1213 10:25:09.477555 25895 net.cpp:122] Setting up stage2_unit1_bn3
I1213 10:25:09.477563 25895 net.cpp:129] Top shape: 10 128 50 50 (3200000)
I1213 10:25:09.477567 25895 net.cpp:137] Memory required for data: 2052800120
I1213 10:25:09.477576 25895 layer_factory.hpp:77] Creating layer stage2_unit1_bn3_scale
I1213 10:25:09.477584 25895 net.cpp:84] Creating Layer stage2_unit1_bn3_scale
I1213 10:25:09.477589 25895 net.cpp:406] stage2_unit1_bn3_scale <- stage2_unit1_bn3
I1213 10:25:09.477596 25895 net.cpp:367] stage2_unit1_bn3_scale -> stage2_unit1_bn3 (in-place)
I1213 10:25:09.477679 25895 layer_factory.hpp:77] Creating layer stage2_unit1_bn3_scale
I1213 10:25:09.477792 25895 net.cpp:122] Setting up stage2_unit1_bn3_scale
I1213 10:25:09.477800 25895 net.cpp:129] Top shape: 10 128 50 50 (3200000)
I1213 10:25:09.477804 25895 net.cpp:137] Memory required for data: 2065600120
I1213 10:25:09.477811 25895 layer_factory.hpp:77] Creating layer stage2_unit1_conv1sc
I1213 10:25:09.477823 25895 net.cpp:84] Creating Layer stage2_unit1_conv1sc
I1213 10:25:09.477828 25895 net.cpp:406] stage2_unit1_conv1sc <- _plus1__plus1_0_split_1
I1213 10:25:09.477836 25895 net.cpp:380] stage2_unit1_conv1sc -> stage2_unit1_conv1sc
I1213 10:25:09.478114 25895 net.cpp:122] Setting up stage2_unit1_conv1sc
I1213 10:25:09.478123 25895 net.cpp:129] Top shape: 10 128 50 50 (3200000)
I1213 10:25:09.478128 25895 net.cpp:137] Memory required for data: 2078400120
I1213 10:25:09.478133 25895 layer_factory.hpp:77] Creating layer stage2_unit1_sc
I1213 10:25:09.478142 25895 net.cpp:84] Creating Layer stage2_unit1_sc
I1213 10:25:09.478147 25895 net.cpp:406] stage2_unit1_sc <- stage2_unit1_conv1sc
I1213 10:25:09.478155 25895 net.cpp:380] stage2_unit1_sc -> stage2_unit1_sc
I1213 10:25:09.478346 25895 net.cpp:122] Setting up stage2_unit1_sc
I1213 10:25:09.478355 25895 net.cpp:129] Top shape: 10 128 50 50 (3200000)
I1213 10:25:09.478359 25895 net.cpp:137] Memory required for data: 2091200120
I1213 10:25:09.478375 25895 layer_factory.hpp:77] Creating layer stage2_unit1_sc_scale
I1213 10:25:09.478384 25895 net.cpp:84] Creating Layer stage2_unit1_sc_scale
I1213 10:25:09.478389 25895 net.cpp:406] stage2_unit1_sc_scale <- stage2_unit1_sc
I1213 10:25:09.478396 25895 net.cpp:367] stage2_unit1_sc_scale -> stage2_unit1_sc (in-place)
I1213 10:25:09.478437 25895 layer_factory.hpp:77] Creating layer stage2_unit1_sc_scale
I1213 10:25:09.478543 25895 net.cpp:122] Setting up stage2_unit1_sc_scale
I1213 10:25:09.478552 25895 net.cpp:129] Top shape: 10 128 50 50 (3200000)
I1213 10:25:09.478557 25895 net.cpp:137] Memory required for data: 2104000120
I1213 10:25:09.478564 25895 layer_factory.hpp:77] Creating layer _plus2
I1213 10:25:09.478571 25895 net.cpp:84] Creating Layer _plus2
I1213 10:25:09.478576 25895 net.cpp:406] _plus2 <- stage2_unit1_bn3
I1213 10:25:09.478582 25895 net.cpp:406] _plus2 <- stage2_unit1_sc
I1213 10:25:09.478590 25895 net.cpp:380] _plus2 -> _plus2
I1213 10:25:09.478615 25895 net.cpp:122] Setting up _plus2
I1213 10:25:09.478622 25895 net.cpp:129] Top shape: 10 128 50 50 (3200000)
I1213 10:25:09.478627 25895 net.cpp:137] Memory required for data: 2116800120
I1213 10:25:09.478631 25895 layer_factory.hpp:77] Creating layer _plus2__plus2_0_split
I1213 10:25:09.478638 25895 net.cpp:84] Creating Layer _plus2__plus2_0_split
I1213 10:25:09.478642 25895 net.cpp:406] _plus2__plus2_0_split <- _plus2
I1213 10:25:09.478649 25895 net.cpp:380] _plus2__plus2_0_split -> _plus2__plus2_0_split_0
I1213 10:25:09.478679 25895 net.cpp:380] _plus2__plus2_0_split -> _plus2__plus2_0_split_1
I1213 10:25:09.478749 25895 net.cpp:122] Setting up _plus2__plus2_0_split
I1213 10:25:09.478806 25895 net.cpp:129] Top shape: 10 128 50 50 (3200000)
I1213 10:25:09.478813 25895 net.cpp:129] Top shape: 10 128 50 50 (3200000)
I1213 10:25:09.478817 25895 net.cpp:137] Memory required for data: 2142400120
I1213 10:25:09.478826 25895 layer_factory.hpp:77] Creating layer stage2_unit2_bn1
I1213 10:25:09.478840 25895 net.cpp:84] Creating Layer stage2_unit2_bn1
I1213 10:25:09.478858 25895 net.cpp:406] stage2_unit2_bn1 <- _plus2__plus2_0_split_0
I1213 10:25:09.478896 25895 net.cpp:380] stage2_unit2_bn1 -> stage2_unit2_bn1
I1213 10:25:09.479228 25895 net.cpp:122] Setting up stage2_unit2_bn1
I1213 10:25:09.479238 25895 net.cpp:129] Top shape: 10 128 50 50 (3200000)
I1213 10:25:09.479240 25895 net.cpp:137] Memory required for data: 2155200120
I1213 10:25:09.479272 25895 layer_factory.hpp:77] Creating layer stage2_unit2_bn1_scale
I1213 10:25:09.479281 25895 net.cpp:84] Creating Layer stage2_unit2_bn1_scale
I1213 10:25:09.479293 25895 net.cpp:406] stage2_unit2_bn1_scale <- stage2_unit2_bn1
I1213 10:25:09.479308 25895 net.cpp:367] stage2_unit2_bn1_scale -> stage2_unit2_bn1 (in-place)
I1213 10:25:09.479354 25895 layer_factory.hpp:77] Creating layer stage2_unit2_bn1_scale
I1213 10:25:09.479485 25895 net.cpp:122] Setting up stage2_unit2_bn1_scale
I1213 10:25:09.479494 25895 net.cpp:129] Top shape: 10 128 50 50 (3200000)
I1213 10:25:09.479499 25895 net.cpp:137] Memory required for data: 2168000120
I1213 10:25:09.479506 25895 layer_factory.hpp:77] Creating layer stage2_unit2_conv1
I1213 10:25:09.479526 25895 net.cpp:84] Creating Layer stage2_unit2_conv1
I1213 10:25:09.479530 25895 net.cpp:406] stage2_unit2_conv1 <- stage2_unit2_bn1
I1213 10:25:09.479542 25895 net.cpp:380] stage2_unit2_conv1 -> stage2_unit2_conv1
I1213 10:25:09.482751 25895 net.cpp:122] Setting up stage2_unit2_conv1
I1213 10:25:09.482774 25895 net.cpp:129] Top shape: 10 128 50 50 (3200000)
I1213 10:25:09.482777 25895 net.cpp:137] Memory required for data: 2180800120
I1213 10:25:09.482787 25895 layer_factory.hpp:77] Creating layer stage2_unit2_bn2
I1213 10:25:09.482798 25895 net.cpp:84] Creating Layer stage2_unit2_bn2
I1213 10:25:09.482803 25895 net.cpp:406] stage2_unit2_bn2 <- stage2_unit2_conv1
I1213 10:25:09.482810 25895 net.cpp:380] stage2_unit2_bn2 -> stage2_unit2_bn2
I1213 10:25:09.483048 25895 net.cpp:122] Setting up stage2_unit2_bn2
I1213 10:25:09.483057 25895 net.cpp:129] Top shape: 10 128 50 50 (3200000)
I1213 10:25:09.483062 25895 net.cpp:137] Memory required for data: 2193600120
I1213 10:25:09.483069 25895 layer_factory.hpp:77] Creating layer stage2_unit2_bn2_scale
I1213 10:25:09.483081 25895 net.cpp:84] Creating Layer stage2_unit2_bn2_scale
I1213 10:25:09.483086 25895 net.cpp:406] stage2_unit2_bn2_scale <- stage2_unit2_bn2
I1213 10:25:09.483093 25895 net.cpp:367] stage2_unit2_bn2_scale -> stage2_unit2_bn2 (in-place)
I1213 10:25:09.483134 25895 layer_factory.hpp:77] Creating layer stage2_unit2_bn2_scale
I1213 10:25:09.483242 25895 net.cpp:122] Setting up stage2_unit2_bn2_scale
I1213 10:25:09.483250 25895 net.cpp:129] Top shape: 10 128 50 50 (3200000)
I1213 10:25:09.483254 25895 net.cpp:137] Memory required for data: 2206400120
I1213 10:25:09.483261 25895 layer_factory.hpp:77] Creating layer stage2_unit2_relu1
I1213 10:25:09.483269 25895 net.cpp:84] Creating Layer stage2_unit2_relu1
I1213 10:25:09.483273 25895 net.cpp:406] stage2_unit2_relu1 <- stage2_unit2_bn2
I1213 10:25:09.483280 25895 net.cpp:380] stage2_unit2_relu1 -> stage2_unit2_relu1
I1213 10:25:09.485601 25895 net.cpp:122] Setting up stage2_unit2_relu1
I1213 10:25:09.485621 25895 net.cpp:129] Top shape: 10 128 50 50 (3200000)
I1213 10:25:09.485625 25895 net.cpp:137] Memory required for data: 2219200120
I1213 10:25:09.485630 25895 layer_factory.hpp:77] Creating layer stage2_unit2_conv2
I1213 10:25:09.485646 25895 net.cpp:84] Creating Layer stage2_unit2_conv2
I1213 10:25:09.485651 25895 net.cpp:406] stage2_unit2_conv2 <- stage2_unit2_relu1
I1213 10:25:09.485661 25895 net.cpp:380] stage2_unit2_conv2 -> stage2_unit2_conv2
I1213 10:25:09.487587 25895 net.cpp:122] Setting up stage2_unit2_conv2
I1213 10:25:09.487601 25895 net.cpp:129] Top shape: 10 128 50 50 (3200000)
I1213 10:25:09.487604 25895 net.cpp:137] Memory required for data: 2232000120
I1213 10:25:09.487613 25895 layer_factory.hpp:77] Creating layer stage2_unit2_bn3
I1213 10:25:09.487622 25895 net.cpp:84] Creating Layer stage2_unit2_bn3
I1213 10:25:09.487627 25895 net.cpp:406] stage2_unit2_bn3 <- stage2_unit2_conv2
I1213 10:25:09.487635 25895 net.cpp:380] stage2_unit2_bn3 -> stage2_unit2_bn3
I1213 10:25:09.487843 25895 net.cpp:122] Setting up stage2_unit2_bn3
I1213 10:25:09.487850 25895 net.cpp:129] Top shape: 10 128 50 50 (3200000)
I1213 10:25:09.487854 25895 net.cpp:137] Memory required for data: 2244800120
I1213 10:25:09.487862 25895 layer_factory.hpp:77] Creating layer stage2_unit2_bn3_scale
I1213 10:25:09.487869 25895 net.cpp:84] Creating Layer stage2_unit2_bn3_scale
I1213 10:25:09.487874 25895 net.cpp:406] stage2_unit2_bn3_scale <- stage2_unit2_bn3
I1213 10:25:09.487880 25895 net.cpp:367] stage2_unit2_bn3_scale -> stage2_unit2_bn3 (in-place)
I1213 10:25:09.487916 25895 layer_factory.hpp:77] Creating layer stage2_unit2_bn3_scale
I1213 10:25:09.488013 25895 net.cpp:122] Setting up stage2_unit2_bn3_scale
I1213 10:25:09.488020 25895 net.cpp:129] Top shape: 10 128 50 50 (3200000)
I1213 10:25:09.488024 25895 net.cpp:137] Memory required for data: 2257600120
I1213 10:25:09.488031 25895 layer_factory.hpp:77] Creating layer _plus3
I1213 10:25:09.488040 25895 net.cpp:84] Creating Layer _plus3
I1213 10:25:09.488044 25895 net.cpp:406] _plus3 <- stage2_unit2_bn3
I1213 10:25:09.488049 25895 net.cpp:406] _plus3 <- _plus2__plus2_0_split_1
I1213 10:25:09.488055 25895 net.cpp:380] _plus3 -> _plus3
I1213 10:25:09.488106 25895 net.cpp:122] Setting up _plus3
I1213 10:25:09.488111 25895 net.cpp:129] Top shape: 10 128 50 50 (3200000)
I1213 10:25:09.488116 25895 net.cpp:137] Memory required for data: 2270400120
I1213 10:25:09.488119 25895 layer_factory.hpp:77] Creating layer _plus3__plus3_0_split
I1213 10:25:09.488126 25895 net.cpp:84] Creating Layer _plus3__plus3_0_split
I1213 10:25:09.488131 25895 net.cpp:406] _plus3__plus3_0_split <- _plus3
I1213 10:25:09.488137 25895 net.cpp:380] _plus3__plus3_0_split -> _plus3__plus3_0_split_0
I1213 10:25:09.488144 25895 net.cpp:380] _plus3__plus3_0_split -> _plus3__plus3_0_split_1
I1213 10:25:09.488175 25895 net.cpp:122] Setting up _plus3__plus3_0_split
I1213 10:25:09.488181 25895 net.cpp:129] Top shape: 10 128 50 50 (3200000)
I1213 10:25:09.488190 25895 net.cpp:129] Top shape: 10 128 50 50 (3200000)
I1213 10:25:09.488194 25895 net.cpp:137] Memory required for data: 2296000120
I1213 10:25:09.488198 25895 layer_factory.hpp:77] Creating layer stage3_unit1_bn1
I1213 10:25:09.488204 25895 net.cpp:84] Creating Layer stage3_unit1_bn1
I1213 10:25:09.488209 25895 net.cpp:406] stage3_unit1_bn1 <- _plus3__plus3_0_split_0
I1213 10:25:09.488214 25895 net.cpp:380] stage3_unit1_bn1 -> stage3_unit1_bn1
I1213 10:25:09.488386 25895 net.cpp:122] Setting up stage3_unit1_bn1
I1213 10:25:09.488394 25895 net.cpp:129] Top shape: 10 128 50 50 (3200000)
I1213 10:25:09.488397 25895 net.cpp:137] Memory required for data: 2308800120
I1213 10:25:09.488404 25895 layer_factory.hpp:77] Creating layer stage3_unit1_bn1_scale
I1213 10:25:09.488411 25895 net.cpp:84] Creating Layer stage3_unit1_bn1_scale
I1213 10:25:09.488415 25895 net.cpp:406] stage3_unit1_bn1_scale <- stage3_unit1_bn1
I1213 10:25:09.488421 25895 net.cpp:367] stage3_unit1_bn1_scale -> stage3_unit1_bn1 (in-place)
I1213 10:25:09.488454 25895 layer_factory.hpp:77] Creating layer stage3_unit1_bn1_scale
I1213 10:25:09.488557 25895 net.cpp:122] Setting up stage3_unit1_bn1_scale
I1213 10:25:09.488564 25895 net.cpp:129] Top shape: 10 128 50 50 (3200000)
I1213 10:25:09.488567 25895 net.cpp:137] Memory required for data: 2321600120
I1213 10:25:09.488574 25895 layer_factory.hpp:77] Creating layer stage3_unit1_conv1
I1213 10:25:09.488584 25895 net.cpp:84] Creating Layer stage3_unit1_conv1
I1213 10:25:09.488588 25895 net.cpp:406] stage3_unit1_conv1 <- stage3_unit1_bn1
I1213 10:25:09.488595 25895 net.cpp:380] stage3_unit1_conv1 -> stage3_unit1_conv1
I1213 10:25:09.493124 25895 net.cpp:122] Setting up stage3_unit1_conv1
I1213 10:25:09.493144 25895 net.cpp:129] Top shape: 10 256 50 50 (6400000)
I1213 10:25:09.493149 25895 net.cpp:137] Memory required for data: 2347200120
I1213 10:25:09.493156 25895 layer_factory.hpp:77] Creating layer stage3_unit1_bn2
I1213 10:25:09.493165 25895 net.cpp:84] Creating Layer stage3_unit1_bn2
I1213 10:25:09.493170 25895 net.cpp:406] stage3_unit1_bn2 <- stage3_unit1_conv1
I1213 10:25:09.493176 25895 net.cpp:380] stage3_unit1_bn2 -> stage3_unit1_bn2
I1213 10:25:09.493403 25895 net.cpp:122] Setting up stage3_unit1_bn2
I1213 10:25:09.493412 25895 net.cpp:129] Top shape: 10 256 50 50 (6400000)
I1213 10:25:09.493415 25895 net.cpp:137] Memory required for data: 2372800120
I1213 10:25:09.493423 25895 layer_factory.hpp:77] Creating layer stage3_unit1_bn2_scale
I1213 10:25:09.493432 25895 net.cpp:84] Creating Layer stage3_unit1_bn2_scale
I1213 10:25:09.493436 25895 net.cpp:406] stage3_unit1_bn2_scale <- stage3_unit1_bn2
I1213 10:25:09.493440 25895 net.cpp:367] stage3_unit1_bn2_scale -> stage3_unit1_bn2 (in-place)
I1213 10:25:09.493479 25895 layer_factory.hpp:77] Creating layer stage3_unit1_bn2_scale
I1213 10:25:09.493582 25895 net.cpp:122] Setting up stage3_unit1_bn2_scale
I1213 10:25:09.493590 25895 net.cpp:129] Top shape: 10 256 50 50 (6400000)
I1213 10:25:09.493593 25895 net.cpp:137] Memory required for data: 2398400120
I1213 10:25:09.493599 25895 layer_factory.hpp:77] Creating layer stage3_unit1_relu1
I1213 10:25:09.493608 25895 net.cpp:84] Creating Layer stage3_unit1_relu1
I1213 10:25:09.493613 25895 net.cpp:406] stage3_unit1_relu1 <- stage3_unit1_bn2
I1213 10:25:09.493618 25895 net.cpp:380] stage3_unit1_relu1 -> stage3_unit1_relu1
I1213 10:25:09.493749 25895 net.cpp:122] Setting up stage3_unit1_relu1
I1213 10:25:09.493759 25895 net.cpp:129] Top shape: 10 256 50 50 (6400000)
I1213 10:25:09.493762 25895 net.cpp:137] Memory required for data: 2424000120
I1213 10:25:09.493767 25895 layer_factory.hpp:77] Creating layer stage3_unit1_conv2
I1213 10:25:09.493777 25895 net.cpp:84] Creating Layer stage3_unit1_conv2
I1213 10:25:09.493780 25895 net.cpp:406] stage3_unit1_conv2 <- stage3_unit1_relu1
I1213 10:25:09.493789 25895 net.cpp:380] stage3_unit1_conv2 -> stage3_unit1_conv2
I1213 10:25:09.501669 25895 net.cpp:122] Setting up stage3_unit1_conv2
I1213 10:25:09.501686 25895 net.cpp:129] Top shape: 10 256 25 25 (1600000)
I1213 10:25:09.501705 25895 net.cpp:137] Memory required for data: 2430400120
I1213 10:25:09.501713 25895 layer_factory.hpp:77] Creating layer stage3_unit1_bn3
I1213 10:25:09.501726 25895 net.cpp:84] Creating Layer stage3_unit1_bn3
I1213 10:25:09.501730 25895 net.cpp:406] stage3_unit1_bn3 <- stage3_unit1_conv2
I1213 10:25:09.501739 25895 net.cpp:380] stage3_unit1_bn3 -> stage3_unit1_bn3
I1213 10:25:09.501950 25895 net.cpp:122] Setting up stage3_unit1_bn3
I1213 10:25:09.501958 25895 net.cpp:129] Top shape: 10 256 25 25 (1600000)
I1213 10:25:09.501961 25895 net.cpp:137] Memory required for data: 2436800120
I1213 10:25:09.501971 25895 layer_factory.hpp:77] Creating layer stage3_unit1_bn3_scale
I1213 10:25:09.501981 25895 net.cpp:84] Creating Layer stage3_unit1_bn3_scale
I1213 10:25:09.501986 25895 net.cpp:406] stage3_unit1_bn3_scale <- stage3_unit1_bn3
I1213 10:25:09.501991 25895 net.cpp:367] stage3_unit1_bn3_scale -> stage3_unit1_bn3 (in-place)
I1213 10:25:09.502034 25895 layer_factory.hpp:77] Creating layer stage3_unit1_bn3_scale
I1213 10:25:09.502133 25895 net.cpp:122] Setting up stage3_unit1_bn3_scale
I1213 10:25:09.502141 25895 net.cpp:129] Top shape: 10 256 25 25 (1600000)
I1213 10:25:09.502144 25895 net.cpp:137] Memory required for data: 2443200120
I1213 10:25:09.502151 25895 layer_factory.hpp:77] Creating layer stage3_unit1_conv1sc
I1213 10:25:09.502161 25895 net.cpp:84] Creating Layer stage3_unit1_conv1sc
I1213 10:25:09.502166 25895 net.cpp:406] stage3_unit1_conv1sc <- _plus3__plus3_0_split_1
I1213 10:25:09.502174 25895 net.cpp:380] stage3_unit1_conv1sc -> stage3_unit1_conv1sc
I1213 10:25:09.502717 25895 net.cpp:122] Setting up stage3_unit1_conv1sc
I1213 10:25:09.502727 25895 net.cpp:129] Top shape: 10 256 25 25 (1600000)
I1213 10:25:09.502732 25895 net.cpp:137] Memory required for data: 2449600120
I1213 10:25:09.502737 25895 layer_factory.hpp:77] Creating layer stage3_unit1_sc
I1213 10:25:09.502748 25895 net.cpp:84] Creating Layer stage3_unit1_sc
I1213 10:25:09.502753 25895 net.cpp:406] stage3_unit1_sc <- stage3_unit1_conv1sc
I1213 10:25:09.502758 25895 net.cpp:380] stage3_unit1_sc -> stage3_unit1_sc
I1213 10:25:09.502955 25895 net.cpp:122] Setting up stage3_unit1_sc
I1213 10:25:09.502981 25895 net.cpp:129] Top shape: 10 256 25 25 (1600000)
I1213 10:25:09.502985 25895 net.cpp:137] Memory required for data: 2456000120
I1213 10:25:09.503001 25895 layer_factory.hpp:77] Creating layer stage3_unit1_sc_scale
I1213 10:25:09.503024 25895 net.cpp:84] Creating Layer stage3_unit1_sc_scale
I1213 10:25:09.503028 25895 net.cpp:406] stage3_unit1_sc_scale <- stage3_unit1_sc
I1213 10:25:09.503037 25895 net.cpp:367] stage3_unit1_sc_scale -> stage3_unit1_sc (in-place)
I1213 10:25:09.503082 25895 layer_factory.hpp:77] Creating layer stage3_unit1_sc_scale
I1213 10:25:09.503180 25895 net.cpp:122] Setting up stage3_unit1_sc_scale
I1213 10:25:09.503186 25895 net.cpp:129] Top shape: 10 256 25 25 (1600000)
I1213 10:25:09.503191 25895 net.cpp:137] Memory required for data: 2462400120
I1213 10:25:09.503197 25895 layer_factory.hpp:77] Creating layer _plus4
I1213 10:25:09.503207 25895 net.cpp:84] Creating Layer _plus4
I1213 10:25:09.503212 25895 net.cpp:406] _plus4 <- stage3_unit1_bn3
I1213 10:25:09.503216 25895 net.cpp:406] _plus4 <- stage3_unit1_sc
I1213 10:25:09.503223 25895 net.cpp:380] _plus4 -> _plus4
I1213 10:25:09.503247 25895 net.cpp:122] Setting up _plus4
I1213 10:25:09.503252 25895 net.cpp:129] Top shape: 10 256 25 25 (1600000)
I1213 10:25:09.503257 25895 net.cpp:137] Memory required for data: 2468800120
I1213 10:25:09.503260 25895 layer_factory.hpp:77] Creating layer _plus4__plus4_0_split
I1213 10:25:09.503268 25895 net.cpp:84] Creating Layer _plus4__plus4_0_split
I1213 10:25:09.503288 25895 net.cpp:406] _plus4__plus4_0_split <- _plus4
I1213 10:25:09.503302 25895 net.cpp:380] _plus4__plus4_0_split -> _plus4__plus4_0_split_0
I1213 10:25:09.503310 25895 net.cpp:380] _plus4__plus4_0_split -> _plus4__plus4_0_split_1
I1213 10:25:09.503345 25895 net.cpp:122] Setting up _plus4__plus4_0_split
I1213 10:25:09.503352 25895 net.cpp:129] Top shape: 10 256 25 25 (1600000)
I1213 10:25:09.503358 25895 net.cpp:129] Top shape: 10 256 25 25 (1600000)
I1213 10:25:09.503362 25895 net.cpp:137] Memory required for data: 2481600120
I1213 10:25:09.503366 25895 layer_factory.hpp:77] Creating layer stage3_unit2_bn1
I1213 10:25:09.503373 25895 net.cpp:84] Creating Layer stage3_unit2_bn1
I1213 10:25:09.503378 25895 net.cpp:406] stage3_unit2_bn1 <- _plus4__plus4_0_split_0
I1213 10:25:09.503386 25895 net.cpp:380] stage3_unit2_bn1 -> stage3_unit2_bn1
I1213 10:25:09.503588 25895 net.cpp:122] Setting up stage3_unit2_bn1
I1213 10:25:09.503597 25895 net.cpp:129] Top shape: 10 256 25 25 (1600000)
I1213 10:25:09.503602 25895 net.cpp:137] Memory required for data: 2488000120
I1213 10:25:09.503609 25895 layer_factory.hpp:77] Creating layer stage3_unit2_bn1_scale
I1213 10:25:09.503616 25895 net.cpp:84] Creating Layer stage3_unit2_bn1_scale
I1213 10:25:09.503621 25895 net.cpp:406] stage3_unit2_bn1_scale <- stage3_unit2_bn1
I1213 10:25:09.503630 25895 net.cpp:367] stage3_unit2_bn1_scale -> stage3_unit2_bn1 (in-place)
I1213 10:25:09.503666 25895 layer_factory.hpp:77] Creating layer stage3_unit2_bn1_scale
I1213 10:25:09.503767 25895 net.cpp:122] Setting up stage3_unit2_bn1_scale
I1213 10:25:09.503775 25895 net.cpp:129] Top shape: 10 256 25 25 (1600000)
I1213 10:25:09.503779 25895 net.cpp:137] Memory required for data: 2494400120
I1213 10:25:09.503787 25895 layer_factory.hpp:77] Creating layer stage3_unit2_conv1
I1213 10:25:09.503798 25895 net.cpp:84] Creating Layer stage3_unit2_conv1
I1213 10:25:09.503801 25895 net.cpp:406] stage3_unit2_conv1 <- stage3_unit2_bn1
I1213 10:25:09.503809 25895 net.cpp:380] stage3_unit2_conv1 -> stage3_unit2_conv1
I1213 10:25:09.511505 25895 net.cpp:122] Setting up stage3_unit2_conv1
I1213 10:25:09.511530 25895 net.cpp:129] Top shape: 10 256 25 25 (1600000)
I1213 10:25:09.511533 25895 net.cpp:137] Memory required for data: 2500800120
I1213 10:25:09.511544 25895 layer_factory.hpp:77] Creating layer stage3_unit2_bn2
I1213 10:25:09.511556 25895 net.cpp:84] Creating Layer stage3_unit2_bn2
I1213 10:25:09.511564 25895 net.cpp:406] stage3_unit2_bn2 <- stage3_unit2_conv1
I1213 10:25:09.511572 25895 net.cpp:380] stage3_unit2_bn2 -> stage3_unit2_bn2
I1213 10:25:09.511781 25895 net.cpp:122] Setting up stage3_unit2_bn2
I1213 10:25:09.511788 25895 net.cpp:129] Top shape: 10 256 25 25 (1600000)
I1213 10:25:09.511792 25895 net.cpp:137] Memory required for data: 2507200120
I1213 10:25:09.511799 25895 layer_factory.hpp:77] Creating layer stage3_unit2_bn2_scale
I1213 10:25:09.511808 25895 net.cpp:84] Creating Layer stage3_unit2_bn2_scale
I1213 10:25:09.511812 25895 net.cpp:406] stage3_unit2_bn2_scale <- stage3_unit2_bn2
I1213 10:25:09.511817 25895 net.cpp:367] stage3_unit2_bn2_scale -> stage3_unit2_bn2 (in-place)
I1213 10:25:09.511860 25895 layer_factory.hpp:77] Creating layer stage3_unit2_bn2_scale
I1213 10:25:09.511960 25895 net.cpp:122] Setting up stage3_unit2_bn2_scale
I1213 10:25:09.511967 25895 net.cpp:129] Top shape: 10 256 25 25 (1600000)
I1213 10:25:09.511971 25895 net.cpp:137] Memory required for data: 2513600120
I1213 10:25:09.511986 25895 layer_factory.hpp:77] Creating layer stage3_unit2_relu1
I1213 10:25:09.511994 25895 net.cpp:84] Creating Layer stage3_unit2_relu1
I1213 10:25:09.511998 25895 net.cpp:406] stage3_unit2_relu1 <- stage3_unit2_bn2
I1213 10:25:09.512004 25895 net.cpp:380] stage3_unit2_relu1 -> stage3_unit2_relu1
I1213 10:25:09.512411 25895 net.cpp:122] Setting up stage3_unit2_relu1
I1213 10:25:09.512424 25895 net.cpp:129] Top shape: 10 256 25 25 (1600000)
I1213 10:25:09.512428 25895 net.cpp:137] Memory required for data: 2520000120
I1213 10:25:09.512432 25895 layer_factory.hpp:77] Creating layer stage3_unit2_conv2
I1213 10:25:09.512447 25895 net.cpp:84] Creating Layer stage3_unit2_conv2
I1213 10:25:09.512452 25895 net.cpp:406] stage3_unit2_conv2 <- stage3_unit2_relu1
I1213 10:25:09.512459 25895 net.cpp:380] stage3_unit2_conv2 -> stage3_unit2_conv2
I1213 10:25:09.520057 25895 net.cpp:122] Setting up stage3_unit2_conv2
I1213 10:25:09.520071 25895 net.cpp:129] Top shape: 10 256 25 25 (1600000)
I1213 10:25:09.520076 25895 net.cpp:137] Memory required for data: 2526400120
I1213 10:25:09.520081 25895 layer_factory.hpp:77] Creating layer stage3_unit2_bn3
I1213 10:25:09.520089 25895 net.cpp:84] Creating Layer stage3_unit2_bn3
I1213 10:25:09.520094 25895 net.cpp:406] stage3_unit2_bn3 <- stage3_unit2_conv2
I1213 10:25:09.520102 25895 net.cpp:380] stage3_unit2_bn3 -> stage3_unit2_bn3
I1213 10:25:09.520300 25895 net.cpp:122] Setting up stage3_unit2_bn3
I1213 10:25:09.520308 25895 net.cpp:129] Top shape: 10 256 25 25 (1600000)
I1213 10:25:09.520313 25895 net.cpp:137] Memory required for data: 2532800120
I1213 10:25:09.520321 25895 layer_factory.hpp:77] Creating layer stage3_unit2_bn3_scale
I1213 10:25:09.520328 25895 net.cpp:84] Creating Layer stage3_unit2_bn3_scale
I1213 10:25:09.520332 25895 net.cpp:406] stage3_unit2_bn3_scale <- stage3_unit2_bn3
I1213 10:25:09.520339 25895 net.cpp:367] stage3_unit2_bn3_scale -> stage3_unit2_bn3 (in-place)
I1213 10:25:09.520375 25895 layer_factory.hpp:77] Creating layer stage3_unit2_bn3_scale
I1213 10:25:09.520476 25895 net.cpp:122] Setting up stage3_unit2_bn3_scale
I1213 10:25:09.520483 25895 net.cpp:129] Top shape: 10 256 25 25 (1600000)
I1213 10:25:09.520488 25895 net.cpp:137] Memory required for data: 2539200120
I1213 10:25:09.520494 25895 layer_factory.hpp:77] Creating layer _plus5
I1213 10:25:09.520504 25895 net.cpp:84] Creating Layer _plus5
I1213 10:25:09.520509 25895 net.cpp:406] _plus5 <- stage3_unit2_bn3
I1213 10:25:09.520515 25895 net.cpp:406] _plus5 <- _plus4__plus4_0_split_1
I1213 10:25:09.520521 25895 net.cpp:380] _plus5 -> _plus5
I1213 10:25:09.520545 25895 net.cpp:122] Setting up _plus5
I1213 10:25:09.520552 25895 net.cpp:129] Top shape: 10 256 25 25 (1600000)
I1213 10:25:09.520555 25895 net.cpp:137] Memory required for data: 2545600120
I1213 10:25:09.520560 25895 layer_factory.hpp:77] Creating layer _plus5__plus5_0_split
I1213 10:25:09.520576 25895 net.cpp:84] Creating Layer _plus5__plus5_0_split
I1213 10:25:09.520581 25895 net.cpp:406] _plus5__plus5_0_split <- _plus5
I1213 10:25:09.520592 25895 net.cpp:380] _plus5__plus5_0_split -> _plus5__plus5_0_split_0
I1213 10:25:09.520599 25895 net.cpp:380] _plus5__plus5_0_split -> _plus5__plus5_0_split_1
I1213 10:25:09.520632 25895 net.cpp:122] Setting up _plus5__plus5_0_split
I1213 10:25:09.520638 25895 net.cpp:129] Top shape: 10 256 25 25 (1600000)
I1213 10:25:09.520643 25895 net.cpp:129] Top shape: 10 256 25 25 (1600000)
I1213 10:25:09.520648 25895 net.cpp:137] Memory required for data: 2558400120
I1213 10:25:09.520651 25895 layer_factory.hpp:77] Creating layer stage4_unit1_bn1
I1213 10:25:09.520658 25895 net.cpp:84] Creating Layer stage4_unit1_bn1
I1213 10:25:09.520678 25895 net.cpp:406] stage4_unit1_bn1 <- _plus5__plus5_0_split_0
I1213 10:25:09.520686 25895 net.cpp:380] stage4_unit1_bn1 -> stage4_unit1_bn1
I1213 10:25:09.520893 25895 net.cpp:122] Setting up stage4_unit1_bn1
I1213 10:25:09.520901 25895 net.cpp:129] Top shape: 10 256 25 25 (1600000)
I1213 10:25:09.520905 25895 net.cpp:137] Memory required for data: 2564800120
I1213 10:25:09.520925 25895 layer_factory.hpp:77] Creating layer stage4_unit1_bn1_scale
I1213 10:25:09.520933 25895 net.cpp:84] Creating Layer stage4_unit1_bn1_scale
I1213 10:25:09.520938 25895 net.cpp:406] stage4_unit1_bn1_scale <- stage4_unit1_bn1
I1213 10:25:09.520943 25895 net.cpp:367] stage4_unit1_bn1_scale -> stage4_unit1_bn1 (in-place)
I1213 10:25:09.520987 25895 layer_factory.hpp:77] Creating layer stage4_unit1_bn1_scale
I1213 10:25:09.521132 25895 net.cpp:122] Setting up stage4_unit1_bn1_scale
I1213 10:25:09.521140 25895 net.cpp:129] Top shape: 10 256 25 25 (1600000)
I1213 10:25:09.521143 25895 net.cpp:137] Memory required for data: 2571200120
I1213 10:25:09.521150 25895 layer_factory.hpp:77] Creating layer stage4_unit1_conv1
I1213 10:25:09.521162 25895 net.cpp:84] Creating Layer stage4_unit1_conv1
I1213 10:25:09.521167 25895 net.cpp:406] stage4_unit1_conv1 <- stage4_unit1_bn1
I1213 10:25:09.521193 25895 net.cpp:380] stage4_unit1_conv1 -> stage4_unit1_conv1
I1213 10:25:09.535454 25895 net.cpp:122] Setting up stage4_unit1_conv1
I1213 10:25:09.535496 25895 net.cpp:129] Top shape: 10 512 25 25 (3200000)
I1213 10:25:09.535499 25895 net.cpp:137] Memory required for data: 2584000120
I1213 10:25:09.535513 25895 layer_factory.hpp:77] Creating layer stage4_unit1_bn2
I1213 10:25:09.535526 25895 net.cpp:84] Creating Layer stage4_unit1_bn2
I1213 10:25:09.535532 25895 net.cpp:406] stage4_unit1_bn2 <- stage4_unit1_conv1
I1213 10:25:09.535544 25895 net.cpp:380] stage4_unit1_bn2 -> stage4_unit1_bn2
I1213 10:25:09.535742 25895 net.cpp:122] Setting up stage4_unit1_bn2
I1213 10:25:09.535749 25895 net.cpp:129] Top shape: 10 512 25 25 (3200000)
I1213 10:25:09.535753 25895 net.cpp:137] Memory required for data: 2596800120
I1213 10:25:09.535760 25895 layer_factory.hpp:77] Creating layer stage4_unit1_bn2_scale
I1213 10:25:09.535769 25895 net.cpp:84] Creating Layer stage4_unit1_bn2_scale
I1213 10:25:09.535773 25895 net.cpp:406] stage4_unit1_bn2_scale <- stage4_unit1_bn2
I1213 10:25:09.535779 25895 net.cpp:367] stage4_unit1_bn2_scale -> stage4_unit1_bn2 (in-place)
I1213 10:25:09.535822 25895 layer_factory.hpp:77] Creating layer stage4_unit1_bn2_scale
I1213 10:25:09.535920 25895 net.cpp:122] Setting up stage4_unit1_bn2_scale
I1213 10:25:09.535928 25895 net.cpp:129] Top shape: 10 512 25 25 (3200000)
I1213 10:25:09.535931 25895 net.cpp:137] Memory required for data: 2609600120
I1213 10:25:09.535938 25895 layer_factory.hpp:77] Creating layer stage4_unit1_relu1
I1213 10:25:09.535944 25895 net.cpp:84] Creating Layer stage4_unit1_relu1
I1213 10:25:09.535949 25895 net.cpp:406] stage4_unit1_relu1 <- stage4_unit1_bn2
I1213 10:25:09.535955 25895 net.cpp:380] stage4_unit1_relu1 -> stage4_unit1_relu1
I1213 10:25:09.536103 25895 net.cpp:122] Setting up stage4_unit1_relu1
I1213 10:25:09.536113 25895 net.cpp:129] Top shape: 10 512 25 25 (3200000)
I1213 10:25:09.536116 25895 net.cpp:137] Memory required for data: 2622400120
I1213 10:25:09.536120 25895 layer_factory.hpp:77] Creating layer stage4_unit1_conv2
I1213 10:25:09.536132 25895 net.cpp:84] Creating Layer stage4_unit1_conv2
I1213 10:25:09.536136 25895 net.cpp:406] stage4_unit1_conv2 <- stage4_unit1_relu1
I1213 10:25:09.536144 25895 net.cpp:380] stage4_unit1_conv2 -> stage4_unit1_conv2
I1213 10:25:09.564566 25895 net.cpp:122] Setting up stage4_unit1_conv2
I1213 10:25:09.564596 25895 net.cpp:129] Top shape: 10 512 13 13 (865280)
I1213 10:25:09.564600 25895 net.cpp:137] Memory required for data: 2625861240
I1213 10:25:09.564613 25895 layer_factory.hpp:77] Creating layer stage4_unit1_bn3
I1213 10:25:09.564626 25895 net.cpp:84] Creating Layer stage4_unit1_bn3
I1213 10:25:09.564633 25895 net.cpp:406] stage4_unit1_bn3 <- stage4_unit1_conv2
I1213 10:25:09.564644 25895 net.cpp:380] stage4_unit1_bn3 -> stage4_unit1_bn3
I1213 10:25:09.564851 25895 net.cpp:122] Setting up stage4_unit1_bn3
I1213 10:25:09.564857 25895 net.cpp:129] Top shape: 10 512 13 13 (865280)
I1213 10:25:09.564862 25895 net.cpp:137] Memory required for data: 2629322360
I1213 10:25:09.564869 25895 layer_factory.hpp:77] Creating layer stage4_unit1_bn3_scale
I1213 10:25:09.564878 25895 net.cpp:84] Creating Layer stage4_unit1_bn3_scale
I1213 10:25:09.564882 25895 net.cpp:406] stage4_unit1_bn3_scale <- stage4_unit1_bn3
I1213 10:25:09.564888 25895 net.cpp:367] stage4_unit1_bn3_scale -> stage4_unit1_bn3 (in-place)
I1213 10:25:09.564949 25895 layer_factory.hpp:77] Creating layer stage4_unit1_bn3_scale
I1213 10:25:09.565052 25895 net.cpp:122] Setting up stage4_unit1_bn3_scale
I1213 10:25:09.565058 25895 net.cpp:129] Top shape: 10 512 13 13 (865280)
I1213 10:25:09.565062 25895 net.cpp:137] Memory required for data: 2632783480
I1213 10:25:09.565068 25895 layer_factory.hpp:77] Creating layer stage4_unit1_conv1sc
I1213 10:25:09.565083 25895 net.cpp:84] Creating Layer stage4_unit1_conv1sc
I1213 10:25:09.565088 25895 net.cpp:406] stage4_unit1_conv1sc <- _plus5__plus5_0_split_1
I1213 10:25:09.565095 25895 net.cpp:380] stage4_unit1_conv1sc -> stage4_unit1_conv1sc
I1213 10:25:09.566617 25895 net.cpp:122] Setting up stage4_unit1_conv1sc
I1213 10:25:09.566627 25895 net.cpp:129] Top shape: 10 512 13 13 (865280)
I1213 10:25:09.566630 25895 net.cpp:137] Memory required for data: 2636244600
I1213 10:25:09.566635 25895 layer_factory.hpp:77] Creating layer stage4_unit1_sc
I1213 10:25:09.566642 25895 net.cpp:84] Creating Layer stage4_unit1_sc
I1213 10:25:09.566646 25895 net.cpp:406] stage4_unit1_sc <- stage4_unit1_conv1sc
I1213 10:25:09.566651 25895 net.cpp:380] stage4_unit1_sc -> stage4_unit1_sc
I1213 10:25:09.566900 25895 net.cpp:122] Setting up stage4_unit1_sc
I1213 10:25:09.566910 25895 net.cpp:129] Top shape: 10 512 13 13 (865280)
I1213 10:25:09.566913 25895 net.cpp:137] Memory required for data: 2639705720
I1213 10:25:09.566922 25895 layer_factory.hpp:77] Creating layer stage4_unit1_sc_scale
I1213 10:25:09.566931 25895 net.cpp:84] Creating Layer stage4_unit1_sc_scale
I1213 10:25:09.566934 25895 net.cpp:406] stage4_unit1_sc_scale <- stage4_unit1_sc
I1213 10:25:09.566951 25895 net.cpp:367] stage4_unit1_sc_scale -> stage4_unit1_sc (in-place)
I1213 10:25:09.567042 25895 layer_factory.hpp:77] Creating layer stage4_unit1_sc_scale
I1213 10:25:09.567171 25895 net.cpp:122] Setting up stage4_unit1_sc_scale
I1213 10:25:09.567178 25895 net.cpp:129] Top shape: 10 512 13 13 (865280)
I1213 10:25:09.567183 25895 net.cpp:137] Memory required for data: 2643166840
I1213 10:25:09.567189 25895 layer_factory.hpp:77] Creating layer _plus6
I1213 10:25:09.567198 25895 net.cpp:84] Creating Layer _plus6
I1213 10:25:09.567201 25895 net.cpp:406] _plus6 <- stage4_unit1_bn3
I1213 10:25:09.567206 25895 net.cpp:406] _plus6 <- stage4_unit1_sc
I1213 10:25:09.567214 25895 net.cpp:380] _plus6 -> _plus6
I1213 10:25:09.567237 25895 net.cpp:122] Setting up _plus6
I1213 10:25:09.567245 25895 net.cpp:129] Top shape: 10 512 13 13 (865280)
I1213 10:25:09.567248 25895 net.cpp:137] Memory required for data: 2646627960
I1213 10:25:09.567251 25895 layer_factory.hpp:77] Creating layer _plus6__plus6_0_split
I1213 10:25:09.567260 25895 net.cpp:84] Creating Layer _plus6__plus6_0_split
I1213 10:25:09.567263 25895 net.cpp:406] _plus6__plus6_0_split <- _plus6
I1213 10:25:09.567270 25895 net.cpp:380] _plus6__plus6_0_split -> _plus6__plus6_0_split_0
I1213 10:25:09.567278 25895 net.cpp:380] _plus6__plus6_0_split -> _plus6__plus6_0_split_1
I1213 10:25:09.567309 25895 net.cpp:122] Setting up _plus6__plus6_0_split
I1213 10:25:09.567315 25895 net.cpp:129] Top shape: 10 512 13 13 (865280)
I1213 10:25:09.567322 25895 net.cpp:129] Top shape: 10 512 13 13 (865280)
I1213 10:25:09.567325 25895 net.cpp:137] Memory required for data: 2653550200
I1213 10:25:09.567328 25895 layer_factory.hpp:77] Creating layer stage4_unit2_bn1
I1213 10:25:09.567337 25895 net.cpp:84] Creating Layer stage4_unit2_bn1
I1213 10:25:09.567342 25895 net.cpp:406] stage4_unit2_bn1 <- _plus6__plus6_0_split_0
I1213 10:25:09.567346 25895 net.cpp:380] stage4_unit2_bn1 -> stage4_unit2_bn1
I1213 10:25:09.567538 25895 net.cpp:122] Setting up stage4_unit2_bn1
I1213 10:25:09.567545 25895 net.cpp:129] Top shape: 10 512 13 13 (865280)
I1213 10:25:09.567549 25895 net.cpp:137] Memory required for data: 2657011320
I1213 10:25:09.567557 25895 layer_factory.hpp:77] Creating layer stage4_unit2_bn1_scale
I1213 10:25:09.567565 25895 net.cpp:84] Creating Layer stage4_unit2_bn1_scale
I1213 10:25:09.567569 25895 net.cpp:406] stage4_unit2_bn1_scale <- stage4_unit2_bn1
I1213 10:25:09.567575 25895 net.cpp:367] stage4_unit2_bn1_scale -> stage4_unit2_bn1 (in-place)
I1213 10:25:09.567610 25895 layer_factory.hpp:77] Creating layer stage4_unit2_bn1_scale
I1213 10:25:09.567704 25895 net.cpp:122] Setting up stage4_unit2_bn1_scale
I1213 10:25:09.567711 25895 net.cpp:129] Top shape: 10 512 13 13 (865280)
I1213 10:25:09.567715 25895 net.cpp:137] Memory required for data: 2660472440
I1213 10:25:09.567721 25895 layer_factory.hpp:77] Creating layer stage4_unit2_conv1
I1213 10:25:09.567731 25895 net.cpp:84] Creating Layer stage4_unit2_conv1
I1213 10:25:09.567736 25895 net.cpp:406] stage4_unit2_conv1 <- stage4_unit2_bn1
I1213 10:25:09.567744 25895 net.cpp:380] stage4_unit2_conv1 -> stage4_unit2_conv1
I1213 10:25:09.597134 25895 net.cpp:122] Setting up stage4_unit2_conv1
I1213 10:25:09.597180 25895 net.cpp:129] Top shape: 10 512 13 13 (865280)
I1213 10:25:09.597183 25895 net.cpp:137] Memory required for data: 2663933560
I1213 10:25:09.597213 25895 layer_factory.hpp:77] Creating layer stage4_unit2_bn2
I1213 10:25:09.597227 25895 net.cpp:84] Creating Layer stage4_unit2_bn2
I1213 10:25:09.597234 25895 net.cpp:406] stage4_unit2_bn2 <- stage4_unit2_conv1
I1213 10:25:09.597244 25895 net.cpp:380] stage4_unit2_bn2 -> stage4_unit2_bn2
I1213 10:25:09.597460 25895 net.cpp:122] Setting up stage4_unit2_bn2
I1213 10:25:09.597467 25895 net.cpp:129] Top shape: 10 512 13 13 (865280)
I1213 10:25:09.597471 25895 net.cpp:137] Memory required for data: 2667394680
I1213 10:25:09.597481 25895 layer_factory.hpp:77] Creating layer stage4_unit2_bn2_scale
I1213 10:25:09.597489 25895 net.cpp:84] Creating Layer stage4_unit2_bn2_scale
I1213 10:25:09.597494 25895 net.cpp:406] stage4_unit2_bn2_scale <- stage4_unit2_bn2
I1213 10:25:09.597501 25895 net.cpp:367] stage4_unit2_bn2_scale -> stage4_unit2_bn2 (in-place)
I1213 10:25:09.597580 25895 layer_factory.hpp:77] Creating layer stage4_unit2_bn2_scale
I1213 10:25:09.597676 25895 net.cpp:122] Setting up stage4_unit2_bn2_scale
I1213 10:25:09.597682 25895 net.cpp:129] Top shape: 10 512 13 13 (865280)
I1213 10:25:09.597687 25895 net.cpp:137] Memory required for data: 2670855800
I1213 10:25:09.597692 25895 layer_factory.hpp:77] Creating layer stage4_unit2_relu1
I1213 10:25:09.597702 25895 net.cpp:84] Creating Layer stage4_unit2_relu1
I1213 10:25:09.597707 25895 net.cpp:406] stage4_unit2_relu1 <- stage4_unit2_bn2
I1213 10:25:09.597712 25895 net.cpp:380] stage4_unit2_relu1 -> stage4_unit2_relu1
I1213 10:25:09.598181 25895 net.cpp:122] Setting up stage4_unit2_relu1
I1213 10:25:09.598194 25895 net.cpp:129] Top shape: 10 512 13 13 (865280)
I1213 10:25:09.598198 25895 net.cpp:137] Memory required for data: 2674316920
I1213 10:25:09.598202 25895 layer_factory.hpp:77] Creating layer stage4_unit2_conv2
I1213 10:25:09.598215 25895 net.cpp:84] Creating Layer stage4_unit2_conv2
I1213 10:25:09.598220 25895 net.cpp:406] stage4_unit2_conv2 <- stage4_unit2_relu1
I1213 10:25:09.598230 25895 net.cpp:380] stage4_unit2_conv2 -> stage4_unit2_conv2
I1213 10:25:09.627523 25895 net.cpp:122] Setting up stage4_unit2_conv2
I1213 10:25:09.627557 25895 net.cpp:129] Top shape: 10 512 13 13 (865280)
I1213 10:25:09.627562 25895 net.cpp:137] Memory required for data: 2677778040
I1213 10:25:09.627576 25895 layer_factory.hpp:77] Creating layer stage4_unit2_bn3
I1213 10:25:09.627590 25895 net.cpp:84] Creating Layer stage4_unit2_bn3
I1213 10:25:09.627598 25895 net.cpp:406] stage4_unit2_bn3 <- stage4_unit2_conv2
I1213 10:25:09.627609 25895 net.cpp:380] stage4_unit2_bn3 -> stage4_unit2_bn3
I1213 10:25:09.627840 25895 net.cpp:122] Setting up stage4_unit2_bn3
I1213 10:25:09.627848 25895 net.cpp:129] Top shape: 10 512 13 13 (865280)
I1213 10:25:09.627856 25895 net.cpp:137] Memory required for data: 2681239160
I1213 10:25:09.627863 25895 layer_factory.hpp:77] Creating layer stage4_unit2_bn3_scale
I1213 10:25:09.627873 25895 net.cpp:84] Creating Layer stage4_unit2_bn3_scale
I1213 10:25:09.627878 25895 net.cpp:406] stage4_unit2_bn3_scale <- stage4_unit2_bn3
I1213 10:25:09.627883 25895 net.cpp:367] stage4_unit2_bn3_scale -> stage4_unit2_bn3 (in-place)
I1213 10:25:09.627934 25895 layer_factory.hpp:77] Creating layer stage4_unit2_bn3_scale
I1213 10:25:09.628044 25895 net.cpp:122] Setting up stage4_unit2_bn3_scale
I1213 10:25:09.628051 25895 net.cpp:129] Top shape: 10 512 13 13 (865280)
I1213 10:25:09.628055 25895 net.cpp:137] Memory required for data: 2684700280
I1213 10:25:09.628063 25895 layer_factory.hpp:77] Creating layer _plus7
I1213 10:25:09.628073 25895 net.cpp:84] Creating Layer _plus7
I1213 10:25:09.628078 25895 net.cpp:406] _plus7 <- stage4_unit2_bn3
I1213 10:25:09.628084 25895 net.cpp:406] _plus7 <- _plus6__plus6_0_split_1
I1213 10:25:09.628093 25895 net.cpp:380] _plus7 -> _plus7
I1213 10:25:09.628118 25895 net.cpp:122] Setting up _plus7
I1213 10:25:09.628124 25895 net.cpp:129] Top shape: 10 512 13 13 (865280)
I1213 10:25:09.628129 25895 net.cpp:137] Memory required for data: 2688161400
I1213 10:25:09.628132 25895 layer_factory.hpp:77] Creating layer bn1
I1213 10:25:09.628140 25895 net.cpp:84] Creating Layer bn1
I1213 10:25:09.628145 25895 net.cpp:406] bn1 <- _plus7
I1213 10:25:09.628150 25895 net.cpp:380] bn1 -> bn1
I1213 10:25:09.628338 25895 net.cpp:122] Setting up bn1
I1213 10:25:09.628346 25895 net.cpp:129] Top shape: 10 512 13 13 (865280)
I1213 10:25:09.628350 25895 net.cpp:137] Memory required for data: 2691622520
I1213 10:25:09.628358 25895 layer_factory.hpp:77] Creating layer bn1_scale
I1213 10:25:09.628365 25895 net.cpp:84] Creating Layer bn1_scale
I1213 10:25:09.628370 25895 net.cpp:406] bn1_scale <- bn1
I1213 10:25:09.628376 25895 net.cpp:367] bn1_scale -> bn1 (in-place)
I1213 10:25:09.628413 25895 layer_factory.hpp:77] Creating layer bn1_scale
I1213 10:25:09.628516 25895 net.cpp:122] Setting up bn1_scale
I1213 10:25:09.628523 25895 net.cpp:129] Top shape: 10 512 13 13 (865280)
I1213 10:25:09.628527 25895 net.cpp:137] Memory required for data: 2695083640
I1213 10:25:09.628535 25895 layer_factory.hpp:77] Creating layer fc8
I1213 10:25:09.628545 25895 net.cpp:84] Creating Layer fc8
I1213 10:25:09.628549 25895 net.cpp:406] fc8 <- bn1
I1213 10:25:09.628557 25895 net.cpp:380] fc8 -> fc8
I1213 10:25:09.634968 25895 net.cpp:122] Setting up fc8
I1213 10:25:09.635012 25895 net.cpp:129] Top shape: 10 2 (20)
I1213 10:25:09.635015 25895 net.cpp:137] Memory required for data: 2695083720
I1213 10:25:09.635031 25895 layer_factory.hpp:77] Creating layer fc8_fc8_0_split
I1213 10:25:09.635043 25895 net.cpp:84] Creating Layer fc8_fc8_0_split
I1213 10:25:09.635049 25895 net.cpp:406] fc8_fc8_0_split <- fc8
I1213 10:25:09.635059 25895 net.cpp:380] fc8_fc8_0_split -> fc8_fc8_0_split_0
I1213 10:25:09.635071 25895 net.cpp:380] fc8_fc8_0_split -> fc8_fc8_0_split_1
I1213 10:25:09.635121 25895 net.cpp:122] Setting up fc8_fc8_0_split
I1213 10:25:09.635128 25895 net.cpp:129] Top shape: 10 2 (20)
I1213 10:25:09.635133 25895 net.cpp:129] Top shape: 10 2 (20)
I1213 10:25:09.635138 25895 net.cpp:137] Memory required for data: 2695083880
I1213 10:25:09.635143 25895 layer_factory.hpp:77] Creating layer accuracy
I1213 10:25:09.635151 25895 net.cpp:84] Creating Layer accuracy
I1213 10:25:09.635155 25895 net.cpp:406] accuracy <- fc8_fc8_0_split_0
I1213 10:25:09.635160 25895 net.cpp:406] accuracy <- label_data_1_split_0
I1213 10:25:09.635169 25895 net.cpp:380] accuracy -> accuracy
…
